models saved/Adam_DJIA.pth (torch, 351323 bytes, 15 tensors)

weight_ih_l0 f4 [256, 5]
0	0x3dbfe002	0.09368898
1	0xbd5153b5	-0.05110522
2	0x3d359271	0.04432911
3	0xbcaec4cd	-0.021334076
4	0x3caf7d75	0.021422127
5	0xbd63c378	-0.055606335
6	0x3c84894b	0.016178748
7	0xbda36374	-0.079779536
8	0x3d73ceaa	0.059523262
9	0x3dacf852	0.08445801
10	0xbdb54660	-0.088513136
11	0x3ceb6e8f	0.028739242
12	0x3c9adb14	0.018903293
13	0xbdd1e37b	-0.102484666
14	0x3d183765	0.037162203
15	0xbd467b88	-0.048457652
16	0x3d601746	0.054709695
17	0xbd3ea18f	-0.046540793
18	0xbdcdc428	-0.100471795
19	0xbdd8af19	-0.10580272
20	0xbda1e66a	-0.07905276
21	0x3d2aa6b4	0.041662887
22	0xbdcf692e	-0.10127483
23	0xbdc7a565	-0.097483434
24	0xbb8792ef	-0.004137389
25	0x3dcf2bb4	0.101157576
26	0x3d8be4f1	0.068307765
27	0xba0fdc20	-0.0005487818
28	0x3cb962f8	0.0226302
29	0xbddbcab0	-0.10732019
30	0xbd7216eb	-0.059103888
31	0xbdb9d8f0	-0.09074581
32	0x3e0a9552	0.13533524
33	0x3d5493d4	0.051898792
34	0xbd110095	-0.035400946
35	0xbde52f72	-0.1119069
36	0x3cda1931	0.02662334
37	0xbcf3de70	-0.029769152
38	0x3c9c8c4c	0.019109868
39	0x3d8ca3e7	0.068671994
40	0xbd343b02	-0.044001587
41	0xbb94d4f3	-0.004541987
42	0xbaaae5b0	-0.0013038423
43	0x3d92ee9a	0.07174416
44	0xbb1e2e5b	-0.0024136517
45	0xbda33511	-0.07969106
46	0xbce423e6	-0.027849149
47	0xbd359d74	-0.044339612
48	0xbc899db5	-0.016798833
49	0x3c8b5b98	0.017011449
50	0x3e17f53e	0.14839646
51	0xbdb5f23c	-0.08884093
52	0x3e01e229	0.1268393
53	0xbd94ad9f	-0.07259678
54	0x3da2e41c	0.07953665
55	0x3d8e8ea0	0.06960797
56	0x3d19f23e	0.037584536
57	0x3d2033f6	0.039112054
58	0x3d710def	0.05885118
59	0xbdc3ffad	-0.09570251
60	0xbe08cf5b	-0.1336035
61	0xbdfb6bd4	-0.12276426
62	0xbdb18fda	-0.08670016
63	0xbddb46f1	-0.107068904
64	0xbd6d919e	-0.0580002
65	0xbd054410	-0.032535613
66	0xbcb6150b	-0.022226831
67	0x3d5f2e89	0.05448774
68	0x3cd04bf3	0.02542684
69	0xbd93188c	-0.07182416
70	0x3d6af934	0.057366565
71	0xbc74ec0a	-0.014948854
72	0x3dd9e09e	0.106385455
73	0x3e01014d	0.12598152
74	0x3d437779	0.04772136
75	0x3b55eefd	0.0032643669
76	0xbcf7f8f0	-0.03027007
77	0x3d8f4276	0.06995098
78	0xbd61c914	-0.055123404
79	0x3d304d5c	0.043042526
80	0x3cf2f6c1	0.029658677
81	0xbd2c362b	-0.042043846
82	0x3df0f187	0.11764818
83	0x3e114fea	0.14190641
84	0xbcb6fa7e	-0.02233624
85	0xbd58cdbf	-0.05293059
86	0x3cd21287	0.0256436
87	0x3c9231e9	0.017846065
88	0xbdcacdd5	-0.099025406
89	0xbe0eff98	-0.13964689
90	0xbc8f30c4	-0.017479308
91	0xbdb1d553	-0.086832665
92	0x3d06977c	0.03285931
93	0x3d8dfb7a	0.06932731
94	0x3bf60c68	0.007508803
95	0x3cb484b4	0.022035934
96	0x3d19bc87	0.03753331
97	0x3d5662b5	0.052340228
98	0xbd81d840	-0.063400745
99	0x3dc11afb	0.09428974
100	0x3c8da929	0.017292576
101	0xbdcf4d9c	-0.10122225
102	0xbd83c0e2	-0.06433274
103	0xbd845a10	-0.064624906
104	0xbe064aca	-0.13114467
105	0xbdd67a5d	-0.10472558
106	0xbd0f11d7	-0.034929123
107	0xbe017f78	-0.12646282
108	0xbd10054d	-0.035161305
109	0xbdaca5e9	-0.08430082
110	0xbd574ecc	-0.05256538
111	0xbc6d8825	-0.014497791
112	0xbde71024	-0.112823755
113	0xbda9312b	-0.08261331
114	0x3c9424fd	0.018084044
115	0x3e10f742	0.14156821
116	0x3cdef6b2	0.027217243
117	0x3dd35a5c	0.10319969
118	0x3dee4f22	0.11636187
119	0xbbf586ac	-0.007492861
120	0xbdb8cab2	-0.09023036
121	0xbd0d8690	-0.034552157
122	0xbd9b06dd	-0.075696684
123	0x3d30c8bf	0.043160196
124	0x3da48717	0.08033579
125	0x3d792cf6	0.060833894
126	0xbd2460ac	-0.040131256
127	0xbdef7380	-0.11691952
128	0x3cb8a370	0.02253887
129	0x3dab855f	0.08375048
130	0x3dbd2ee1	0.09237457
131	0x3d25c608	0.04047206
132	0xbd164463	-0.036686312
133	0x3d862144	0.06549314
134	0xbd8771b7	-0.06613486
135	0xbd65abc6	-0.05607202
136	0xbe08d6cc	-0.13363189
137	0xbd92053d	-0.071299054
138	0xbdc927a5	-0.09822015
139	0x3d980ba6	0.07424097
140	0xbd077ae9	-0.0330762
141	0xbe12e80f	-0.14346336
142	0x3ca2a5b9	0.019854413
143	0xbcfd9a5a	-0.03095739
144	0x3d01643f	0.031589743
145	0xbe10eea0	-0.14153528
146	0xbdf00503	-0.11719706
147	0xbe1e7c4a	-0.154771
148	0xbd613405	-0.05498125
149	0x3d265e7e	0.04061746
150	0xbdd6b4ba	-0.104836896
151	0x3d8e530f	0.06949436
152	0xbd949282	-0.07254507
153	0xbd791d69	-0.060819063
154	0xbe13be84	-0.14428145
155	0x3d47c59f	0.04877245
156	0x3db29ce2	0.08721329
157	0x3db50332	0.088385
158	0xbd9488a4	-0.07252625
159	0x3d862156	0.06549327
160	0x3d119854	0.035545662
161	0x3c089086	0.008335238
162	0x3d13ea06	0.036111854
163	0xbbdac46b	-0.006676247
164	0xbcdfbcb1	-0.027311655
165	0xbe18cb3c	-0.14921278
166	0xbdf17082	-0.11789037
167	0x3d56be59	0.052427623
168	0x3d26de31	0.040739242
169	0xbc663b43	-0.014052215
170	0x3d9f45fe	0.07777022
171	0xbe182aaa	-0.14860025
172	0xbe04e904	-0.12979513
173	0x3d6c3cae	0.057675056
174	0x3da6d787	0.08146577
175	0xbc2d2819	-0.010568642
176	0xbd45515d	-0.048173297
177	0x3e0995b3	0.13436012
178	0x3e09119f	0.13385628
179	0x3dd3bcb6	0.10338728
180	0x3c925f79	0.01786779
181	0xbdb72210	-0.08942044
182	0x3d611c56	0.054958664
183	0x3dc0367d	0.09385393
184	0x3d806bd9	0.0627057
185	0x3c9ffb03	0.019528871
186	0xbae44b28	-0.0017417418
187	0xbca7e352	-0.020494137
188	0xbd676b9a	-0.0564991
189	0xbd971a49	-0.0737806
190	0x3c952ba9	0.018209295
191	0x3d6bf2d1	0.057604615
192	0x3ce7fc4e	0.02831855
193	0xbdb23c16	-0.08702867
194	0xbd4b1dad	-0.049588848
195	0x3d784934	0.060616687
196	0x3d006cb4	0.031353667
197	0x3d388c04	0.045055404
198	0xbd5acfbc	-0.053420767
199	0xbe07b0ae	-0.13250992
200	0x3db65455	0.08902804
201	0xbd409d0e	-0.04702478
202	0xbd392809	-0.045204196
203	0xbde9a5a7	-0.11408549
204	0xbccbeb03	-0.024892336
205	0xbe0df94e	-0.13864633
206	0xbd3a6e0b	-0.0455151
207	0xbd9ca274	-0.07648173
208	0xbdaf7bd9	-0.08568544
209	0xbda5f2ae	-0.08102928
210	0xbd35bc4b	-0.044369023
211	0x3d23e674	0.0400147
212	0x3ce44b68	0.027867988
213	0xbd363fa2	-0.04449428
214	0xbcb83bbf	-0.022489427
215	0x3d8afe08	0.06786734
216	0xbdee0550	-0.11622107
217	0x3d04d5de	0.032430522
218	0xbcfc04be	-0.03076398
219	0x3cde1474	0.027109362
220	0xbe114743	-0.1418734
221	0x3d1c20af	0.038117107
222	0x3cbc5392	0.022989068
223	0x3c9fdbd9	0.019514011
224	0x3dc9ca91	0.098530896
225	0xbe03414e	-0.1281788
226	0xbb30229b	-0.0026876095
227	0xbdc343b5	-0.095343985
228	0xbd7feb0e	-0.062480025
229	0xbdba39ce	-0.090930566
230	0xbd5b2df1	-0.05351061
231	0xbba9d65b	-0.005183024
232	0x3cf3c01e	0.029754695
233	0xbe039215	-0.12848695
234	0x3d9274d6	0.07151191
235	0x3de54c8c	0.11196241
236	0xbdf5978f	-0.11991798
237	0x3d1304a0	0.035893083
238	0xbdf24448	-0.1182943
239	0xbcfda13a	-0.030960668
240	0xbba5dd06	-0.0050617484
241	0x3c92901e	0.017890986
242	0xbd5ef507	-0.054432895
243	0xbd35b0c5	-0.044358034
244	0xbcf6c966	-0.030125331
245	0xbce6fcca	-0.028196711
246	0x3d801d0f	0.062555425
247	0x3d9d7216	0.07687776
248	0xbd86b4ba	-0.065774396
249	0x3de028f0	0.10945308
250	0xbdcb7cee	-0.09935938
251	0xbd24f38e	-0.040271334
252	0xbdade649	-0.08491189
253	0x3bfad531	0.007654809
254	0x3ce65be7	0.028119994
255	0x3d59b286	0.05314877

weight_hh_l0 f4 [256, 64]
0	0x3dc25c85	0.09490303
1	0x3d723dfd	0.059141148
2	0xbd9adda0	-0.07561803
3	0xbdb3662d	-0.08759723
4	0x3cf408b2	0.029789302
5	0x3d516044	0.051117197
6	0xbdbaf189	-0.091281004
7	0xbd70944a	-0.05873517
8	0x3dbe31b4	0.09286824
9	0x3cf2fafa	0.02966069
10	0x3dfe0c7a	0.124047235
11	0x3d327f9a	0.04357872
12	0xbc526909	-0.012842425
13	0xbdd0d25a	-0.101963714
14	0xbd798209	-0.060915027
15	0x3dcc5844	0.09977773
16	0x3da90c26	0.0825427
17	0xbd885cce	-0.06658326
18	0x3c15b98e	0.009138478
19	0x3d28262e	0.041052036
20	0xbd51c1d9	-0.05121026
21	0xbdc9bf16	-0.098509
22	0x3d8b7526	0.06809454
23	0x3cd82a2a	0.026387293
24	0x3dfad01a	0.122467235
25	0xbd93a6cc	-0.07209548
26	0xbc606870	-0.013696775
27	0xbcbcaf89	-0.02303292
28	0xbda27a56	-0.0793349
29	0xbd372e7b	-0.04472206
30	0x3e0b7e38	0.13622367
31	0x3e04d0ae	0.1297023
32	0x3b9c7910	0.004775174
33	0xbdce1c4e	-0.100639924
34	0xbd619a91	-0.055079047
35	0xbda8fa84	-0.08250907
36	0xbd871d0e	-0.065973386
37	0xbd3d4a7c	-0.046213612
38	0x3dbc62a5	0.091985025
39	0xbc3434b4	-0.0109988935
40	0xbc8e2741	-0.017352702
41	0xbe13624b	-0.14392965
42	0x3ce8868e	0.028384473
43	0xbc91f644	-0.017817624
44	0xbd904318	-0.07044047
45	0xbdd6f09c	-0.10495111
46	0x3d724589	0.059148345
47	0x3d15273a	0.036414362
48	0x3d8cad0a	0.06868942
49	0xbdaab29b	-0.083348475
50	0x3dd186b5	0.102307715
51	0xbce0241b	-0.027360966
52	0xbe075a76	-0.13218102
53	0x3cfe1f96	0.03102092
54	0xbe18c5b9	-0.14919175
55	0x3d8a491e	0.06752227
56	0xbc7b5e14	-0.015342254
57	0xbc17d7f8	-0.0092678
58	0x3e0d71f7	0.13813005
59	0xbcfc5235	-0.030800918
60	0xbda40a43	-0.0800977
61	0x3ca11004	0.019660957
62	0x3e15ea64	0.14640194
63	0x3d3e8f9f	0.046523686
64	0x3da3519f	0.07974552
65	0xbd81a8e9	-0.06331045
66	0xbd01abe4	-0.03165807
67	0xbc415371	-0.011799679
68	0x3d695067	0.056961443
69	0xbdc633bc	-0.09677836
70	0xbb650020	-0.0034942701
71	0x3bed8f4b	0.007249748
72	0x3c00aacf	0.007853224
73	0xbe01eaba	-0.12687197
74	0xbd116033	-0.035492133
75	0xbdf68e37	-0.12038844
76	0xbd937b71	-0.07201279
77	0x3db2b1cc	0.08725318
78	0x3da7870a	0.081800535
79	0xbdcbee77	-0.09957593
80	0xbd7ce4e1	-0.061741713
81	0x3d1afeb1	0.03784055
82	0xbae51767	-0.0017478288
83	0x3ba5e24e	0.005062378
84	0xbd1016b3	-0.035177898
85	0x3d5dd8b5	0.054161746
86	0x3c41d3a8	0.011830248
87	0xbc176ac4	-0.0092417635
88	0xbd779954	-0.06044896
89	0x3df8c65b	0.12147208
90	0x3d092c0d	0.033489276
91	0xbd78b2ab	-0.060717266
92	0xbdbe4562	-0.092905775
93	0xbcb28c54	-0.02179543
94	0xbce33d8e	-0.027739312
95	0xbd4f58ff	-0.050621983
96	0x3cd5d819	0.02610402
97	0x3d7fbf23	0.06243814
98	0xbcd44741	-0.025912883
99	0xbc8b1cbc	-0.016981475
100	0xbdc993bf	-0.098426335
101	0x3b63be97	0.0034751052
102	0xbdc8ce56	-0.098049805
103	0x3cda8e6d	0.026679242
104	0xbd71406d	-0.05889933
105	0x3d691176	0.056901418
106	0x3dad9d4a	0.08477266
107	0xbd10e3c1	-0.035373453
108	0x3df57c0b	0.1198655
109	0x3ce9c7e8	0.028537706
110	0xbb0f1786	-0.002183409
111	0xbdc86afb	-0.0978603
112	0xbd0d3608	-0.034475356
113	0x3d9bf5c4	0.076152354
114	0x3d593bb7	0.053035464
115	0xbdb8ed62	-0.09029652
116	0x3d9cf4ea	0.07663901
117	0x3d0240df	0.031800147
118	0xbc68fd54	-0.014220554
119	0x3dc5389f	0.0962994
120	0xbd74234c	-0.059603974
121	0xbd822f2e	-0.06356655
122	0xbcaf9f31	-0.021438213
123	0xbcfa67a2	-0.030566994
124	0xbe0514c5	-0.12996204
125	0x3dbaf128	0.09128028
126	0xbd943175	-0.07235996
127	0xbdf43f9d	-0.11926196
128	0xbda82f49	-0.08212144
129	0x3c762e1b	0.015025641
130	0x3dac2fb5	0.08407537
131	0x3dd7d509	0.1053868
132	0x3d20c970	0.039254606
133	0xbdb22ed1	-0.08700336
134	0x3db90848	0.09034783
135	0x3de5115f	0.11184954
136	0x3d88bbfd	0.06676481
137	0x3dce6f83	0.10079863
138	0xbda6549c	-0.08121607
139	0xbdf2569c	-0.11832926
140	0xbd336923	-0.043801438
141	0xbc6c3281	-0.014416338
142	0xbd31e538	-0.04343149
143	0xbc07a64f	-0.008279397
144	0xbd90abb0	-0.07063997
145	0x3d54656f	0.051854547
146	0xbe0de867	-0.13858186
147	0xbd918c4f	-0.0710684
148	0x3dc5511b	0.0963461
149	0x3d03942f	0.03212374
150	0x3d98ab3c	0.07454535
151	0x3c75d2c1	0.015003861
152	0xbd16710e	-0.03672891
153	0x3d29d901	0.041466717
154	0xbdd3da3b	-0.103443585
155	0x3d20a824	0.03922285
156	0xbd97ffc7	-0.074218325
157	0xbdffc475	-0.12488643
158	0xbda6eacd	-0.081502534
159	0xbd94dbec	-0.07268509
160	0xbde93894	-0.113877445
161	0x3db3d163	0.08780172
162	0x3cb0e05e	0.021591362
163	0xbda53905	-0.08067516
164	0xbdc7df53	-0.097593926
165	0xbdf0d5bb	-0.11759516
166	0xbd1d6c23	-0.038433205
167	0xbcc249d5	-0.023716846
168	0x3daff549	0.08591706
169	0x3c2f3d03	0.010695699
170	0xbc8bbc19	-0.017057465
171	0xbde19b2e	-0.11015926
172	0xbc1343ae	-0.008988304
173	0x3b5f886d	0.0034108416
174	0x3dd749ad	0.105120994
175	0xbd8f94b9	-0.070107885
176	0x3d2c237d	0.04202603
177	0x3bf1b2e5	0.007376062
178	0xbd89fae5	-0.067373075
179	0x3d5a0bad	0.05323379
180	0xbdb9333f	-0.090429775
181	0xbd9fa9e9	-0.0779608
182	0x3dc322dd	0.09528134
183	0xbda3c04b	-0.07995661
184	0x3d2d10d2	0.04225237
185	0x3d3ee431	0.04660434
186	0xbe03e297	-0.12879406
187	0xbcd210a9	-0.02564271
188	0xbddb4c7d	-0.10707948
189	0xbd5a38d7	-0.053276863
190	0x3dd3bbfa	0.10338588
191	0x3ddf8ef9	0.10915942
192	0xbd9e772a	-0.077375725
193	0xbe14d0c2	-0.1453276
194	0x3a77e449	0.00094563194
195	0xbdcbb2bf	-0.099462025
196	0x3db76264	0.089543134
197	0x3db2034d	0.08692036
198	0x3d65fc8b	0.056149047
199	0x3d89a9cd	0.0672184
200	0x3db00ff6	0.08596794
201	0x3d97bde2	0.07409264
202	0x3da67d20	0.081293344
203	0x3bec1279	0.0072043505
204	0xbc586f5b	-0.013210143
205	0x3d9e765c	0.07737419
206	0x3d259102	0.040421493
207	0x3d89e0f4	0.067323595
208	0x3cff16bc	0.03113877
209	0xbd958aae	-0.07301842
210	0x3c8f8cc4	0.017523177
211	0xbdc95c20	-0.098320246
212	0x38c7c428	9.5255964e-05
213	0xbd83cb0a	-0.06435211
214	0xbd9b089c	-0.075700015
215	0xbdc112b7	-0.09427398
216	0x3e1b39f1	0.15158822
217	0xbba64707	-0.005074385
218	0x3c124b73	0.008929121
219	0xbe0b5ad4	-0.13608867
220	0xbd3d2197	-0.046174612
221	0xbd4ddfb0	-0.050262153
222	0xbd2b789b	-0.041863065
223	0x3dd2bc41	0.10289813
224	0xbce4da12	-0.027936015
225	0xbd9be052	-0.07611145
226	0xbda876f3	-0.08225813
227	0xbd9962ab	-0.074895225
228	0x3c6b059d	0.0143446
229	0xbda96f2a	-0.08273156
230	0xbd95360d	-0.072857
231	0xbd1db407	-0.038501766
232	0xbd8540fd	-0.06506536
233	0xbe0c669d	-0.13711019
234	0xbd9e42c7	-0.077275805
235	0x3cde0212	0.027100597
236	0xbc934cee	-0.017981019
237	0xbdff05cd	-0.12452278
238	0xbd60110d	-0.05470376
239	0x3dc911db	0.09817859
240	0x3db393ae	0.08768402
241	0xbc43931d	-0.01193693
242	0x3c2ef33f	0.010678112
243	0x3e0977c3	0.13424592
244	0x3c28a9c0	0.010294378
245	0xbdb54945	-0.08851866
246	0x3e04aa36	0.12955555
247	0x3d908018	0.07055682
248	0xbc920b1b	-0.017827561
249	0xbafcafe4	-0.0019278494
250	0x3e037c80	0.12840462
251	0xbdaf9214	-0.08572784
252	0x3df9184b	0.12162837
253	0x3db17027	0.086639695
254	0xbc23a144	-0.009987179
255	0xbdba8353	-0.09107079

bias_ih_l0 f4 [256]
0	0x3cb70ae4	0.02234406
1	0x3d201d10	0.039090216
2	0xbdae7616	-0.08518617
3	0xbdc8f5ad	-0.09812484
4	0x3dce29b9	0.10066552
5	0xbd77ecc4	-0.06052853
6	0x3c71800c	0.014740001
7	0x3e0b0a43	0.13578133
8	0xbdcf39ea	-0.10118468
9	0x3dd1e3d6	0.102485344
10	0x3c44d19a	0.0120128635
11	0x3d9d8501	0.07691384
12	0xbd6bc4df	-0.057560798
13	0x3dc92ff5	0.098236
14	0xbddd1873	-0.10795679
15	0x3e04e2db	0.12977163
16	0xbd778625	-0.060430665
17	0xbd031b9b	-0.03200875
18	0xbdfa7106	-0.12228589
19	0x3d93fccb	0.07225951
20	0xbd873a37	-0.066029005
21	0xbdf98903	-0.12184336
22	0xbcd078e8	-0.025448278
23	0xbd342154	-0.043977097
24	0x3d3d0c52	0.046154328
25	0x3dbd62c1	0.092473514
26	0xbde2c78c	-0.11073217
27	0x3e09dfdf	0.13464306
28	0xbdca69aa	-0.09883435
29	0xbd8f81ea	-0.07007201
30	0xbd95278b	-0.07282933
31	0xbc453b1a	-0.012038017
32	0x3d45dc71	0.048305932
33	0xbdad9dcb	-0.08477362
34	0xbd803b38	-0.06261295
35	0xbda3ec63	-0.080040716
36	0xbd81e6f2	-0.063428774
37	0xbd8b974d	-0.06815968
38	0xbd7029d2	-0.058633633
39	0xbdc0d79e	-0.09416126
40	0xbdbce4cd	-0.09223328
41	0x3d9b2e1f	0.07577156
42	0x3db2418b	0.087039076
43	0xbb9c0318	-0.004761111
44	0x3e010e22	0.12603047
45	0x3df31944	0.118700534
46	0xbd8540c6	-0.06506495
47	0xbd832957	-0.06404369
48	0x3d89d348	0.06729752
49	0xbcf3cbe7	-0.029760314
50	0xbdd19013	-0.10232558
51	0x3cf2e242	0.029648904
52	0xbded65ce	-0.11591683
53	0x3db9b0d6	0.09066932
54	0x3dd1a528	0.10236579
55	0x3dd3ca19	0.103412814
56	0x3d6dc490	0.058048785
57	0xbdd4a99a	-0.103839114
58	0x3d8af55d	0.067850806
59	0xbd09cfe2	-0.033645518
60	0x3c31d01b	0.010852839
61	0xbb85528b	-0.004068678
62	0xbdc1ff63	-0.09472539
63	0xbd63d859	-0.055626247
64	0xbd148546	-0.036259912
65	0xbdc96d32	-0.098352805
66	0xbde50be3	-0.11183908
67	0xbc12f68b	-0.008969913
68	0xbca4ae45	-0.02010263
69	0x3dafc2dd	0.08582089
70	0x3e0893f6	0.13337693
71	0x3d8b3baf	0.06798493
72	0x3d9a2e31	0.075283416
73	0xbdb33628	-0.08750564
74	0x3bcf7050	0.0063305274
75	0xbd8b8b14	-0.068136364
76	0x3de1feb8	0.11034912
77	0x3c6ce654	0.014459211
78	0x3ddf4de4	0.10903528
79	0x3d938658	0.072033584
80	0xbdb6fe81	-0.089352615
81	0xbc044b83	-0.008074644
82	0xbd83e6b2	-0.06440486
83	0xbd3b3518	-0.04570493
84	0x3d75ddab	0.060025852
85	0xbda6c9b3	-0.0814394
86	0x3d9c81be	0.07641934
87	0x3be24015	0.006904612
88	0x3da6a712	0.08137335
89	0xbd88a807	-0.06672674
90	0xbdc1ddac	-0.09466109
91	0x3db8bedb	0.09020778
92	0xbd56c838	-0.052437037
93	0x3d17a9bb	0.037027102
94	0xbdb5f496	-0.08884542
95	0x3ce0a65a	0.027423073
96	0x3d5665c7	0.052343156
97	0xbddb450f	-0.10706531
98	0xbd376f6c	-0.044783995
99	0x3dee5874	0.11637965
100	0xbd05fc6c	-0.03271143
101	0x3daf7378	0.08566946
102	0xbda4a350	-0.08038962
103	0x3d41ae08	0.04728511
104	0x3c454a8a	0.012041697
105	0x3d347540	0.04405713
106	0xbd1c839c	-0.03821145
107	0xbdb8cedc	-0.0902383
108	0xbc67c7ff	-0.014146804
109	0x3c6aed17	0.014338753
110	0x3d0f3590	0.03496319
111	0xbde5bc5e	-0.11217569
112	0xbcf3ddd2	-0.029768858
113	0x3dc2b6bc	0.0950751
114	0xbd73a7bc	-0.059486136
115	0xbd8b6917	-0.06807154
116	0x3dc1367d	0.09434221
117	0x3cce926a	0.0252163
118	0xbd12359e	-0.035695665
119	0x3ccc25f1	0.024920436
120	0x3d82f367	0.063940816
121	0x3dfc8a05	0.12331013
122	0xbd14432b	-0.03619687
123	0x3c951ed1	0.018203171
124	0xbd080558	-0.03320822
125	0xbd3c2297	-0.045931425
126	0x3d1b6dad	0.03794639
127	0x3e09724f	0.13422512
128	0xbdb01405	-0.085975684
129	0xbd9d7442	-0.0768819
130	0x3d9ac7dd	0.07557652
131	0xbd0c94ed	-0.034321714
132	0xbdb5e1a1	-0.08880926
133	0xbe00c10a	-0.12573639
134	0xbda49b85	-0.080374755
135	0xbdd708f8	-0.104997575
136	0xbdac2189	-0.08404834
137	0x3c53a1b7	0.012916974
138	0x3dec5ff5	0.1154174
139	0xbdd99b45	-0.106253184
140	0x3dc45f77	0.09588521
141	0x3dd5c128	0.10437232
142	0xbde781d8	-0.113040626
143	0xbd238f3a	-0.039931513
144	0xbe00e9f7	-0.1258925
145	0x3b9b9e56	0.0047490997
146	0xbda3acee	-0.07991968
147	0x3d7baaab	0.06144206
148	0x3cbeb88b	0.023281356
149	0xbd9c057d	-0.07618234
150	0x3dbc3790	0.09190285
151	0x3df55680	0.11979389
152	0xbd1b6cff	-0.037945744
153	0xbd79f94c	-0.061028764
154	0x3cb876fe	0.022517677
155	0x3d39bec4	0.045347944
156	0xbdc884a0	-0.09790921
157	0xbc71f51e	-0.014767913
158	0x3dcecd0a	0.10097702
159	0x3daadbb0	0.08342683
160	0xbdbf877d	-0.09352014
161	0x3dbec7df	0.09315466
162	0xbd722273	-0.059114885
163	0xbdc1b41e	-0.09458183
164	0x3ddbe8b8	0.10737747
165	0xbddce5f1	-0.10786045
166	0x3d7179fd	0.058954228
167	0xbd76e8f8	-0.06028077
168	0xbdd75ae6	-0.105153844
169	0x3d61f01d	0.05516063
170	0xbdc3fe26	-0.09569959
171	0xbd779ba6	-0.060451172
172	0xbcd4d21e	-0.025979098
173	0x3da517e8	0.080612004
174	0xbc8ab0b2	-0.016929958
175	0xbd977d6b	-0.073969685
176	0xbdbd7cd2	-0.09252323
177	0xbc8ff34d	-0.01757207
178	0xbcdb80e8	-0.026794866
179	0x3dcf3ffd	0.10119627
180	0xbd094eba	-0.033522345
181	0x3da01142	0.07815792
182	0xbdba9224	-0.09109905
183	0x3d01ff9e	0.031737916
184	0xbd4205b2	-0.047368713
185	0x3d7a0105	0.06103613
186	0x3da1b632	0.07896079
187	0xbdde0f1d	-0.108427264
188	0xbbe24570	-0.0069052503
189	0x3dd1476e	0.10218702
190	0xbb800430	-0.003906749
191	0x3d56362e	0.052297764
192	0xbd0d2aae	-0.03446453
193	0x3d1621f3	0.03665347
194	0xbdbf0666	-0.09327392
195	0xbdecdb7d	-0.115653016
196	0xbd5223bb	-0.051303606
197	0x3cb77c19	0.022398042
198	0xbd811395	-0.06302563
199	0x3dfc24a8	0.12311679
200	0xbc58ca55	-0.013231833
201	0x3d1f9751	0.038962666
202	0x3c9c80f7	0.019104464
203	0xbdc5d393	-0.09659495
204	0x3dc71014	0.097198635
205	0xbe09d222	-0.13459066
206	0x3d4e636b	0.05038778
207	0xbdb3f2df	-0.08786558
208	0xbd8fc457	-0.07019871
209	0x3df6db04	0.12053493
210	0x3d157e8a	0.03649763
211	0x3dd0b851	0.101914056
212	0xbda33ecb	-0.07970961
213	0x3d88db2a	0.06682427
214	0x3dc694f4	0.09696379
215	0xbd85dc9c	-0.065362185
216	0xbca679a3	-0.020321673
217	0x3e19a832	0.15005568
218	0x3e093cd9	0.13402118
219	0x3e0ee70b	0.13955323
220	0x3ca84a7c	0.02054333
221	0xbdc5c274	-0.096562296
222	0x3e047762	0.12936166
223	0xbdbb2b34	-0.091391
224	0x3d9be174	0.07611361
225	0xbd7fc8f6	-0.06244751
226	0x3dc0d60a	0.09415825
227	0x3da1b87b	0.07896515
228	0xbdabc062	-0.083863035
229	0x3d2761c5	0.040864725
230	0xbb5871c7	-0.00330268
231	0x3dd89b4e	0.10576497
232	0xbb54b3e8	-0.0032455865
233	0x3d04ff18	0.03246984
234	0xbdba9b67	-0.09111672
235	0x3d710ab9	0.058848117
236	0xbdaf1bb5	-0.085502066
237	0x3dabb52d	0.08384166
238	0x3d971cf4	0.07378569
239	0xbdbb9598	-0.09159392
240	0x3d8dd7c4	0.0692592
241	0xbcb45f6d	-0.022018159
242	0x3e089e33	0.13341598
243	0x3df37f6e	0.1188954
244	0x3bdd0ad7	0.006745677
245	0xbdd9bb6e	-0.106314525
246	0x3de55095	0.111970104
247	0x3e043e95	0.12914498
248	0x3df0241e	0.11725639
249	0x3deb0cf9	0.11477084
250	0x3d8a54b7	0.06754439
251	0x3e0ee081	0.13952829
252	0xbd6a1c0a	-0.057155646
253	0x3d969647	0.07352882
254	0x3d5f4a0e	0.054513983
255	0x3dd299b2	0.10283221

bias_hh_l0 f4 [256]
0	0xbc985777	-0.018596394
1	0x3d9560fd	0.0729389
2	0x3cfaebd6	0.030630033
3	0xbc0d3498	-0.008618496
4	0x3dac37c1	0.08409072
5	0x3e0237c5	0.12716587
6	0x3dce1be6	0.10063915
7	0x3c81fc2f	0.01586732
8	0xbd4fb54a	-0.05071
9	0xbd4d421c	-0.050111875
10	0x3d1a1c70	0.037624776
11	0x3c04e7fe	0.008111952
12	0x3deee2e9	0.116643734
13	0x3d975881	0.07389928
14	0xbdb43465	-0.08799056
15	0xbc153a72	-0.009108173
16	0x3d1cf450	0.038318932
17	0xbbae7553	-0.0053240447
18	0xbdf23392	-0.118262425
19	0xbcec5683	-0.028849846
20	0xbdbc8575	-0.092051424
21	0x3d11f4d5	0.03563388
22	0xbdef6596	-0.11689298
23	0x3cecf5c1	0.028925778
24	0x3d14d26c	0.036333486
25	0xbd16524e	-0.036699586
26	0x3e006e87	0.12542163
27	0x3dc88793	0.09791484
28	0xbcd7a5aa	-0.026324112
29	0x3db652e6	0.0890253
30	0xbd0980d7	-0.033570137
31	0x3d30e008	0.043182403
32	0x3dd05e73	0.10174265
33	0xbc6594b7	-0.014012507
34	0x3dc73334	0.09726563
35	0x3d331c0c	0.04372792
36	0x3c8f9dd6	0.017531317
37	0x3d79ed5f	0.06101739
38	0xbca4009d	-0.020019824
39	0x3e034c58	0.12822092
40	0xbd9091a5	-0.070590295
41	0x3cbe62fd	0.02324056
42	0xbdb73c03	-0.08946993
43	0xbdc866ef	-0.09785258
44	0x3cc19c0a	0.023633976
45	0xbd760f38	-0.060073107
46	0x3de708b6	0.11280958
47	0x3de19281	0.110142715
48	0xbdb2bcf0	-0.08727443
49	0x3cd0d78b	0.025493404
50	0xbc5302ab	-0.012879054
51	0xbd70762b	-0.058706444
52	0x3de8aef2	0.11361493
53	0xbcba177d	-0.022716278
54	0x3d95ec8f	0.073205106
55	0x3d828359	0.06372709
56	0xbd38dc95	-0.04513224
57	0xbd270e24	-0.04078497
58	0x3de6b55b	0.112650596
59	0x3cc98299	0.024598407
60	0x3d8a9fb4	0.06768742
61	0xbce006f1	-0.02734706
62	0xbcfcd891	-0.030864986
63	0x3dd36f91	0.10324014
64	0xbddc587c	-0.107590646
65	0x3b88e315	0.004177461
66	0x3debb55d	0.11509202
67	0xbc9e618f	-0.019333629
68	0x3ab5eff1	0.0013880712
69	0x3db00d89	0.085963316
70	0xbcf5c18d	-0.029999519
71	0x3de45289	0.11148555
72	0x3c6530d9	0.013988697
73	0xbd8c7e5c	-0.06860039
74	0x3c1f6725	0.009729181
75	0xbdc0ab80	-0.09407711
76	0x3d9f175a	0.07768126
77	0xbd5ec5a3	-0.0543877
78	0x3d6f9be6	0.058498286
79	0x3da97541	0.082743175
80	0xbda21437	-0.07914012
81	0x3dd21c90	0.10259354
82	0x3def2ec3	0.11678841
83	0x3cd61f01	0.02613783
84	0x3d784333	0.06061096
85	0xbd357160	-0.044297576
86	0x3dcd9a94	0.10039249
87	0xbdfa4d58	-0.122217834
88	0x3d60aa25	0.054849762
89	0xbca5dccc	-0.020246886
90	0x3d6fe47d	0.058567513
91	0xbdd9e89f	-0.10640072
92	0x3de50995	0.11183468
93	0x3d96286f	0.07331931
94	0x3da99e34	0.08282128
95	0xbd52030b	-0.051272433
96	0x3d2c81fc	0.04211615
97	0x3c086a8a	0.008326182
98	0x3dd18e47	0.102322154
99	0x3e1a772d	0.15084524
100	0xbd9f1ec3	-0.07769539
101	0xbd0f6f31	-0.03501815
102	0xb87c5e7b	-6.0169474e-05
103	0x3c993417	0.018701596
104	0x3dc60519	0.09668941
105	0x3cce35ca	0.025172133
106	0x3cace469	0.021105008
107	0x3da1e00e	0.07904063
108	0x3dea508a	0.11441143
109	0xbd3ba768	-0.045813948
110	0xbd814870	-0.063126445
111	0xbd13fc43	-0.036129247
112	0xbd501822	-0.050804265
113	0xbc751985	-0.014959698
114	0x3dce3585	0.10068802
115	0x3ddcafb9	0.10775704
116	0x3d842b49	0.064535685
117	0x3b635c55	0.0034692485
118	0xbd9105eb	-0.07081207
119	0x3cc74a6a	0.024327476
120	0xbddcee5f	-0.10787653
121	0xbc808508	-0.015688434
122	0x3d809d75	0.062800325
123	0xbd8ad073	-0.0677804
124	0x3d0d378a	0.034476794
125	0xbde55435	-0.11197702
126	0x3d49b175	0.0492415
127	0x3dfd0aa7	0.123555474
128	0x3dbec6bf	0.093152516
129	0xbd0d2a6f	-0.034464296
130	0x3cd9515b	0.026528051
131	0x3d78dd80	0.060758114
132	0xbc11eb6a	-0.008906225
133	0x3d8bb6e7	0.06821995
134	0x3e066768	0.13125384
135	0xbd26a5fb	-0.040685635
136	0xbd2c2157	-0.042023983
137	0x3d81d2b8	0.063390195
138	0x3d62de0f	0.055387553
139	0x3c649c95	0.013953348
140	0xbd1720a7	-0.036896374
141	0x3d86cd0c	0.06582078
142	0xbd320f09	-0.04347137
143	0x3d3e71dc	0.046495304
144	0xbc0a224a	-0.008431027
145	0xbca078b2	-0.019588802
146	0x3dde1b76	0.108450815
147	0xbcf48c9d	-0.029852206
148	0xbde5fd10	-0.112299085
149	0xbdc78301	-0.09741784
150	0x3d4a2b91	0.049357954
151	0x3cfc2da0	0.030783474
152	0xbce289a4	-0.027653523
153	0x3dcacb47	0.09902053
154	0xbdc70f33	-0.09719696
155	0xbc6e8293	-0.0145574985
156	0x3de213ae	0.1103891
157	0xbb0c9ad6	-0.0021454594
158	0x3db4dbae	0.08830963
159	0xbcfcc43b	-0.030855289
160	0x3de21df7	0.110408716
161	0xbb5fe376	-0.0034162677
162	0xbdd91d46	-0.106012866
163	0x3da39866	0.07988052
164	0xbde91801	-0.113815315
165	0xbcc6d54b	-0.024271628
166	0xbdbd065a	-0.09229727
167	0x3d02d6dc	0.031943187
168	0xbc7da905	-0.015482192
169	0xbca22d33	-0.019796943
170	0x3dbcbaf2	0.092153445
171	0x3cbfda78	0.023419604
172	0xbd98eff6	-0.07467644
173	0xbdbd7736	-0.09251253
174	0xbdb60b96	-0.088889286
175	0x3dc7657d	0.09736154
176	0x3d884c98	0.06655234
177	0x3c6f2857	0.01459702
178	0x3e012018	0.12609899
179	0xbdba08df	-0.09083723
180	0xbc9a059c	-0.018801503
181	0x3dce4b8e	0.10073005
182	0x3cba887d	0.02277016
183	0xbd811393	-0.063025616
184	0xbb75c64c	-0.0037502227
185	0x3d838562	0.06421925
186	0xbd91b8ee	-0.07115351
187	0x3cce3cfa	0.02517556
188	0x3db2ca4a	0.0872999
189	0x3dd2343e	0.10263871
190	0x3db20e79	0.08694167
191	0xbdbd7927	-0.092516236
192	0x3db75674	0.089520365
193	0xbd860500	-0.065439224
194	0xbcc25cd3	-0.023725903
195	0x3ddac8db	0.106828414
196	0xbd003639	-0.03130171
197	0xbd8c7eba	-0.06860109
198	0xbd3f9d84	-0.046781078
199	0xbd59b4e4	-0.053151026
200	0x3da63981	0.08116437
201	0x3d9e0c03	0.07717135
202	0x3dbea65b	0.093090735
203	0xbdc4d431	-0.09610785
204	0xbd94d28a	-0.0726672
205	0xbc059f5c	-0.00815567
206	0x3d877a35	0.06615106
207	0x3d4d2901	0.050087932
208	0xbd94acf1	-0.072595485
209	0x3d293ee6	0.04131975
210	0xbdbe002e	-0.09277378
211	0x3cd59f9e	0.026077088
212	0xbce7ea0b	-0.028309843
213	0xbd9e23f2	-0.077217
214	0xbdf07d52	-0.11742653
215	0x3db14cca	0.086572245
216	0x3d9e0c5e	0.077172026
217	0xbd30d10a	-0.043168105
218	0x3c53c393	0.0129250465
219	0x3c6fd12c	0.014637273
220	0x3d314bc7	0.043285158
221	0x3dde5d24	0.10857609
222	0x3dfe962b	0.12430986
223	0x3ca9310c	0.02065327
224	0x3d8bad1f	0.068201296
225	0xbd8d782f	-0.06907689
226	0xbdd0152a	-0.10160287
227	0x3c5a54e8	0.013325907
228	0xbd04f0d4	-0.032456234
229	0x3d3b3315	0.045703012
230	0x3bec4ac0	0.0072110593
231	0x3d69cae5	0.05707826
232	0xbc59fba7	-0.0133046275
233	0x3e18dcea	0.14928022
234	0xbcc8c8b6	-0.024509769
235	0x3d27ca7d	0.040964592
236	0xbdcebb75	-0.10094348
237	0xbda23fec	-0.079223484
238	0xbcfbf5ae	-0.030756798
239	0xbd6de9ba	-0.058084227
240	0x3bf27381	0.007399023
241	0x3cc385a7	0.023867441
242	0x3dd66bf6	0.10469811
243	0x3cb24b4c	0.02176442
244	0x3dac8760	0.08424258
245	0xbd88d2fe	-0.066808686
246	0xbd2e38eb	-0.04253475
247	0xbdb9d549	-0.09073884
248	0xbdf23159	-0.118258186
249	0xbc0c49a8	-0.008562483
250	0x3c2dca5c	0.010607328
251	0x3c1ec72d	0.009691042
252	0x3dbfdc53	0.093681954
253	0xbb03d85e	-0.0020117979
254	0x3d2a137e	0.041522495
255	0xbc413f34	-0.011794854

weight_ih_l1 f4 [256, 64]
0	0x3d8b915f	0.06814837
1	0x3dc40422	0.09571101
2	0xbddfff07	-0.109373145
3	0x3de46632	0.11152305
4	0xbd5dff58	-0.054198593
5	0xbda2d98c	-0.0795165
6	0x3de21658	0.11039418
7	0xbe075887	-0.13217364
8	0xbba0d049	-0.004907642
9	0x3d07f376	0.033191167
10	0x3d4aee2d	0.04954355
11	0xbde4b71e	-0.11167739
12	0x3da88506	0.08228497
13	0xbd9ad614	-0.075603634
14	0xbd61b1c5	-0.055101175
15	0x3d0eb1e1	0.034837607
16	0xbd3aaa76	-0.04557272
17	0xbdc498ef	-0.09599482
18	0x3d9743a3	0.073859476
19	0x3ce22764	0.027606674
20	0xbc876c50	-0.01653114
21	0xbd87ab5c	-0.06624481
22	0x3d0eaa6f	0.034830507
23	0x3d0dd21a	0.034624197
24	0xbd2f4281	-0.042788032
25	0x3d3a00c4	0.045410886
26	0xbd84a8da	-0.064775184
27	0xbd09a342	-0.03360296
28	0x3d09715d	0.033555377
29	0x3d8be303	0.068304084
30	0x3e0114a1	0.12605526
31	0xbde8d628	-0.11368972
32	0xbd4ebf8d	-0.050475646
33	0x3b86f6c4	0.004118772
34	0xbde58e07	-0.1120873
35	0x3d7ec0ad	0.06219547
36	0xbdac28f5	-0.084062494
37	0xbdae9600	-0.08524704
38	0xbdc72069	-0.097229786
39	0xbd427639	-0.047476027
40	0xbd8bf3ba	-0.068335965
41	0xbe0eb108	-0.1393472
42	0x3d5219af	0.051294025
43	0x3dd5c5a5	0.10438088
44	0x3d737e13	0.059446406
45	0xbdbfef2d	-0.09371791
46	0x3d781afe	0.060572617
47	0xbc183d24	-0.009291921
48	0x3dfa3397	0.12216871
49	0x3cb3272b	0.021869263
50	0x3dcedb25	0.10100392
51	0x3d2a7bb4	0.04162188
52	0x3d434111	0.047669474
53	0x3d660e76	0.056166135
54	0x3d8e6510	0.0695287
55	0x3c36065a	0.011109913
56	0xbd8578b0	-0.0651716
57	0xbc1d4990	-0.009600058
58	0x3cc24620	0.023715079
59	0xbdbf4275	-0.093388475
60	0x3e00a180	0.12561607
61	0xbb25af48	-0.0025281478
62	0x3df3f1dd	0.11911366
63	0x3c551cd7	0.013007364
64	0xbdaa7414	-0.083229214
65	0x3c142d03	0.009043935
66	0xbda9f8cf	-0.082994096
67	0x3ce24042	0.027618531
68	0xba5e84fb	-0.00084884436
69	0x3d8776bf	0.06614446
70	0xbcb84a38	-0.022496328
71	0x3dd08553	0.101816796
72	0xbc93f695	-0.018061915
73	0x3c14ad9f	0.009074598
74	0xbcc8ecd1	-0.024526985
75	0x3de9f1e2	0.114230886
76	0x3deae07f	0.114686005
77	0x3d27ecb1	0.04099721
78	0x3d01f8d0	0.031731427
79	0x3d1a193e	0.03762173
80	0xbbda13d6	-0.0066551967
81	0x3d7ecec4	0.062208906
82	0x3d4db033	0.050216865
83	0x3df2e0f6	0.11859314
84	0xbd980261	-0.07422329
85	0x3d867840	0.065659046
86	0xbcf0a1cb	-0.029374024
87	0xbd8aa1ad	-0.067691185
88	0x3df230bd	0.11825702
89	0xbdb7aeb6	-0.0896887
90	0xbde2999c	-0.11064455
91	0xbd902785	-0.07038788
92	0xbd58eaa2	-0.05295814
93	0xbd141e37	-0.036161628
94	0x3dbbede8	0.091762364
95	0x3de7be81	0.113156326
96	0x3dd68bdc	0.10475895
97	0xbd10d23d	-0.03535675
98	0xbd9efee5	-0.07763461
99	0x3c18c04a	0.009323189
100	0x3db69cc8	0.089166224
101	0xbd3ffb14	-0.046870306
102	0xbd1ebfdd	-0.038757194
103	0xbda95b8f	-0.082694165
104	0x3dc0762c	0.093975395
105	0xbd7c75ec	-0.061635897
106	0x3def6d1e	0.11690734
107	0x3d81f961	0.063463934
108	0x3c7e29dd	0.015512911
109	0xbda22878	-0.07917875
110	0xbdafa726	-0.08576803
111	0x3db526bf	0.08845281
112	0x3e14809a	0.14502183
113	0x3d3f92aa	0.04677073
114	0xbdb87c0e	-0.090080366
115	0xbdeba668	-0.11506349
116	0x3d5674fd	0.052357662
117	0x3c4e2ae0	0.012583464
118	0x3dc89232	0.097935095
119	0x3ddc954f	0.10770666
120	0x3d44d0dd	0.04805075
121	0x3dddaad6	0.108236
122	0xbcfbd201	-0.030739786
123	0xbd53b866	-0.051689528
124	0x3de09580	0.10966015
125	0x3da38873	0.0798501
126	0x3c7d64d8	0.015465938
127	0xbd60d65a	-0.05489192
128	0xbc951d58	-0.018202469
129	0x3d65af87	0.0560756
130	0xbd966cf9	-0.07345004
131	0x3dfd14e4	0.123575
132	0x3e01390d	0.1261942
133	0xbca12f82	-0.019675974
134	0xbd0cc0a1	-0.034363393
135	0xbc9f78c1	-0.01946676
136	0x3db75647	0.08952003
137	0xbdd40c6d	-0.103539325
138	0x3deacda8	0.11465007
139	0x3d3397b3	0.043845844
140	0x3de28a15	0.11061493
141	0xbd7d164b	-0.06178884
142	0xbd768f33	-0.06019516
143	0xbdae1e8d	-0.08501921
144	0xbd8dcc98	-0.06923789
145	0x3da0be77	0.07848828
146	0x3ca04fea	0.019569356
147	0x3d8ff35c	0.07028839
148	0xbd56fc3f	-0.052486654
149	0x3dc6bc1e	0.09703849
150	0x3e04e3fc	0.12977594
151	0x3d401b4c	0.046901032
152	0xbdebe1df	-0.11517691
153	0x3ce1c378	0.027559027
154	0xbc897f41	-0.016784312
155	0x3dfa1ab3	0.12212124
156	0xbcbd4d4e	-0.02310815
157	0x3dbd91e1	0.0925634
158	0x3dee8641	0.11646701
159	0x3c3879f8	0.011259548
160	0xbd2fdda5	-0.042935986
161	0xbda36fb0	-0.07980287
162	0xbd2c992b	-0.04213826
163	0xbd3bba37	-0.045831885
164	0x3dd626fa	0.10456653
165	0x3d64e4c9	0.05588225
166	0xbd113bb1	-0.035457317
167	0xbc5a3bb6	-0.0133199
168	0xbc0d4e03	-0.0086245565
169	0x3d2c4766	0.04206028
170	0x3d48407d	0.048889626
171	0x3d5d927a	0.05409477
172	0xbd072236	-0.03299161
173	0x3d984a10	0.07436001
174	0x3cac5d5a	0.021040607
175	0x3d9474ad	0.07248817
176	0x3e082e3b	0.13298886
177	0x3dd89a3d	0.105762936
178	0x3d8a84a1	0.06763578
179	0x3d8721a1	0.06598211
180	0x3ddd229b	0.10797616
181	0x3d6644ef	0.056218084
182	0xbddd5ebc	-0.10809085
183	0x3d49c382	0.049258716
184	0x3db60f20	0.088896036
185	0xbdde6483	-0.10859015
186	0xbd503faf	-0.050841983
187	0x3db5752e	0.08860241
188	0x3d94bb9c	0.07262346
189	0xbd6f6578	-0.058446378
190	0x3d643d5c	0.05572258
191	0x3d34c5e9	0.044134054
192	0xbd171102	-0.036881454
193	0x3d8c71fb	0.068576775
194	0x3c4bc8dc	0.012438025
195	0xbd350126	-0.04419055
196	0x3dddb5be	0.1082568
197	0x3da5c4e2	0.08094193
198	0x3dcf9ee6	0.10137729
199	0x3d3a8c2d	0.04554384
200	0xbd9472d8	-0.07248467
201	0xbc73e6b0	-0.014886543
202	0x3d3c7750	0.046012223
203	0x3baf0bda	0.005341989
204	0xbdb3e492	-0.08783831
205	0x3c9b1dff	0.018935202
206	0xbceb3a5e	-0.028714355
207	0x3d836502	0.0641575
208	0xbd9fd46e	-0.078041896
209	0x3dd2de9c	0.102963656
210	0x3decd310	0.115636945
211	0xbc884134	-0.016632654
212	0x3d246a6a	0.040140547
213	0xbdcad9d7	-0.09904831
214	0x3e0cfe1e	0.13768813
215	0xbdb27c5a	-0.087151244
216	0x3d38f160	0.04515207
217	0xbd5a58e5	-0.053307433
218	0x3d2750a0	0.040848374
219	0x3d6a18c0	0.05715251
220	0x3b5988e7	0.0033193172
221	0x3d84d4cb	0.064858995
222	0xbd0aa00c	-0.03384404
223	0xbd514ad0	-0.051096737
224	0xbc41ff4a	-0.011840651
225	0x3d8f50af	0.06997811
226	0xbd35c9bc	-0.044381842
227	0x3d1ec183	0.038758766
228	0x3d9f89df	0.07789969
229	0x3d12c4a3	0.03583206
230	0xbbe9be65	-0.0071332925
231	0xbb2de334	-0.0026533129
232	0xbd6dc3ac	-0.058047935
233	0xbc8ae035	-0.016952613
234	0xbd46930a	-0.04848007
235	0x3db63cb7	0.08898299
236	0x3d0f881f	0.035041925
237	0xbbff4ff1	-0.007791512
238	0xbd4004c5	-0.04687955
239	0x3db594a8	0.088662446
240	0x3dc30e36	0.09524195
241	0x3dfd2c61	0.1236198
242	0x3d99e3a8	0.07514125
243	0x3d47cef6	0.048781358
244	0xbd809375	-0.06278125
245	0x3dca6626	0.098827645
246	0xbd9d7104	-0.07687572
247	0xbd792489	-0.06082586
248	0x3dbc7e0c	0.09203729
249	0x3da4fe7e	0.08056353
250	0x3d1578ae	0.036492042
251	0x3dd4b586	0.10386185
252	0x3d8e9c1e	0.06963371
253	0x3de7eac8	0.11324078
254	0x3dea5f2e	0.11443935
255	0x3dd28103	0.10278513

weight_hh_l1 f4 [256, 64]
0	0x3d71ef2f	0.059065994
1	0xbcaf5650	-0.021403462
2	0xbd480392	-0.04883153
3	0x3da550cd	0.08072052
4	0xbd3903be	-0.045169584
5	0xbdb7acd0	-0.08968508
6	0x3c3a1c4a	0.011359284
7	0xbdbb0610	-0.09132016
8	0xbdc61638	-0.09672207
9	0xbd7eaa4c	-0.062174127
10	0x3dc140d8	0.09436196
11	0x3dbea4d2	0.09308781
12	0xbbbba051	-0.0057258983
13	0xbe001f9e	-0.12512061
14	0xbc311927	-0.010809219
15	0xbdae4e3e	-0.08511017
16	0x3d765841	0.06014276
17	0x3d3b1cba	0.045681693
18	0x3bfd207c	0.0077248197
19	0xbdfcc574	-0.12342349
20	0xbdd6544a	-0.104652956
21	0x3df46bf4	0.11934653
22	0xbd8b86c4	-0.06812814
23	0x3ce9dae3	0.028546756
24	0xbd819e65	-0.063290395
25	0xbd557364	-0.052112
26	0x3bed8a33	0.0072491406
27	0x3d3dfc6d	0.04638331
28	0x3d8d43d5	0.068977036
29	0x3da5110f	0.08059894
30	0xbd4765fa	-0.048681237
31	0x3e04f6c2	0.12984756
32	0xbe06ba7a	-0.13157073
33	0xbd0de9e9	-0.034646902
34	0x3d9e585e	0.077316985
35	0xbd80b426	-0.062843606
36	0x3dc5d7c7	0.09660297
37	0x3d72f415	0.059314806
38	0x3c12acbc	0.008952316
39	0x3d9376f9	0.072004266
40	0xbcea4c8c	-0.028600954
41	0xbd516a7f	-0.051126953
42	0xbd809306	-0.062780425
43	0xbabc338a	-0.0014358622
44	0xbdebf5a8	-0.115214646
45	0x3d8efbec	0.06981644
46	0xbd87b35e	-0.066260085
47	0x3ddaf524	0.10691288
48	0xbd05f145	-0.032700796
49	0x3db193ea	0.086707905
50	0x3c0e3984	0.008680705
51	0x3d937209	0.07199485
52	0x3d2b9b7b	0.041896325
53	0xbd265d15	-0.040616114
54	0xbd0f07f2	-0.034919687
55	0xbdf1c0ee	-0.118043765
56	0xbe106765	-0.14101942
57	0x3d952033	0.07281532
58	0xbd0a3c74	-0.03374906
59	0x3ce7e29c	0.028306298
60	0xbc54aeea	-0.012981156
61	0x3cb13640	0.021632314
62	0xbd280e6e	-0.041029386
63	0x3dc68b5e	0.09694551
64	0xbd5d4704	-0.054022804
65	0x3d8848ec	0.06654534
66	0xbdfbe21f	-0.122989886
67	0x3df081db	0.11743518
68	0x3d2fdf7b	0.042937737
69	0x3b8413a7	0.004030663
70	0x3b8f3999	0.00437088
71	0x3de6db2e	0.11272274
72	0x3d121ebf	0.035673853
73	0x3cb006a9	0.02148755
74	0x3cfee020	0.03111273
75	0xbcec6d6f	-0.028860776
76	0x3de9220f	0.11383449
77	0x3cf086bf	0.029361127
78	0xbd17b565	-0.037038226
79	0x3db3677d	0.08759973
80	0x3d1b941a	0.037983038
81	0x3db65005	0.08901981
82	0x3d9263dd	0.07147954
83	0xbd889e50	-0.06670821
84	0x3c7564c1	0.014977635
85	0xbdbab3d0	-0.09116328
86	0x3c16d30c	0.009205591
87	0x3dbcebee	0.092246875
88	0x3d467f5d	0.048461307
89	0xbc8da87c	-0.017292254
90	0xbdc99daa	-0.09844525
91	0x3db54022	0.08850123
92	0xbcdae9b6	-0.02672277
93	0x3de56375	0.112006105
94	0xbda611f9	-0.08108897
95	0x3d51d710	0.05123049
96	0xbd9d38d3	-0.07676854
97	0xbbfa3717	-0.0076359618
98	0xbcd6ae01	-0.026206018
99	0xba2cfca0	-0.00065989234
100	0x3d991335	0.074743666
101	0x3de46583	0.11152174
102	0xbde031da	-0.109470084
103	0xbd85edf0	-0.065395236
104	0xbd02bca1	-0.03191817
105	0x3c9e6ca9	0.019338923
106	0x3dd32bb2	0.103110686
107	0xbdf8bd8d	-0.12145529
108	0x3d9c3866	0.07627945
109	0x3d871e65	0.06597594
110	0xbdb93438	-0.09043163
111	0xbcde8ef7	-0.02716778
112	0x3c71db3f	0.014761745
113	0xbdb967b4	-0.09052983
114	0x3d25f3d9	0.040515754
115	0x3cd9f12c	0.026604258
116	0xbdf85f87	-0.121275954
117	0x3dd5542b	0.104164444
118	0x3d406fd2	0.04698164
119	0x3dc83b75	0.097769655
120	0x3df2d25b	0.11856528
121	0x3d9ee71d	0.07758925
122	0xbbed9644	-0.007250579
123	0xbd2b78c4	-0.041863218
124	0xbca0fdd3	-0.019652283
125	0x3ca0427d	0.019562954
126	0x3da1cef2	0.079008
127	0xbd23c07b	-0.039978486
128	0x3de7a328	0.113104165
129	0xba63b8e5	-0.0008686914
130	0xbdde4c4a	-0.10854395
131	0x3d546c11	0.051860873
132	0xbd9b0c35	-0.07570688
133	0xbdbaa2ea	-0.09113105
134	0x3de4ebb0	0.11177766
135	0xbd217123	-0.039414536
136	0xbd89cc78	-0.067284524
137	0x3daf39d5	0.085559525
138	0xbdb5d8a5	-0.08879212
139	0x3e09fccc	0.1347534
140	0x3d21b5dc	0.039480075
141	0xbd3aa98b	-0.045571845
142	0x3d92b3d1	0.071632035
143	0x3db45d38	0.088068426
144	0x3d217260	0.039415717
145	0x3e046144	0.12927729
146	0x3d4b00a3	0.049561154
147	0xbbea8dd1	-0.007158019
148	0xbcdafae4	-0.026730962
149	0xbde96b45	-0.11397413
150	0xbde5ebd1	-0.11226619
151	0x3c95d347	0.018289221
152	0xbcae5717	-0.021281762
153	0xbe0189a9	-0.1265017
154	0x3e08a0d0	0.13342595
155	0x3d011889	0.03151754
156	0xbc8e01c3	-0.017334824
157	0xbca60bed	-0.020269359
158	0xbdb8b566	-0.09018974
159	0x3de2877e	0.11060999
160	0x3c0d01cf	0.008606388
161	0x3d3a4517	0.045476045
162	0xbddc73f5	-0.107643045
163	0x3d9fcbac	0.07802519
164	0x3d8a90ae	0.06765877
165	0xbc79e4b6	-0.015252283
166	0xbdc8582d	-0.09782443
167	0x3d8dcde4	0.06924036
168	0x3d35900e	0.044326834
169	0xbccc48ff	-0.024937151
170	0xbc4eb08b	-0.012615333
171	0x3d76a08f	0.060211714
172	0xbd764ada	-0.060129978
173	0xbdd83564	-0.105570585
174	0xbd35f2d9	-0.04442105
175	0x3daa9dd0	0.083308816
176	0x3d46cf89	0.048537765
177	0xbd8f6580	-0.070017815
178	0xbd420022	-0.047363408
179	0xbd93e4fc	-0.0722141
180	0x3cec0332	0.028810117
181	0xbdb78f25	-0.089628495
182	0xbd5af39a	-0.053454973
183	0xbdcb2ed7	-0.09921043
184	0xbda32ef6	-0.079679415
185	0xbe02cf49	-0.12774386
186	0xbdde5abe	-0.108571514
187	0xbc8099a1	-0.015698256
188	0xbd84738b	-0.064673506
189	0x3e0034fa	0.12520209
190	0xbd746c63	-0.059673678
191	0xbde4ee3b	-0.11178251
192	0xbe0075cc	-0.12544936
193	0xbda520da	-0.080629066
194	0x3e074e0e	0.13213369
195	0x3d6f2388	0.058383495
196	0xbd11ac27	-0.035564568
197	0x3c710d2a	0.014712611
198	0x3c500a98	0.012697838
199	0x3d641eb0	0.05569333
200	0xbc6c9176	-0.014438977
201	0x3dc283a2	0.09497763
202	0x3d006c22	0.031353123
203	0x3e075371	0.13215424
204	0x3ca5f7d8	0.020259783
205	0xbdbc68df	-0.0919969
206	0xbd46b1a5	-0.04850926
207	0x3dc25b59	0.094900794
208	0xbd7c7511	-0.06163508
209	0x3df47bfe	0.11937712
210	0x3c8a96ea	0.016917665
211	0x3d359c20	0.044338346
212	0xbd713960	-0.058892608
213	0x3dd12cf8	0.10213655
214	0x3d186171	0.037202302
215	0xbd5785ff	-0.052618023
216	0x3dee366d	0.11631475
217	0x3cb7bd0c	0.022429012
218	0x3d8f2862	0.06990124
219	0xbd8275fd	-0.06370161
220	0x3e01360f	0.12618278
221	0x3d0a37ab	0.033744495
222	0x3da2587b	0.079270326
223	0x3b6f6fcc	0.0036535142
224	0x3d2ffcac	0.042965576
225	0x3d7b7e78	0.061399907
226	0xbddadcae	-0.106866226
227	0x3d20d6e4	0.039267436
228	0xbd9568df	-0.07295393
229	0x3dd91e1a	0.106014445
230	0x3d2e7293	0.042589735
231	0xbb674fb0	-0.00352953
232	0xbc618de0	-0.013766736
233	0xbddfef75	-0.10934345
234	0x3e0ba997	0.13638912
235	0x3d62c337	0.055361953
236	0xbdd94f3f	-0.10610818
237	0x3d359022	0.04432691
238	0x3dd11f04	0.10210994
239	0x3d7e0af9	0.062022183
240	0x3d9c89e2	0.076434866
241	0x3dea9001	0.11453248
242	0xbdc3cf49	-0.09561021
243	0xbccb02ab	-0.024781546
244	0xbc10148c	-0.008793961
245	0xbd1e34cd	-0.038624573
246	0xbd1a70f0	-0.03770536
247	0xbc969d7f	-0.018385647
248	0xbc172cbc	-0.009226974
249	0x3dbd37b0	0.09239137
250	0xbad37ecc	-0.0016135811
251	0xbdb176fe	-0.08665274
252	0x3dcfdb34	0.101492316
253	0xbdc5be4e	-0.09655438
254	0xbc1b5621	-0.009480984
255	0x3d2c6459	0.042087886

bias_ih_l1 f4 [256]
0	0xbde32cdd	-0.11092541
1	0xbd4c6faf	-0.049911197
2	0x3df540fa	0.11975284
3	0x3e06e9b4	0.13175088
4	0x3cb1495b	0.021641424
5	0x3dcea241	0.10089541
6	0x3d346753	0.04404385
7	0xbdd97e31	-0.10619772
8	0x3d9176a5	0.07102708
9	0xbdd8ee40	-0.105923176
10	0x3d925632	0.07145347
11	0xbdcb5c5a	-0.09929724
12	0x3df0db1a	0.1176054
13	0xbd5caf74	-0.053878263
14	0xbde159bc	-0.110034436
15	0x3d941c98	0.07232016
16	0x3c74378f	0.014905824
17	0xbd6d9a2e	-0.058008365
18	0xbdccf8d9	-0.100084014
19	0xbdd0329e	-0.101659045
20	0x3d85824f	0.06518995
21	0x3cc2209c	0.02369719
22	0xbdbcc5e8	-0.09217435
23	0xbdb28d90	-0.08718407
24	0xbd41125b	-0.047136646
25	0x3d5cc882	0.053902157
26	0x3cc46da5	0.023978064
27	0xbd39f43e	-0.045398943
28	0xbc4e8aa1	-0.012606294
29	0xbd478874	-0.048714116
30	0xbda3ca37	-0.07997554
31	0x3d7c316a	0.061570562
32	0x3e026a34	0.12735826
33	0xbdcae4b2	-0.099069014
34	0xbd2dd609	-0.042440448
35	0xbdc9d3ff	-0.09854888
36	0xbcae8c20	-0.021307051
37	0xbd8e4808	-0.069473326
38	0x3d54f238	0.05198881
39	0x3e070931	0.131871
40	0xbcaf7c70	-0.021421641
41	0x3dcafbfc	0.099113435
42	0x3d76ef02	0.06028653
43	0xbd5fc00f	-0.05462652
44	0xbdaaa684	-0.083325416
45	0x3da2da17	0.079517536
46	0xbce7922a	-0.028267939
47	0x3b99b4ab	0.0046907268
48	0xbd392605	-0.045202274
49	0xbcb98874	-0.022648074
50	0x3e001def	0.12511419
51	0x3d0ba98a	0.034097232
52	0x3d8c9e1f	0.06866097
53	0xbd84cbb8	-0.06484169
54	0xbdd52b84	-0.104086906
55	0x3d0947ca	0.03351573
56	0x3c6b1dde	0.014350383
57	0x3d30ac17	0.043132868
58	0x3cf9695e	0.03044575
59	0xbcb6e2df	-0.022324977
60	0xbdefe7cb	-0.11714133
61	0xbd8375ef	-0.064189784
62	0x3ddf67f4	0.10908499
63	0x3d1ae5ef	0.037816938
64	0x3dd9f90c	0.10643205
65	0x3dfee867	0.12446671
66	0x3d83b8e2	0.06431748
67	0xbdd894cf	-0.10575258
68	0xbd665ed2	-0.05624277
69	0xbc9ea808	-0.019367233
70	0xbd5f0915	-0.05445202
71	0x3d1a78ba	0.03771279
72	0xbd730f1d	-0.059340585
73	0xbd195929	-0.037438545
74	0xbb0fd4a4	-0.0021946812
75	0x3e0081cb	0.12549512
76	0x3df011ec	0.11722168
77	0x3d0ab541	0.033864263
78	0xbc3c586f	-0.011495694
79	0x3d458b8c	0.048228785
80	0xbd680a38	-0.05665037
81	0xbd91c7e8	-0.07118207
82	0x3d919174	0.07107821
83	0x3df3366f	0.11875617
84	0x3da4f43c	0.080543965
85	0x3dc9515e	0.09829973
86	0xbdc55708	-0.096357405
87	0xbc49ce65	-0.012317275
88	0x3c68e63f	0.014215051
89	0x3d167a07	0.036737468
90	0xbdcfd227	-0.10147505
91	0xbddb697f	-0.10713481
92	0xbcd000fd	-0.025391096
93	0x3c0b48a6	0.008501207
94	0x3dc216f8	0.09477037
95	0xbda8ebd2	-0.08248104
96	0x3d8ad6fd	0.06779287
97	0x3d8439bb	0.06456324
98	0x3de2e536	0.11078875
99	0x3dfd1e3e	0.12359284
100	0x3c26d959	0.010183656
101	0xbd87dd5b	-0.06634017
102	0x3e01e2e5	0.1268421
103	0x3d8e15f0	0.06937778
104	0x3d1b43e1	0.03790653
105	0x3dd099fb	0.101856194
106	0x3d938ebf	0.07204961
107	0xbdda643a	-0.10663648
108	0xbd3b7e48	-0.045774728
109	0x3afe235a	0.0019389198
110	0x3d3311d0	0.04371816
111	0xbde4bca5	-0.111687936
112	0x3d036bf3	0.03208537
113	0xbd7b5411	-0.06135947
114	0xba9fb814	-0.0012185597
115	0xbd8b10f0	-0.0679034
116	0x3d5f847b	0.054569703
117	0xbd5d43b2	-0.054019637
118	0xbce91f6b	-0.028457364
119	0xbd86410b	-0.06555375
120	0xbdbe6540	-0.09296656
121	0xbc2bf604	-0.010495666
122	0x3c52fb32	0.012877272
123	0xbd028a91	-0.03187043
124	0xbd6a9245	-0.0572684
125	0xbde579b5	-0.112048544
126	0x3df67487	0.120339446
127	0xbdd2d013	-0.10293593
128	0xbc556c80	-0.013026357
129	0xbd0d05a0	-0.034429193
130	0x3dbc5161	0.09195209
131	0x3cc8176d	0.024425233
132	0xbdd53bb5	-0.10411779
133	0xbd416d04	-0.047223106
134	0xbd922e7f	-0.07137775
135	0x3db096f1	0.0862254
136	0xbdf7d728	-0.12101585
137	0xbd6e1427	-0.058124688
138	0xbd73d531	-0.059529487
139	0x3ddc7e92	0.10766329
140	0x3d622c17	0.05521783
141	0xbd819c2a	-0.06328614
142	0x3df4e415	0.11957566
143	0xbdaf5e9b	-0.085629664
144	0xbd0fb545	-0.03508498
145	0xbd33bfbd	-0.043884028
146	0xbcd54694	-0.02603463
147	0x3db0f1a7	0.086398415
148	0xbd2c67f2	-0.042091317
149	0xbaf9f322	-0.0019069652
150	0xbdb9ac17	-0.09066027
151	0xbd74fd11	-0.059811655
152	0xbd971e45	-0.0737882
153	0xbd536e48	-0.051618844
154	0x3b103673	0.002200511
155	0x3dd350da	0.103181556
156	0x3de52236	0.11188166
157	0x3b05fcd2	0.0020444882
158	0x3d1d1a94	0.038355425
159	0x3dc6edb9	0.09713311
160	0xbda4384f	-0.080185525
161	0xbda2cabd	-0.079488255
162	0xbdf1a9b9	-0.1179995
163	0x3da338e0	0.079698324
164	0xbdbfe2e6	-0.09369449
165	0x3dc30b31	0.09523619
166	0xbd000b1a	-0.031260587
167	0x3df0e68b	0.117627226
168	0xbdc0303c	-0.093842
169	0xbc8944d3	-0.01675645
170	0x3d42a03c	0.047516093
171	0xbdcff865	-0.10154799
172	0xbdbb20bd	-0.09137104
173	0xbd839ac7	-0.06426006
174	0x3ddb5370	0.10709274
175	0x3c54fd1e	0.012999801
176	0x3d8ca9ef	0.0686835
177	0xbdae8a22	-0.085224405
178	0x3dc9941a	0.09842701
179	0x3d50eea8	0.05100885
180	0xbcb08b7f	-0.021550892
181	0xbd185cd5	-0.037197907
182	0x3dcc90f1	0.09988583
183	0xbde4eddd	-0.11178181
184	0xbde0e35d	-0.10980866
185	0xbdf35f0b	-0.118833624
186	0xbd4019e1	-0.04689968
187	0x3c2cd14a	0.010547945
188	0x3df5ffe1	0.12011696
189	0xbd84e2cf	-0.06488573
190	0x3dcf099f	0.10109257
191	0x3d378d6d	0.04481261
192	0xbd215be2	-0.039394267
193	0xbd9fb9c0	-0.07799101
194	0xbcef7400	-0.029230118
195	0x3d548f74	0.05189462
196	0x3de73bed	0.11290727
197	0xbc4c1cc1	-0.012458027
198	0x3d883efa	0.06652637
199	0xbd4d73c4	-0.05015923
200	0xbcb43877	-0.02199958
201	0x3dae77ea	0.085189655
202	0x3e00c2bc	0.12574285
203	0x3dc0e54e	0.094187364
204	0xbafc5fc4	-0.0019254615
205	0xbce72a65	-0.028218457
206	0xbda64850	-0.08119261
207	0x3dc32e4f	0.09530317
208	0xbd8824cd	-0.06647644
209	0xbd5d501f	-0.054031488
210	0xbdb79316	-0.08963601
211	0x3de802a9	0.113286324
212	0x3df934d7	0.121682815
213	0xbd3cb2c8	-0.046068937
214	0xbd0553e4	-0.032550707
215	0xbdabf428	-0.083961785
216	0xbd434812	-0.047676153
217	0x3e013078	0.12616146
218	0x3cee7d8f	0.029112605
219	0xbcdb6856	-0.02678315
220	0xbd447bd9	-0.047969673
221	0x3ca4ba52	0.020108376
222	0xbdb3aae0	-0.08772826
223	0x3d36fb71	0.044673387
224	0xbd83e581	-0.06440259
225	0xbb8bbb83	-0.0042642965
226	0xbb094deb	-0.0020950984
227	0xbd24d4e5	-0.040242095
228	0xbcd1334f	-0.025537161
229	0x3dc2b929	0.09507973
230	0xbbd4cd2c	-0.006494185
231	0x3d64c6f8	0.055853814
232	0xbcfd5915	-0.030926267
233	0x3da4d43c	0.08048293
234	0xbda3d193	-0.079989575
235	0x3dc5bb25	0.096548356
236	0xbc4b9899	-0.012426519
237	0x3c630c17	0.013857863
238	0xbcfad33e	-0.030618306
239	0x3db4b6e0	0.08823943
240	0x3e04fa24	0.12986046
241	0x3ce7cc2c	0.028295599
242	0x3dc3e2d6	0.0956475
243	0xbd3adc30	-0.045620143
244	0x3e03f217	0.12885319
245	0xbd210df4	-0.039319947
246	0x3d661a9c	0.05617772
247	0x3dd3272a	0.10310204
248	0xbdc67aae	-0.09691368
249	0xbd15d0c3	-0.036576044
250	0xbd816f78	-0.06320089
251	0xbdb4c145	-0.08825926
252	0x3db630f2	0.08896054
253	0x3d614dec	0.055005953
254	0xbc6f6377	-0.014611117
255	0x3d87d6e2	0.066327825
