models saved/Adam_ETTh1.pth (torch, 353563 bytes, 15 tensors)

weight_ih_l0 f4 [256, 7]
0.110260695 0.06347116 0.0068028113 -0.1015451 0.1092934 0.009330193 -0.0793152 -0.03894568
-0.03268458 -0.02236502 0.10272186 -0.092157416 -0.0820966 -0.13931195 -0.01665913 0.08843879
-0.10409049 -0.10856618 -0.015659343 0.08577353 0.06819764 0.058197066 0.11096276 0.07935861
-0.04845357 0.07154528 0.041130167 -0.15939222 0.09866023 -0.04011265 0.049799766 0.0014868155
0.08331308 0.04480262 -0.10478587 -0.053264577 0.023939198 -0.027407326 -0.12371238 -0.12573375
0.054725982 -0.056563314 -0.05360772 -0.087211706 -0.036179516 -0.13316119 0.071410924 0.013555344
-0.06434936 -0.07219766 -0.025007108 -0.059882414 0.05134227 0.09934496 0.0531434 0.07035511
0.08498995 -0.008460248 0.034339078 -0.11832278 -0.105334975 0.08627044 -0.100678936 -0.0137674315
0.08401382 0.01916512 0.029353535 0.08940686 -0.022197518 -0.04893882 -0.11259274 -0.09218108
0.040442258 -0.07710927 -0.012676118 -0.062749095 0.10327302 -0.11064821 -0.081519954 0.027834704
0.008960225 -0.057226274 0.06197677 -0.11621578 0.12448097 -0.023095744 -0.037905443 0.076252036
-0.0933616 0.019617157 -0.07550911 -0.04684946 0.026402805 0.08593546 -0.097765334 0.04449877
-0.040330764 -0.07792007 0.076817244 0.054286055 -0.016395474 0.02053809 0.09147032 0.09466793
-0.065384716 0.083641104 0.043781992 0.019963907 0.103557274 0.09525337 -0.08182503 -0.041647628
-0.007538589 0.02320783 -0.13287349 -0.02734254 -0.019162524 0.05201893 -0.13772391 0.025808984
0.08685905 -0.07807659 0.032724716 0.09975174 -0.10738684 0.11579237 -0.07805505 0.110125825
0.038263064 0.0039471355 -0.047626007 0.13238199 -0.108128734 -0.004732588 -0.01805182 0.0013642062
0.07054843 0.051101096 0.109871395 -0.1288937 0.053282514 -0.10969756 -0.06595031 0.11309526
-0.08313749 0.0029892 -0.06669563 0.031861223 0.11983254 0.13168652 -0.097164035 -0.09395408
0.1272339 -0.016099568 -0.06838171 -0.0041808127 0.111691065 -0.0044014766 -0.11123475 -0.09747384
-0.17870879 0.08675581 -0.049956176 -0.12248876 0.028981816 0.065368965 0.06362856 0.05476017
0.006768438 0.09532314 -0.025941474 -0.04117865 -0.035174914 -0.06760006 0.104138374 0.017003361
0.08825928 0.062244624 -0.060698222 0.072753206 -0.061230376 -0.035903748 -0.016350606 -0.081564814
-0.1515957 -0.11973868 -0.029288558 -0.090817094 0.029260352 0.10703805 0.0604954 0.10450854
-0.04946654 0.032446053 -0.029047934 -0.034074992 -0.038941976 0.10166739 0.07349501 0.03333022
-0.036525864 -0.12044488 0.03767981 -0.10755655 0.12952764 0.016977882 -0.08886756 -0.091575354
0.10780374 0.079030685 -0.06399237 -0.088500984 -0.06717645 0.077752106 0.043446366 -0.094040565
0.026830638 -0.093975954 -0.06513523 -0.03166644 -0.124914296 -0.030040434 -0.09292752 0.03627433
0.010142529 0.021068007 0.019712592 -0.042840753 0.090101786 0.048136342 -0.03962361 -0.07061945
0.13426961 0.10213202 0.019570418 0.03563107 0.081558675 0.14729643 -0.06832978 0.016588634
-0.09058872 -0.014305139 0.07202732 -0.025951752 -0.14206985 -0.14045756 -0.086990006 -0.13564762
0.12780581 0.0038031933 0.010972567 -0.032881726 -0.038558472 0.003079563 0.03870371 0.057785463
00000000: 5cd0 e13d 2bfd 813d 1eea de3b e1f6 cfbd
00000010: 38d5 df3d aadd 183c 0270 a2bd 8185 1fbd
00000020: 44e0 05bd d936 b7bc d75f d23d 07bd bcbd
00000030: 4322 a8bd cba7 0ebe ba78 88bc 651f b53d
00000040: 652d d5bd f257 debd 0648 80bc 08aa af3d
00000050: 34ab 8b3d 0c60 6e3d 7240 e33d c486 a23d
00000060: 4077 46bd 5586 923d 1b78 283d b737 23be
00000070: 600e ca3d 294d 24bd d7fa 4b3d 40e1 c23a
00000080: 0ca0 aa3d f482 373d f999 d6bd f52b 5abd
00000090: 231c c43c 5485 e0bc eb5c fdbd 59c0 00be
000000a0: 5a28 603d efae 67bd c593 5bbd 0d9c b2bd
000000b0: f930 14bd 685b 08be e43f 923d 3c17 5e3c
000000c0: 99c9 83bd 5edc 93bd b5db ccbc 4347 75bd
000000d0: 464c 523d 5f75 cb3d e5ac 593d 5716 903d
000000e0: 360f ae3d da9c 0abc 22a7 0c3d 3753 f2bd
000000f0: ddb9 d7bd 8eae b03d c230 cebd cb90 61bc
00000100: 700f ac3d 2b00 9d3c d376 f03c f21a b73d
00000110: 92d7 b5bc 1274 48bd 0697 e6bd 6fc9 bcbd
00000120: c8a6 253d 77eb 9dbd 7eaf 4fbc 9982 80bd
00000130: ce80 d33d 879b e2bd eff3 a6bd 9b05 e43c
00000140: e8cd 123c 1966 6abd 5bdb 7d3d 8a02 eebd
00000150: e1ef fe3d 4933 bdbc bd42 1bbd 072a 9c3d
00000160: 5e34 bfbd 29b4 a03c 85a4 9abd 38e5 3fbd
00000170: b24a d83c eefe af3d 3139 c8bd 5844 363d
00000180: df31 25bd 8f94 9fbd 5c52 9d3d 0e5b 5e3d
00000190: cd4f 86bc 7f3f a83c cb54 bb3d 42e1 c13d
000001a0: 6ce8 85bd 074c ab3d bf54 333d 598b a33c
000001b0: d615 d43d 3314 c33d e293 a7bd b496 2abd
000001c0: 4506 f7bb 591e be3c fd0f 08be 76fd dfbc
000001d0: bafa 9cbc cd11 553d 7f07 0dbe 5d6d d33c
000001e0: 28e3 b13d 9fe6 9fbd 5a0a 063d a44a cc3d
000001f0: a2ed dbbd 8d24 ed3d 53db 9fbd a689 e13d
00000200: bbb9 1c3d f956 813b 7d13 43bd 258f 073e
00000210: 9972 ddbd d313 9bbb 69e1 93bc 2acf b23a
00000220: b27b 903d 624f 513d 4104 e13d b6fc 03be
00000230: c43e 5a3d 1da9 e0bd f510 87bd 7d9e e73d
00000240: fd43 aabd 74e6 433b b897 88bd ea80 023d
00000250: c36a f53d d5d8 063e f0fd c6bd ff6a c0bd
00000260: 9a49 023e 3ee3 83bc b60b 8cbd 33ff 88bb
00000270: 49be e43d 433a 90bb 0bcf e3bd 5da0 c7bd
00000280: 70ff 36be 08ad b13d d99e 4cbd 63db fabd
00000290: 466b ed3c 2ae0 853d b14f 823d 334c 603d
000002a0: c6c9 dd3b c738 c33d 3783 d4bc f2aa 28bd
000002b0: 9213 10bd e671 8abd 8046 d53d a24a 8b3c
000002c0: 48c1 b43d 38f4 7e3d b39e 78bd a2ff 943d
000002d0: b4cc 7abd cf0f 13bd b5f1 85bc 740b a7bd
000002e0: e73b 1bbe 8e39 f5bd 8fee efbc 50fe b9bd
000002f0: 68b3 ef3c c436 db3d 06ca 773d 9308 d63d
00000300: 6d9d 4abd 27e6 043d eff5 edbc 3892 0bbd
00000310: 9f81 1fbd fe36 d03d 8d84 963d 4585 083d
00000320: 259c 15bd ceab f6bd 2556 1a3d 9c46 dcbd
00000330: e5a2 043e 3315 8b3c 3200 b6bd dc8b bbbd
00000340: 35c8 dc3d d7da a13d 6f0e 83bd 0140 b5bd
00000350: ce93 89bd 7f3c 9f3d d1f4 313d 5798 c0bd
00000360: edcb db3c 7776 c0bd 9f65 85bd abb4 01bd
00000370: 11d3 ffbd 5b17 f6bc c950 bebd 6494 143d
00000380: da2c 263c d096 ac3c 4d7c a13c c979 2fbd
00000390: 4987 b83d 9d2a 453d 5e4c 22bd eea0 90bd
000003a0: f97d 093e 982a d13d 2452 a03c e3f1 113d
000003b0: 3c08 a73d e0d4 163e 7cf0 8bbd e3e4 873c
000003c0: 9486 b9bd 1a60 6abc 0f83 933d c598 d4bc
000003d0: c27a 11be 1bd4 0fbe d127 b2bd 36e7 0abe
000003e0: 87df 023e ff3e 793b 48c6 333c fdae 06bd
000003f0: 7def 1dbd 7ed2 493b c887 1e3d 73b0 6c3d

weight_hh_l0 f4 [256, 64]
0.10157102 -0.076821506 0.062191382 0.06815006 -0.11542302 0.11905441 -0.0017641184 -0.046881285
-0.040408716 -0.11702322 -0.096530885 0.037026312 -0.14006013 -0.042996224 -0.024380095 -0.0035089424
0.11153969 0.019176256 0.074178435 0.12668437 0.01999567 0.031390835 -0.11053995 -0.07506658
-0.006997868 0.0737633 0.05704794 -0.12205705 0.07164574 -0.08549827 0.010906893 0.07065093
-0.038358167 -0.053054888 0.10460562 0.0036065122 0.07701159 0.12298806 0.029955495 0.01655627
0.08659042 0.005263833 -0.021044003 0.1325829 -0.003468443 0.0040600975 -0.0095231375 0.072542675
0.0065733413 -0.043064043 -0.056514297 0.07124907 0.046756763 0.092069924 0.02477712 0.11405769
0.12619452 0.0889064 -0.046008904 0.12843515 0.00022354716 -0.023757454 0.13094573 0.063568056
-0.06807252 0.0726626 0.05578541 -0.06315364 -0.054499354 0.026491337 -0.07340423 0.04873834
0.12335628 0.1110736 0.058430303 -0.024453461 -0.054703906 0.07071822 0.050307527 0.0876551
0.09109987 0.036756694 0.071520016 -0.09031416 0.057456926 0.109678 0.01688256 0.10593242
0.025179366 0.044458203 -0.057463087 -0.014365936 0.10068627 0.0012656832 0.034702085 0.031293955
-0.1119394 0.039540026 0.07398886 0.12253797 -0.08641694 -0.10925762 0.018882247 0.110613555
0.031395312 0.11525432 -0.019555796 0.08795754 0.11595569 0.09449827 0.12576933 0.052974973
0.04918185 0.062080126 0.11881175 0.014414388 -0.090670176 0.006920127 -0.12617879 -0.072102614
-0.0065935967 -0.028261982 0.09462179 0.0059458273 -0.015890868 -0.09499729 -0.02991604 0.120367356
0.048599202 -0.14674409 0.08145964 0.088695325 -0.055819094 -0.10349697 0.050047603 0.028175868
0.08540843 0.10487833 -0.092054114 0.0359957 -0.135935 -0.05448088 -0.041440375 0.035342883
0.031512238 0.1028245 -0.029544907 -0.019872516 -0.060028657 -0.0062215994 0.10652 -0.062376425
-0.12960295 -0.120565765 -0.12237994 -0.10277173 0.07879012 0.07396428 0.021074051 -0.10122139
0.026053466 -0.06991354 -0.06608061 -0.088097245 -0.026009232 0.07652278 0.07465174 -0.059596743
0.15042204 -0.03950914 0.07485612 0.038763933 0.050443754 0.104356214 -0.04373533 0.07285442
0.05310519 -0.045706827 0.09316875 0.004652012 0.0659442 -0.041901093 0.09227281 0.0059650224
0.034981735 -0.111779526 0.08782124 0.06645724 0.09471908 0.05198489 0.06449301 0.13078569
0.067948885 -0.095496304 0.03481505 0.093633205 0.09917027 -0.029451715 0.10893912 0.10323202
0.051466197 0.029303161 0.093873054 0.01978999 0.03326209 0.024359694 0.047575656 0.061508194
-0.0432623 0.10092398 -0.106535256 -0.11333167 0.01572199 0.067675255 -0.048396096 -0.08060777
-0.02483759 -0.1234687 0.1183651 0.042772017 0.10152832 0.0129709095 0.09273589 0.115245275
0.045929335 -0.094896965 -0.15028757 -0.07231877 -0.007326596 -0.11581946 -0.024360403 -0.12748665
0.1097925 -0.11321373 0.0047992254 -0.094865814 0.1358201 -0.03603274 0.14345473 -0.06526959
0.091703005 -0.09384076 -0.0011970936 -0.075724594 -0.14626957 0.009780881 -0.03917068 -0.14888348
-0.053553984 -0.11700962 -0.10999016 0.107367605 0.059372798 0.0052512903 0.007018188 -0.090570614
00000000: 7804 d03d 9854 9dbd 64bc 7e3d 4292 8b3d
00000010: e862 ecbd ccd2 f33d fe39 e7ba 9706 40bd
00000020: 9c83 25bd dfa9 efbd fcb1 c5bd e7a8 173d
00000030: ec6b 0fbe cf1c 30bd c4b8 c7bc 49f6 65bb
00000040: ec6e e43d 8617 9d3c ddea 973d 8cb9 013e
00000050: f6cd a33c ad93 003d c562 e2bd 82bc 99bd
00000060: 5f4e e5bb 3711 973d 1aab 693d 0cf9 f9bd
00000070: 00bb 923d b819 afbd d3b2 323c 6fb1 903d
00000080: 741d 1dbd 1550 59bd 793b d63d 3c5b 6c3b
00000090: 41b8 9d3d 2ae1 fb3d 3a65 f53c 04a1 873c
000000a0: 5156 b13d 3b7c ac3b 7964 acbc d0c3 073e
000000b0: d14e 63bb 910a 853b ef06 1cbc 4191 943d
000000c0: 2f65 d73b ec63 30bd 897b 67bd 08eb 913d
000000d0: 0584 3f3d 288f bc3d 63f9 ca3c 1497 e93d
000000e0: 2339 013e 8f14 b63d d573 3cbd 8184 033e
000000f0: fc67 6a39 fe9e c2bc a316 063e f82f 823d
00000100: 9b69 8bbd 21d0 943d 3e7f 643d b256 81bd
00000110: b73a 5fbd 5c04 d93c f554 96bd dba1 473d
00000120: 38a2 fc3d 8e7a e33d 9d54 6f3d a052 c8bc
00000130: 3411 60bd b7d4 903d 440f 4e3d 8484 b33d
00000140: 9292 ba3d 308e 163d 1679 923d a1f6 b8bd
00000150: f457 6b3d dc9e e03d 4b4d 8a3c 19f3 d83d
00000160: f544 ce3c ce19 363d 6a5e 6bbd 1a5f 6bbc
00000170: 9a34 ce3d 48e5 a53a c623 0e3d 172e 003d
00000180: 7c40 e5bd b9f4 213d 7987 973d 30f5 fa3d
00000190: 5dfb b0bd 76c2 dfbd f1ae 9a3c 5c89 e23d
000001a0: 5f98 003d 750a ec3d 7a33 a0bc 1523 b43d
000001b0: 2d7a ed3d 4f88 c13d adc9 003e 49fc 583d
000001c0: e872 493d bb47 7e3d 9353 f33d 532a 6c3c
000001d0: 49b1 b9bd 3cc2 e23b 0335 01be 89aa 93bd
000001e0: 190f d8bb ac85 e7bc 12c9 c13d 37d5 c23b
000001f0: 912d 82bc f08d c2bd 7c12 f5bc 2983 f63d
00000200: f50f 473d 1544 16be 50d4 a63d e5a5 b53d
00000210: 90a2 64bd 38f6 d3bd b7fe 4c3d 14d1 e63c
00000220: 9dea ae3d 73ca d63d de86 bcbd 3a70 133d
00000230: 8b32 0bbe 5827 5fbd 62bd 29bd b3c3 103d
00000240: fa12 013d a795 d23d 2908 f2bc b0cb a2bc
00000250: 9ce0 75bd 8fde cbbb 2827 da3d 6c7e 7fbd
00000260: a3b6 04be 2feb f6bd 55a2 fabd fc79 d2bd
00000270: b75c a13d 967a 973d 7da3 ac3c 294d cfbd
00000280: 146e d53c d42e 8fbd 4555 87bd 546c b4bd
00000290: 5011 d5bc fab7 9c3d 03e3 983d b71b 74bd
000002a0: 3c08 1a3e 56d4 21bd 2a4e 993d eec6 1e3d
000002b0: 1c9e 4e3d b6b8 d53d d123 33bd b334 953d
000002c0: d484 593d 1537 3bbd 42cf be3d e86f 983b
000002d0: c10d 873d 7ba0 2bbd 87f9 bc3d 3c76 c33b
000002e0: 0249 0f3d aaec e4bd 9fdb b33d bc1a 883d
000002f0: 14fc c13d 1cee 543d e914 843d afec 053e
00000300: c928 8b3d 9193 c3bd 3a9a 0e3d c4c2 bf3d
00000310: c819 cb3d b944 f1bc 791b df3d 4f6b d33d
00000320: 38ce 523d 2f0d f03c 8440 c03d 9e1e a23c
00000330: d43d 083d fb8d c73c b1de 423d 04f0 7b3d
00000340: cf33 31bd 3bb1 ce3d 282f dabd 6f1a e8bd
00000350: 67cb 803c 5399 8a3d fc3a 46bd b015 a5bd
00000360: 3478 cbbc 28dd fcbd 6769 f23d b631 2f3d
00000370: 14ee cf3d f083 543c 50ec bd3d b705 ec3d
00000380: 6620 3c3d 5759 c2bd fce4 19be dd1b 94bd
00000390: f113 f0bb c132 edbd 788f c7bc dc8b 02be
000003a0: e4da e03d 9adc e7bd d242 9d3b 0249 c2bd
000003b0: 6d14 0b3e 1197 13bd cce5 123e 10ac 85bd
000003c0: c9ce bb3d 962f c0bd cce7 9cba 7f15 9bbd
000003d0: b1c7 15be fd3f 203c 6f71 20bd e974 18be
000003e0: 6c5b 5bbd bda2 efbd 8542 e1bd 8ce3 db3d
000003f0: e430 733d 0413 ac3b d4f8 e53b 167d b9bd

bias_ih_l0 f4 [256]
0.0397959 0.10153469 0.08047334 0.087143816 -0.1036804 -0.06444599 0.12968579 0.003814729
0.1768674 -0.07675675 0.0506778 -0.044720594 0.0036652149 0.08616211 -0.0691744 0.015079502
-0.091116376 0.027237566 0.093942806 0.11322571 0.034705427 0.1388854 -0.06195487 0.016863473
0.019690355 0.014269373 -0.0007860766 0.13174509 -0.031986624 0.10340989 0.06138269 0.09066399
0.0011183697 -0.06664652 -0.08831626 0.07660852 -0.040040396 -0.004046988 -0.062151298 -0.0652747
0.10573071 -0.047949243 -0.080159925 -0.006765464 -0.045213643 -0.016606756 0.041942354 0.06873037
0.1368235 -0.001377732 0.13553165 -0.03731659 0.11935248 0.036373295 -0.07192229 0.056688037
0.110317856 -0.073851906 0.036180645 0.1326511 0.098485544 -0.017566124 0.075422294 -0.088954665
-0.025082344 0.046309188 -0.09855147 -0.042577375 0.11561421 -0.13863358 -0.13740647 -0.06212357
-0.010242361 -0.10853479 -0.016090924 -0.058231805 -0.043464866 0.11933781 0.0009467358 -0.06186853
-0.10893713 -0.050724205 -0.02253279 -0.021700459 0.0071532303 0.06279149 -0.003146324 0.05982816
0.09022835 -0.101806864 0.08912443 0.10533194 0.11505847 0.051913965 0.0845728 0.027925316
-0.06647922 0.09564293 0.041776728 0.06582318 -0.02569532 -0.0536426 0.008869941 -0.045521412
0.05096764 -0.0765009 0.11490371 -0.03699963 -0.07060374 -0.0054757893 0.10088525 -0.047530547
-0.011254171 -0.014991482 0.040930443 0.078665994 -0.029589001 0.097447 -0.032166496 0.033386987
0.022676064 0.023150818 0.007053451 -0.12079173 0.0102041885 0.04195563 0.04960979 0.020092973
0.02157703 -0.10403462 0.05509945 0.08043805 -0.039461788 -0.07902757 -0.010565196 -0.03781258
0.06488197 -0.057220317 0.04185519 0.08301743 -0.10001154 -0.06244564 0.032892264 -0.09558818
-0.11272997 0.024020663 -0.09405989 0.022062274 -0.0672462 -0.09948643 0.05296777 0.13290703
0.032411903 0.00828167 0.01425757 0.07591128 0.00571769 0.10751049 -0.029767616 0.013374316
0.084835164 0.018682666 -0.06407678 0.09924798 0.00010410025 0.07289776 -0.033421524 -0.056210626
0.020347398 0.051562265 0.12154267 -0.08157096 0.033571873 8.0835955e-05 -0.03465934 -0.060977288
0.047189124 0.07707346 -0.09354585 -0.014359168 -0.1269029 -0.0317534 -0.11349635 -0.027301375
0.15018074 0.0008475941 0.009570941 -0.0246525 0.09822395 0.025612906 -0.064667284 0.08207937
0.12828197 0.03701397 0.12702093 -0.08363439 0.015001551 0.097853206 0.07436754 0.15349787
0.049635578 -0.09753259 -0.019493364 -0.012907546 -0.087791614 -0.025081098 -0.012881161 0.065000646
0.09299279 -0.039592378 0.10823914 0.048555814 -0.07139106 0.1265767 -0.08894555 0.027760923
0.039750095 -0.007226845 -0.06332009 0.11307376 0.1292346 0.11040744 0.09390355 0.047427643
-0.052419666 0.08555007 0.13765945 0.14253932 -0.007548837 0.089708515 0.14003055 -0.019191215
0.15024929 -0.018127391 0.04418633 0.0049582124 -0.04032264 -0.005012524 0.08556148 0.06475192
-0.07947799 0.01259191 -0.071594685 0.15267439 -0.027150888 0.065522835 -0.083156265 -0.03498748
0.116256475 0.1506784 0.14723678 0.057743922 0.010746485 -0.021465687 -0.1065542 -0.0070815654
00000000: 0701 233d 6bf1 cf3d 35cf a43d 7578 b23d
00000010: 6456 d4bd 42fc 83bd 5acc 043e 8800 7a3b
00000020: ba1c 353e a532 9dbd 8693 4f3d f12c 37bd
00000030: 1a34 703b c375 b03d 4fab 8dbd 0410 773c
00000040: 399b babd 5121 df3c 1665 c03d e2e2 e73d
00000050: 4727 0e3d f937 0e3e 64c4 7dbd 4425 8a3c
00000060: ab4d a13c 17ca 693c b510 4eba 2fe8 063e
00000070: 6804 03bd 90c8 d33d 6a6c 7b3d 0bae b93d
00000080: 4396 923a f87d 88bd 28df b4bd ede4 9c3d
00000090: 6601 24bd 999c 84bb 5c92 7ebd beae 85bd
000000a0: 5889 d83d 6d66 44bd e32a a4bd d3b0 ddbb
000000b0: f131 39bd e40a 88bc bfcb 2b3d 82c2 8c3d
000000c0: 761b 0c3e 0495 b4ba cfc8 0a3e 48d9 18bd
000000d0: 136f f43d 2afc 143d fe4b 93bd b731 683d
000000e0: 54ee e13d ab3f 97bd 2832 143d b1d5 073e
000000f0: cab2 c93d d5e6 8fbc 0177 9a3d dd2d b6bd
00000100: 7d79 cdbc b4ae 3d3d 5ad5 c9bd 9d65 2ebd
00000110: 25c7 ec3d f6f5 0dbe 48b4 0cbe 4975 7ebd
00000120: 93cf 27bc 7d47 debd 1dd1 83bc 7984 6ebd
00000130: 3708 32bd 6267 f43d 5d2e 783a db69 7dbd
00000140: 6e1a dfbd 2fc4 4fbd b096 b8bc 29c5 b1bc
00000150: a565 ea3b d398 803d 8f32 4ebb 5f0e 753d
00000160: a4c9 b83d 1e80 d0bd df86 b63d 46b8 d73d
00000170: c6a3 eb3d bda3 543d 8134 ad3d a2c3 e43c
00000180: 4226 88bd 71e0 c33d 131e 2b3d 4ece 863d
00000190: fe7e d2bc 58b8 5bbd 3b53 113c a974 3abd
000001a0: 72c3 503d 81ac 9cbd a352 eb3d ed8c 17bd
000001b0: b298 90bd 406e b3bb ed9c ce3d 64af 42bd
000001c0: 6a63 38bc d59e 75bc aea6 273d a31b a13d
000001d0: a264 f2bc 4b92 c73d 04c1 03bd cbc0 083d
000001e0: 27c3 b93c c9a6 bd3c a320 e73b a861 f7bd
000001f0: 782f 273c abd9 2b3d a333 4b3d 059a a43c
00000200: 50c2 b03c 1a10 d5bd f6af 613d b4bc a43d
00000210: afa2 21bd 35d9 a1bd a519 2dbc 5de1 1abd
00000220: d7e0 843d da5f 6abd 5970 2b3d 0b05 aa3d
00000230: dad2 ccbd 00c7 7fbd 0aba 063d bcc3 c3bd
00000240: f8de e6bd fbc6 c43c 79a2 c0bd f1bb b43c
00000250: 60b8 89bd 8bbf cbbd bbf4 583d c818 083e
00000260: 58c2 043d d7af 073c 9598 693c 6077 9b3d
00000270: 765b bb3b 762e dc3d 37db f3bc f21f 5b3c
00000280: 0fbe ad3d 640c 993c b03a 83bd 8642 cb3d
00000290: 6550 da38 6c4b 953d 02e5 08bd 1d3d 66bd
000002a0: 96af a63c f432 533d 5deb f83d ad0e a7bd
000002b0: a982 093d 7986 a938 f4f6 0dbd 52c3 79bd
000002c0: 6249 413d b1d8 9d3d f794 bfbd b742 6bbc
000002d0: d5f2 01be da0f 02bd c670 e8bd 22a7 dfbc
000002e0: fbc8 193e 1431 5e3a 70cf 1c3c 0af4 c9bc
000002f0: a329 c93d 28d2 d13c 4870 84bd 3b19 a83d
00000300: 595c 033e f69b 173d c611 023e 8248 abbd
00000310: 11c9 753c 4367 c83d 024e 983d 8c2e 1d3e
00000320: ad4e 4b3d 2bbf c7bd 8cb0 9fbc 2c7a 53bc
00000330: 17cc b3bd e076 cdbc 810b 53bc 0f1f 853d
00000340: 0173 be3d 9e2b 22bd 7bac dd3d 76e2 463d
00000350: 7a35 92bd 539d 013e 1629 b6bd e06a e33c
00000360: ffd0 223d 2bcf ecbb f7ad 81bd 3793 e73d
00000370: 1356 043e 4c1d e23d 8150 c03d 7d43 423d
00000380: 01b6 56bd e034 af3d 99f6 0c3e d4f5 113e
00000390: 3c5c f7bb 19b9 b73d 2b64 0f3e e536 9dbc
000003a0: f3da 193e e57f 94bc bafc 343d 8078 a23b
000003b0: 5a29 25bd 1940 a4bb db3a af3d a89c 843d
000003c0: 5bc5 a2bd 4c4e 4e3c 3ca0 92bd ad56 1c3e
000003d0: 8a6b debc d630 863d d54d aabd 084f 0fbd
000003e0: e017 ee3d 704b 1a3e 3dc5 163e e484 6c3d
000003f0: 0612 303c cfd8 afbc 1739 dabd 7a0c e8bb

bias_hh_l0 f4 [256]
-0.07833585 0.0940545 -0.054112837 0.10851386 0.13158275 -0.001919242 0.09517964 0.08680079
0.04503 -0.07458768 -0.07640916 -0.026142033 -0.07679372 0.07755845 0.029983755 0.02002955
0.078455694 0.11332787 0.055754405 0.007776476 0.030130431 0.038890537 0.08830769 -0.07050222
0.089317955 0.13783866 0.048463248 0.09196455 0.07043633 -0.0025371162 -0.048064444 -0.08296264
-0.007127707 -0.026813107 0.14308889 0.039158426 0.06674328 0.11026352 0.094508395 -0.02070448
0.05009855 0.0036215035 0.019173838 0.13160746 -0.019317705 0.014427248 -0.014307503 -0.040832747
-0.029932875 -0.0684091 -0.07038207 0.15015675 0.031172527 0.03845885 -0.0902137 0.046736464
0.0064243865 -0.0856903 -0.06563864 -0.0726566 -0.053844076 0.08636626 -0.07017488 0.049377672
-0.058084536 -0.026309783 0.03257833 0.116024956 -0.08500504 0.08091677 -0.066474624 -0.0650714
0.047124192 -0.10703885 0.108399935 0.0419459 -0.09550649 -0.027337763 0.002394036 -0.12171376
-0.07781929 0.0029568225 0.016443165 0.046266165 -0.07086003 -0.12140011 0.06410284 0.08469768
-0.102075234 -0.104690105 -0.013094504 -0.06804637 0.07674561 -0.016212778 -0.01779024 0.018501794
0.021393262 -0.08627985 -0.058771167 -0.068860844 -0.10017666 0.049441114 0.08309134 -0.07476199
0.052009396 0.1199876 0.008342278 -0.031400386 0.1032655 0.013084514 0.059199907 0.11679724
0.054787733 0.117042474 -0.090988256 0.025662426 -0.03998659 -0.07227016 -0.0030286317 0.11120301
0.05959287 -0.09652979 -0.035568304 0.0697079 0.11856919 0.025890982 0.005042376 0.120609365
0.07639531 -0.06352027 0.0014916892 0.08394872 -0.015702136 -0.021858573 0.007755881 0.05584189
0.057010718 0.06476112 0.023550501 -0.014714418 -0.032904133 -0.019398032 0.099912904 -0.052653078
-0.071021 0.037420444 -0.047139287 -0.04003203 -0.038006812 -0.09571526 0.033234734 0.063564815
-0.11475096 0.12189895 -0.1009383 0.027316345 0.120931245 0.009876058 -0.061949506 0.016996572
-0.06147722 0.04055225 -0.093811974 -0.11224024 0.009728741 -0.018123917 0.077239335 -0.04797538
-0.01595608 0.01190823 0.012383866 0.037246723 -0.035449397 -0.09744369 0.038207166 0.053738706
0.027103731 -0.056499574 0.035268035 -0.040486153 -0.008279141 -0.025905116 -0.10019553 0.0118110245
0.13484041 -0.006474279 -0.020269282 0.06498442 -0.092548154 0.048695456 0.009043765 0.095051356
-0.10842669 0.06080598 -0.02120547 0.065732166 -0.08857611 -0.049840193 -0.017584635 0.06626852
0.098400414 0.13109381 0.13325635 -0.06616225 -0.037074987 0.0003427265 0.035570815 -0.08128126
-0.02597764 0.03589622 0.09288784 -0.032745868 -0.10317245 -0.049154002 0.03941818 -0.09955519
0.0517832 0.06676614 0.098270886 0.14282905 -0.044639543 0.051783383 0.13297977 0.13790308
-0.050094996 0.044284116 0.008594038 0.07715388 0.13265893 0.1073087 0.032564554 0.10172536
0.09238684 0.0059366096 0.11805952 0.026081542 -0.050494995 0.021415263 -0.05651966 -0.020693276
-0.09616115 0.0028249603 0.121247575 0.023458203 0.020066096 -0.032169633 -0.030106347 -0.038917292
0.14960638 0.10490061 -0.0058538932 -0.027202321 0.0036573603 0.109107785 -0.088083975 0.011665691
00000000: 8c6e a0bd a59f c03d 6ca5 5dbd 843c de3d
00000010: a1bd 063e 138f fbba 8bed c23d 9dc4 b13d
00000020: 6171 383d 6dc1 98bd 687c 9cbd d127 d6bc
00000030: 0746 9dbd f7d6 9e3d 7ea0 f53c 0315 a43c
00000040: 61ad a03d 7118 e83d bb5e 643d cfd1 fe3b
00000050: 18d4 f63c af4b 1f3d aada b43d 7863 90bd
00000060: 55ec b63d 9425 0d3e 6681 463d e957 bc3d
00000070: ec40 903d bf45 26bb 39df 44bd 51e8 a9bd
00000080: 8a8f e9bb 29a7 dbbc e585 123e 9664 203d
00000090: b3b0 883d d7d1 e13d 9e8d c13d 719c a9bc
000000a0: 2334 4d3d bf56 6d3b 7412 9d3c 1bc4 063e
000000b0: 2a40 9ebc 4460 6c3c 046a 6abc 3d40 27bd
000000c0: ca35 f5bc 121a 8cbd 7a24 90bd b1c2 193e
000000d0: 875d ff3c 0787 1d3d f6c1 b8bd bc6e 3f3d
000000e0: a983 d23b 657e afbd 8d6d 86bd fccc 94bd
000000f0: 9b8b 5cbd cbe0 b03d d9b7 8fbd 3e40 4a3d
00000100: 0dea 6dbd 9d87 d7bc db70 053d 7e9e ed3d
00000110: 1f17 aebd b1b7 a53d d923 88bd 2744 85bd
00000120: 4c05 413d 2f37 dbbd c900 de3d 77cf 2b3d
00000130: e898 c3bd 72f3 dfbc 42e5 1c3b 1045 f9bd
00000140: b85f 9fbd 40c7 413b d1b3 863c 9781 3d3d
00000150: 101f 91bd 9fa0 f8bd 5a48 833d fa75 ad3d
00000160: d20c d1bd c467 d6bd 558a 56bc e55b 8bbd
00000170: cd2c 9d3d a9d0 84bc d6bc 91bc 1391 973c
00000180: ec40 af3c 7db3 b0bd 09ba 70bd ea06 8dbd
00000190: 6c29 cdbd c482 4a3d cb2b aa3d d01c 99bd
000001a0: ce07 553d 0fbc f53d 0dae 083c b19d 00bd
000001b0: dd7c d33d 6e60 563c 9a7b 723d 6433 ef3d
000001c0: 1a69 603d f7b3 ef3d 0d58 babd 023a d23c
000001d0: fbc8 23bd 6102 94bd 027c 46bb 67be e33d
000001e0: a717 743d 69b1 c5bd 12b0 11bd 04c3 8e3d
000001f0: 67d4 f23d 5319 d43c 843a a53b 0b02 f73d
00000200: 2575 9c3d ea16 82bd c984 c33a 4eed ab3d
00000210: c4a1 80bc c010 b3bc 0c25 fe3b 77ba 643d
00000220: 1284 693d 7aa1 843d fbec c03c be14 71bc
00000230: 7cc6 06bd 9fe8 9ebc 239f cc3d c1aa 57bd
00000240: 7573 91bd 2e46 193d 2015 41bd a0f8 23bd
00000250: 08ad 1bbd 5d06 c4bd 2521 083d 452e 823d
00000260: 8d02 ebbd 28a6 f93d bdb8 cebd 87c6 df3c
00000270: cdaa f73d 31cf 213c c4be 7dbd 653c 8b3c
00000280: 8acf 7bbd 1e1a 263d 7e20 c0bd 36de e5bd
00000290: 4c65 1f3c 9c78 94bc a82f 9e3d d581 44bd
000002a0: 53b6 82bc bd1a 433c b3e5 4a3c 0590 183d
000002b0: 6333 11bd 8f90 c7bd 1e7f 1c3d 1e1d 5c3d
000002c0: a508 de3c 196c 67bd 3775 103d cfd4 25bd
000002d0: 3ca5 07bc f736 d4bc 5033 cdbd 0783 413c
000002e0: 9b13 0a3e 3026 d4bb c40b a6bc 8d16 853d
000002f0: e389 bdbd e374 473d 4d2c 143c 49aa c23d
00000300: d00e debd b10f 793d 18b7 adbc 969e 863d
00000310: 6467 b5bd 3b25 4cbd a70d 90bc cab7 873d
00000320: 2886 c93d 753d 063e 5a74 083e 1380 87bd
00000330: f1db 17bd f9af b339 b4b2 113d ca76 a6bd
00000340: 0fcf d4bc ea07 133d fb3b be3d 8820 06bd
00000350: 144c d3bd b555 49bd f574 213d 97e3 cbbd
00000360: 9f1a 543d b0bc 883d 3f42 c93d c741 123e
00000370: f4d7 36bd d01a 543d d92b 083e 7736 0d3e
00000380: 6930 4dbd 4363 353d 02ce 0c3c da02 9e3d
00000390: bed7 073e aac4 db3d 6962 053d 6355 d03d
000003a0: 5035 bd3d e487 c23b 31c9 f13d f5a8 d53c
000003b0: d7d3 4ebd 106f af3c 2981 67bd f284 a9bc
000003c0: 23f0 c4bd f822 393b a650 f83d 6b2b c03c
000003d0: a761 a43c 4ec4 03bd 96a1 f6bc bd67 1fbd
000003e0: 6a32 193e 22d6 d63d 04d2 bfbb 67d7 debc
000003f0: 53b0 6f3b e773 df3d 5f65 b4bd 7421 3f3c

weight_ih_l1 f4 [256, 64]
-0.08470338 0.053079102 -0.17481731 -0.10456705 0.055060882 0.07524239 0.003897682 0.058062263
-0.08701962 0.04000883 0.016462406 -0.0076302877 0.0025811528 -0.09232169 -0.030830244 0.11626686
0.018230878 0.04360544 0.064991266 -0.0026127365 0.07560769 0.01961245 -0.0229219 0.13110305
0.029957786 0.09120813 0.12038676 0.07063215 0.0061293542 0.06565916 -0.013551016 -0.13463889
-0.05978765 0.107849635 0.14451239 -0.011592134 -0.12063034 -0.10910672 -0.20381634 -0.17885607
-0.122227885 0.015094581 -0.13201202 0.028852506 0.01953397 0.07239949 -0.032379158 0.025967227
-0.03658572 0.095856406 -0.1308219 0.07898491 0.14558831 -0.025811711 0.0726769 0.021582283
-0.07490688 0.034902655 0.027158972 -0.040335454 -0.15054321 -0.1429872 0.07643868 -0.08446085
0.020676171 0.04825413 0.06946465 -0.07611109 0.029999135 0.07136034 -0.022930548 -0.08187899
-0.08204971 0.05299223 -0.060513526 0.012391286 0.020807253 -0.11816034 0.07399543 -0.084830135
0.09215383 0.10770623 -0.0836596 -0.12509197 0.10497711 0.0473663 0.022281794 -0.032972157
-0.11226579 0.0540868 0.04956541 -0.07186462 -0.05364927 -0.08984222 -0.06525058 0.09521523
-0.08905593 -0.07037404 -0.011264051 0.06762855 -0.058225106 -0.0013451956 -0.0017225557 -0.055564847
-0.079076104 0.020531306 0.027604265 0.08937161 0.04242738 -0.12270184 0.07814804 0.063592285
-0.09878163 -0.013164086 0.10237342 0.01365548 0.00021994521 0.08062775 0.027334973 0.04958711
0.043454673 0.005895291 -0.11048243 -0.04106958 -0.044416413 0.089440756 -0.09223901 0.10504159
0.11514528 0.064486414 0.064500876 -0.06253289 -0.09042292 -0.013352359 0.04913995 -0.061452128
-0.15142855 -0.022636358 0.014319707 0.02030114 0.04453412 0.067064874 -0.099365495 0.055423643
-0.08705564 0.04634447 -0.01645784 0.027165309 0.010085874 0.022774713 -0.0240802 0.01665548
0.08416171 0.00029552158 -0.07319528 -0.119840644 0.14231837 -0.07930766 0.06648953 0.0887751
-0.030520326 -0.04068431 0.10862696 0.16223036 -0.03647706 -0.096727915 0.009980522 0.036515266
0.025025355 -0.079424225 0.03027151 0.14254 -0.092369616 -0.10413189 0.026163831 0.017927252
0.14334458 0.10920178 -0.07227393 0.08591224 -0.058502883 -0.08500737 -0.051888943 0.0073193056
-0.07547369 -0.17158033 -0.09073174 -0.012045832 -0.097166106 0.019725332 -0.07787439 0.10433318
0.01805535 0.010564095 0.12517342 0.10478005 0.03794217 -0.006698406 0.08196589 -0.11923012
-0.10330031 -0.04536647 -0.011988692 0.08110326 0.101879776 -0.012863229 -0.08411126 0.017636534
-0.01749166 0.017714871 -0.037300374 -0.078866005 0.08441659 -0.14414923 0.072216995 0.06435684
0.066270374 0.08708618 -0.008911421 -0.116017886 -0.046073623 0.05054434 -0.021883514 0.121097565
0.102694 -0.080724366 -0.042342383 -0.05462686 0.08317674 0.10823542 0.0041373805 -0.120067686
0.08604954 0.031007867 0.049675092 -0.08706162 -0.012555548 0.047082454 -0.12845801 0.10297506
0.08826989 0.08899649 -0.09446707 0.07234329 0.042382505 0.06496635 0.0011668246 -0.1075111
0.11669077 -0.01217785 -0.034451924 -0.06531884 -0.027227294 -0.114726275 -0.09234346 0.025193824
00000000: f778 adbd 7969 593d 4f03 33be 4027 d6bd
00000010: 8587 613d af18 9a3d 4170 7f3b b2d2 6d3d
00000020: 5837 b2bd 4de0 233d 2bdc 863c 7e07 fabb
00000030: 8f28 293b 2713 bdbd b58f fcbc 521d ee3d
00000040: ec58 953c 9e9b 323d 241a 853d 723a 2bbb
00000050: 34d8 9a3d 4aaa a03c b5c6 bbbc e13f 063e
00000060: 086a f53c 54cb ba3d 558d f63d 97a7 903d
00000070: c0d8 c83b 4f78 863d 1505 5ebc c7de 09be
00000080: e5e3 74bd 45e0 dc3d 0efb 133e efec 3dbc
00000090: 0a0d f7bd 5873 dfbd 3bb5 50be 0c26 37be
000000a0: 9d52 fabd 434f 773c 292e 07be 175c ec3c
000000b0: b405 a03c 2f46 943d 02a0 04bd 39b9 d43c
000000c0: e8da 15bd 5d50 c43d 2df6 05be d7c2 a13d
000000d0: 1a15 153e 1573 d3bc a0d7 943d 54cd b03c
000000e0: c768 99bd 16f6 0e3d 7e7c de3c ca36 25bd
000000f0: 0028 1abe 3d6b 12be e28b 9c3d cff9 acbd
00000100: 1361 a93c 1fa6 453d 7b43 8e3d 22e0 9bbd
00000110: bfc0 f53c 5f25 923d d8d8 bbbc 2cb0 a7bd
00000120: ae09 a8bd 610e 593d 08dd 77bd d204 4b3c
00000130: f973 aa3c 0cfe f1bd ea8a 973d 6cbb adbd
00000140: 26bb bc3d 1595 dc3d b955 abbd 1c18 00be
00000150: 3dfe d63d 2a03 423d 4f88 b63c d00d 07bd
00000160: 9beb e5bd 1f8a 5d3d 1905 4b3d c22d 93bd
00000170: 56bf 5bbd 33ff b7bd 19a2 85bd 3400 c33d
00000180: f562 b6bd 4420 90bd db8c 38bc d680 8a3d
00000190: 737d 6ebd 4651 b0ba 61c7 e1ba f797 63bd
000001a0: a7f2 a1bd 4531 a83c 5722 e23c 7608 b73d
000001b0: 55c8 2d3d 1a4b fbbd 140c a03d ac3c 823d
000001c0: 064e cabd 2eae 57bc 28a9 d13d 3cbb 5f3c
000001d0: 18a1 6639 2920 a53d 98ed df3c da1b 4b3d
000001e0: 87fd 313d 492d c13b 9d44 e2bd 9338 28bd
000001f0: fced 35bd b72c b73d cee7 bcbd 0c20 d73d
00000200: 4ad1 eb3d 7411 843d 0919 843d 3e11 80bd
00000210: a72f b9bd dac3 5abc f946 493d 3ab5 7bbd
00000220: 1610 1bbe e26f b9bc 349d 6a3c 944e a63c
00000230: 6969 363d 4f59 893d 2380 cbbd e703 633d
00000240: 3a4a b2bd b3d3 3d3d 98d2 86bc c889 de3c
00000250: 393f 253c 0992 ba3c d743 c5bc 1371 883c
00000260: fa5c ac3d 3cf0 9a39 68e7 95bd 036f f5bd
00000270: e8bb 113e 0e6c a2bd aa2b 883d b8cf b53d
00000280: c305 fabc 97a4 26bd d077 de3d b71f 263e
00000290: f868 15bd 4919 c6bd 5885 233c 0891 153d
000002a0: f901 cd3c 2ba9 a2bd f5fb f73c 01f6 113e
000002b0: 482c bdbd 1a43 d5bd 8855 d63c 2cdc 923c
000002c0: ecc8 123e 2fa5 df3d 5b04 94bd c2f2 af3d
000002d0: b8a0 6fbd 5818 aebd 8089 54bd c9d6 ef3b
000002e0: f391 9abd c1b2 2fbe 90d1 b9bd e25b 45bc
000002f0: 06ff c6bd 0597 a13c 9c7c 9fbd a2ac d53d
00000300: d0e8 933c 0715 2d3c 762d 003e ec96 d63d
00000310: 4069 1b3d 4d7e dbbb bcdd a73d ec2e f4bd
00000320: 1d8f d3bd 31d2 39bd 386c 44bc 7719 a63d
00000330: 58a6 d03d 4bc0 52bc 8642 acbd 7e7a 903c
00000340: ab4a 8fbc c71e 913c 47c8 18bd 8084 a1bd
00000350: 9be2 ac3d db9b 13be 81e6 933d 85cd 833d
00000360: c3b8 873d 3d5a b23d 3501 12bc c99a edbd
00000370: b2b7 3cbd 9507 4f3d 0e45 b3bc 0002 f83d
00000380: 3b51 d23d d152 a5bd 356f 2dbd 6ac0 5fbd
00000390: 9158 aa3d 88aa dd3d dd92 873b 0ce6 f5bd
000003a0: be3a b03d 3604 fe3c 1c78 4b3d 5d4d b2bd
000003b0: c9b5 4dbc 88d9 403d 7f8a 03be 97e4 d23d
000003c0: d8c6 b43d cb43 b63d f477 c1bd b828 943d
000003d0: 4799 2d3d 140d 853d 23f0 983a c82e dcbd
000003e0: 92fb ee3d 9b85 47bc 761d 0dbd e2c5 85bd
000003f0: c60b dfbc 9cf5 eabd 911e bdbd 4763 ce3c

weight_hh_l1 f4 [256, 64]
0.027160376 0.037788372 -0.08819515 0.083399035 0.012272217 -0.037717205 -0.057360806 -0.012775729
-0.06675974 -0.039606705 0.1045967 -0.08245118 0.052849654 -0.1458166 -0.033587772 0.1311289
0.06369823 0.09483241 0.12293639 -0.10982115 -0.10665493 -0.077567406 -0.12419367 0.040141076
0.012827487 0.01804699 -0.1240514 -0.0854636 -0.13278203 -0.055385597 -0.100074485 0.017863246
0.051460844 0.029120915 -0.032233115 -0.04724961 -0.010495625 0.0509241 -0.027763166 -0.0980942
0.093518004 0.04099615 -0.13075429 -0.14047816 0.01339715 -0.06625132 0.08570505 0.06720439
0.080682375 -0.039232768 -0.0798954 -0.08750248 0.06925032 -0.09114844 0.040950697 0.09085881
-0.0047038537 0.13971493 -0.13282609 -0.10864573 -0.027646521 0.041123085 0.06692401 -0.048130285
0.091036126 0.07349753 0.005843689 -0.0027543753 -0.09443502 0.13969456 0.036986154 0.016106103
-0.13448219 0.0170632 0.025214363 0.013826139 0.0762114 -0.10715626 -0.12885834 0.05127714
-0.10739478 0.09752917 0.016628044 0.095763385 -0.024125712 -0.11188182 0.1256963 -0.0953579
-0.070203654 0.081635706 -0.11029314 0.027307933 -0.0839676 -0.013791555 0.05016624 0.10377823
-0.018783726 -0.12912504 0.035353143 -0.008101038 -0.10170847 0.0076360824 0.0053578727 0.090306476
0.06556767 0.008482955 -0.085464165 -0.09545037 -0.019745495 0.04892552 -0.017747346 -0.007487757
0.10148114 0.051403984 -0.06572175 0.078146905 0.08862237 0.020748375 0.04175754 0.14711455
0.12046896 0.07283457 -0.038830653 0.051226757 -0.05929108 -0.108569786 0.077457614 0.0082452465
-0.048228182 -0.0116267605 -0.072909124 -0.05356746 -0.04309191 -0.00996016 0.005670932 0.031561192
-0.113691136 -0.049505487 -0.13072832 -0.0083946455 -0.049595032 -0.037948187 -0.12302027 0.07998612
-0.07412585 0.010233869 -0.021072766 -0.071077324 -0.01817799 -0.05255227 -0.12312206 -0.02833984
0.027033709 -0.12670857 0.0026419605 -0.080868155 -0.030110635 -0.052400522 -0.06485731 -0.06424989
0.03910006 -0.11260827 -0.025799818 0.090240285 -0.06910118 -0.12003996 0.0625101 0.07149831
-0.12061412 -0.07805233 0.08202349 0.02584623 -0.006905102 0.08602791 -0.02963802 0.11966814
0.027410192 0.051334485 0.11544188 0.0734028 0.05964977 -0.053251658 0.01179633 -0.02937088
0.011277384 -0.030081617 0.010206256 0.021545412 0.045595147 0.0035465546 0.008450166 0.094523765
0.1344623 0.08354972 0.08390592 0.018600157 -0.0702809 0.0032532322 -0.08603532 -0.052467864
-0.118428305 -0.039837305 -0.012565636 -0.068044394 0.1259655 0.010437051 0.08441686 0.056455996
-0.021470318 0.07547296 -0.006808255 0.122529425 -0.12764768 0.044561483 0.037839733 0.010122625
-0.010999865 0.05689761 -0.12800701 0.11740363 0.008790995 -0.062425274 -0.11162019 -0.11173288
0.057774037 0.11237434 -0.091612026 -0.07766778 -0.08917307 -0.110550664 -0.064371504 0.04710609
0.0049752537 0.015708007 0.08687805 -0.08703952 -0.03274691 0.060970094 0.047034476 -0.12332078
0.036692325 -0.029429687 0.03569744 -0.0575411 0.02468214 0.03413707 -0.10170193 0.007587752
-0.08538088 0.120088115 0.012985524 0.02220392 0.013309083 -0.121972255 0.10485166 -0.09453824
00000000: 707f de3c fbc7 1a3d a99f b4bd 1dcd aa3d
00000010: 6911 493c 5b7d 1abd 2af3 6abd 4b51 51bc
00000020: 55b9 88bd a43a 22bd cb36 d63d 2adc a8bd
00000030: e178 583d f250 15be 5593 09bd a846 063e
00000040: 3874 823d 7f37 c23d 13c6 fb3d e9e9 e0bd
00000050: e66d dabd a9db 9ebd 4059 febd f86a 243d
00000060: 612a 523c 48d7 933c a90e febd 8a07 afbd
00000070: 03f8 07be 02dc 62bd daf3 ccbd f155 923c
00000080: 9bc8 523d fc8e ee3c df06 04bd cf88 41bd
00000090: d8f5 2bbc ca95 503d 946f e3bc 9de5 c8bd
000000a0: 5e86 bf3d 94eb 273d 74e4 05be 82d9 0fbe
000000b0: b87f 5b3c c6ae 87bd 2186 af3d 75a2 893d
000000c0: cd3c a53d 8ab2 20bd 33a0 a3bd 8034 b3bd
000000d0: 1dd3 8d3d 09ac babd ebbb 273d 2f14 ba3d
000000e0: c922 9abb 6e11 0f3e 9003 08be a781 debd
000000f0: f57a e2bc ae70 283d 750f 893d 4324 45bd
00000100: 2671 ba3d df85 963d 6b7c bf3b c082 34bb
00000110: 2667 c1bd 170c 0f3e cb7e 173d f2f0 833c
00000120: b3b5 09be 20c8 8b3c 5a8e ce3c 0887 623c
00000130: b914 9c3d be74 dbbd 71f3 03be fa07 523d
00000140: cbf1 dbbd 60bd c73d 8937 883c 981f c43d
00000150: 49a3 c5bc 4c22 e5bd 88b6 003e 014b c3bd
00000160: efc6 8fbd 9f30 a73d 5fe1 e1bd e3b4 df3c
00000170: 34f7 abbd f9f5 61bc 1e7b 4d3d ae89 d43d
00000180: 54e0 99bc 5b39 04be 75ce 103d 37ba 04bc
00000190: 884c d0bd 1a38 fa3b 1891 af3b 9af2 b83d
000001a0: 5848 863d 18fc 0a3c d607 afbd 7c7b c3bd
000001b0: 4ec1 a1bc 2066 483d e262 91bc dc5b f5bb
000001c0: 58d5 cf3d fc8c 523d 2099 86bd 7c0b a03d
000001d0: a57f b53d 7ff8 a93c f409 2b3d 32a5 163e
000001e0: 6eb8 f63d 4b2a 953d e40c 1fbd 26d3 513d
000001f0: 34db 72bd d659 debd 19a2 9e3d 1217 073c
00000200: ea8a 45bd 2b7e 3ebc 6151 95bd 8e69 5bbd
00000210: 2581 30bd f02f 23bc 3ad3 b93b 4f46 013d
00000220: e6d6 e8bd 44c6 4abd a5dd 05be b289 09bc
00000230: 2924 4bbd 8f6f 1bbd 0df2 fbbd c3cf a33d
00000240: 4bcf 97bd f5ab 273c cba0 acbc fd90 91bd
00000250: 02ea 94bc 0d41 57bd 6b27 fcbd f428 e8bc
00000260: cc75 dd3c e4bf 01be be24 2d3b 349e a5bd
00000270: 94aa f6bc eea1 56bd e9d3 84bd 7295 83bd
00000280: 6227 203d 2a9f e6bd 245a d3bc e6cf b83d
00000290: eb84 8dbd 83d7 f5bd 4c05 803d b56d 923d
000002a0: 8904 f7bd e6d9 9fbd eefb a73d 79bb d33c
000002b0: 3244 e2bb 672f b03d 6fcb f2bc 9214 f53d
000002c0: 578b e03c 1c44 523d cb6c ec3d 3554 963d
000002d0: 5153 743d 691e 5abd 6545 413c 339b f0bc
000002e0: c7c4 383c b96d f6bc 2438 273c 0180 b03c
000002f0: fac1 3a3d 506d 683b 9172 0a3c ad95 c13d
00000300: 7cb0 093e 1e1c ab3d ded6 ab3d 5b5f 983c
00000310: 6fef 8fbd 2e34 553b 4933 b0bd 8be8 56bd
00000320: 8a8a f2bd 712c 23bd 19e0 4dbc dc5a 8bbd
00000330: 1afd 003e 2a00 2b3c bfe2 ac3d 673e 673d
00000340: 85e2 afbc 9191 9a3d c817 dfbb b5f0 fa3d
00000350: 13b6 02be 1a86 363d d6fd 1a3d 5ed9 253c
00000360: c738 34bc 780d 693d 4514 03be 5071 f03d
00000370: 1b08 103c a5b1 7fbd 2099 e4bd 35d4 e4bd
00000380: 78a4 6c3d 8524 e63d 169f bbbd 4910 9fbd
00000390: 5fa0 b6bd 6368 e2bd 35d5 83bd 51f2 403d
000003a0: 7407 a33b 14ae 803c 1eed b13d c741 b2bd
000003b0: a021 06bd c7bb 793d 39a7 403d 9b8f fcbd
000003c0: b14a 163d 8716 f1bc 7b37 123d 37b0 6bbd
000003d0: 3332 ca3c 50d3 0b3d 1a49 d0bd ada2 f83b
000003e0: 2cdc aebd c2f0 f53d 3cc1 543c ffe4 b53c
000003f0: 570e 5a3c 97cc f9bd 78bc d63d 449d c1bd

bias_ih_l1 f4 [256]
0.13584334 0.12711872 0.10629382 0.036204353 0.0056361924 -0.079903394 -0.007569193 0.1027127
0.053874712 0.08632033 -0.06279885 0.04353466 -0.08361094 0.05361758 0.049816642 -0.014944947
-0.024499163 0.098620534 0.115160674 0.0133095505 -0.09680636 -0.057759434 0.08012692 -0.056375787
-0.08113365 0.06307008 0.12452647 -0.05720516 0.15539177 -0.083570115 -0.09801249 0.064215675
0.12648174 -0.043486625 0.10868042 0.08429306 0.15375084 0.0921505 0.13217977 0.10157498
0.039265554 -0.069366254 -0.06049859 -0.11074354 0.103710376 -0.07242184 0.034482818 -0.013266091
0.07348874 0.13291828 -0.052156672 -0.054778397 0.11121626 0.11542734 -0.060228623 0.092623405
-0.08893325 0.12485329 0.10610401 0.097977355 -0.09016518 0.119801514 0.04090942 -0.0062948926
-0.034523256 0.018442046 -0.11995173 -0.025849583 0.080574 0.09599678 0.0483629 -0.01772068
0.07103113 0.12550513 0.04626711 0.06049483 -0.021384556 0.093015596 -0.056132138 0.10730054
0.059176873 0.009427854 0.08725262 0.057688978 0.02599428 -0.08459417 0.123250045 0.08981429
-0.005047822 -0.03177504 0.028415376 -0.04302836 -0.03921858 0.08724023 0.049416482 0.085474014
0.107537545 0.029813316 0.08708052 0.12001898 -0.06773944 -0.024392385 -0.09377808 -0.0048507135
-7.856586e-06 0.05965932 -0.035017475 -0.06842578 -0.04816912 0.119585186 -0.12210283 0.121875934
-0.09536384 0.06503595 -0.1048726 -0.06254376 0.09183269 0.04806202 -0.05028107 0.098237954
-0.09502386 0.10528947 0.05270931 0.017600747 0.05480504 -0.07705032 0.10648769 0.07233518
0.09763829 -0.06541572 0.116109684 0.1052698 -0.07528254 0.099663034 -0.124874674 0.058490396
0.05968897 0.018063024 0.06901112 -0.10180438 0.045431815 -0.039177794 -0.012008266 0.118543826
0.020935664 -0.0833771 -0.013918489 0.04865499 -0.034649707 -0.09487557 -0.003087051 0.026037354
0.1137184 0.047432456 0.120128 -0.03570543 0.025810828 -0.10159635 -0.08015466 0.06323122
0.0076217484 -0.034811158 0.014918225 -0.12173818 -0.102820985 -0.013892342 0.048533913 -0.099052005
-0.03829324 -0.040608227 0.048049983 -0.08900743 0.009275476 0.10470905 -0.009136785 -0.065008774
0.00037497663 -0.08443695 0.11053066 0.06311372 -0.03249655 0.043744303 0.089449026 0.05372115
-0.009634321 0.10207695 0.07543674 -0.02862974 0.022730015 -0.044546075 0.03902866 0.04261344
-0.0039551426 0.07470891 0.109239645 -0.0897182 0.11767371 -0.0440935 0.00067460083 0.13295743
0.08852576 -0.046889216 0.09859878 0.120783515 0.11597808 0.003598892 0.049340684 0.093991004
0.12699896 0.05215777 0.12223846 0.061353028 0.043311533 0.13693827 -0.061455067 0.018639011
-0.08432339 -0.006664231 0.13193844 0.10143033 0.09303223 -0.0897821 0.04230937 0.12697084
0.061616592 0.043945774 0.058375426 -0.07365819 -0.09183856 0.067473926 -0.10986244 0.0043182
0.11045641 0.10451579 -0.017069977 0.12984593 -0.029749716 0.1422596 0.0949561 0.13714547
-0.098288484 0.1388504 -0.077926554 0.004210151 0.121168606 -0.0038523702 0.0872577 0.021699527
0.13652362 -0.05696108 0.04703745 0.14807938 0.095193624 -0.03519483 0.12099654 -0.05163368
00000000: 841a 0b3e 692b 023e 93b0 d93d 044b 143d
00000010: cfaf b83b 64a4 a3bd fe06 f8bb 095b d23d
00000020: bbab 5c3d b7c8 b03d af9c 80bd 6651 323d
00000030: 363c abbd 1c9e 5b3d 890c 4c3d a7db 74bc
00000040: 78b2 c8bc 90f9 c93d 5cd9 eb3d 4d10 5a3c
00000050: 6a42 c6bd 2895 6cbd 9519 a43d 4cea 66bd
00000060: 6629 a6bd e32a 813d bc07 ff3d f54f 6abd
00000070: 051f 1f3e cf26 abbd c6ba c8bd 8283 833d
00000080: 6e84 013e 081f 32bd d793 de3d d7a1 ac3d
00000090: dc70 1d3e 67b9 bc3d 225a 073e 8b06 d03d
000000a0: ebd4 203d e50f 8ebd 5fcd 77bd 82cd e2bd
000000b0: 1b66 d43d e751 94bd db3d 0d3d 055a 59bc
000000c0: 4481 963d bb1b 083e 3ca2 55bd 505f 60bd
000000d0: 5ac5 e33d 2b65 ec3d 4ab2 76bd 57b1 bd3d
000000e0: a322 b6bd 15b3 ff3d 0f4d d93d 5aa8 c83d
000000f0: 86a8 b8bd 7f5a f53d a390 273d 6345 cebb
00000100: 4268 0dbd c613 973c 41a9 f5bd 81c2 d3bc
00000110: fb03 a53d f699 c43d 2d18 463d f62a 91bc
00000120: c578 913d 6b84 003e 9582 3d3d 6dc9 773d
00000130: aa2e afbc f67e be3d d0ea 65bd 63c0 db3d
00000140: 7363 723d 4977 1a3c 80b1 b23d 474b 6c3d
00000150: f5f1 d43c b53f adbd 856a fc3d 8ef0 b73d
00000160: 3368 a5bb 8b26 02bd 5dc7 e83c 813e 30bd
00000170: a9a3 20bd 01ab b23d f068 4a3d 000d af3d
00000180: a53c dc3d 0e3b f43c 4657 b23d 83cc f53d
00000190: faba 8abd 8ad2 c7bc b90e c0bd bcf2 9ebb
000001a0: c8cf 03b7 555d 743d 7c6e 0fbd d122 8cbd
000001b0: fc4c 45bd 14e9 f43d 0c11 fabd 179a f93d
000001c0: 1e4e c3bd 9131 853d 72c7 d6bd f116 80bd
000001d0: c712 bc3d aedc 443d 86f3 4dbd fb30 c93d
000001e0: df9b c2bd 01a2 d73d b8e5 573d 712f 903c
000001f0: 407b 603d 8fcc 9dbd 3816 da3d 7824 943d
00000200: 95f6 c73d adf8 85bd eaca ed3d b197 d73d
00000210: bb2d 9abd 221c cc3d 4bbe ffbd a093 6f3d
00000220: 6c7c 743d e8f8 933c b455 8d3d d17e d0bd
00000230: b616 3a3d e578 20bd 51be 44bc 1bc7 f23d
00000240: 4581 ab3c 9dc1 aabd 600a 64bc 744a 473d
00000250: daec 0dbd 1f4e c2bd 1f50 4abb 4a4c d53c
00000260: 31e5 e83d 8948 423d ab05 f63d db3f 12bd
00000270: 3b71 d33c bf11 d0bd 2028 a4bd 5f7f 813d
00000280: dcbf f93b 2596 0ebd 926b 743c de51 f9bd
00000290: cf93 d2bd b59c 63bc 7fcb 463d c7db cabd
000002a0: 5fd9 1cbd d054 26bd 0fd0 443d 8749 b6bd
000002b0: 2bf8 173c b371 d63d 74b2 15bc 5223 85bd
000002c0: 8398 c439 48ed acbd e65d e23d c441 813d
000002d0: 1a1b 05bd 3a2d 333d 0d31 b73d b50a 5c3d
000002e0: 45d9 1dbc b80d d13d 947e 9a3d eb88 eabc
000002f0: 4c34 ba3c f275 36bd 84dc 1f3d 6e8b 2e3d
00000300: 249a 81bb fc00 993d 09b9 df3d 2dbe b7bd
00000310: eafe f03d 639b 34bd b2d7 303a fe25 083e
00000320: fe4c b53d e80e 40bd 28ee c93d 595d f73d
00000330: ea85 ed3d 63db 6b3b 7519 4a3d 5b7e c03d
00000340: 040c 023e 63a3 553d 2858 fa3d 504d 7b3d
00000350: 6f67 313d 8c39 0c3e 4fb8 7bbd d7b0 983c
00000360: beb1 acbd 9f5f dabb df1a 073e b4ba cf3d
00000370: af87 be3d addf b7bd 974c 2d3d a504 023e
00000380: ae61 7c3d 7c00 343d 121b 6f3d 1bda 96bd
00000390: db15 bcbd c52f 8a3d 8fff e0bd b07f 8d3b
000003a0: f836 e23d 600c d63d 56d6 8bbc 55f6 043e
000003b0: adb5 f3bc 80ac 113e 5878 c23d dd6f 0c3e
000003c0: 794b c9bd cd2e 0e3e f597 9fbd 4ef5 893b
000003d0: 3f27 f83d 0c78 7cbb 2ab4 b23d 35c3 b13c
000003e0: d9cc 0b3e 0550 69bd 57aa 403d 1fa2 173e
000003f0: e0f4 c23d 7428 10bd 09cd f73d d67d 53bd

bias_hh_l1 f4 [256]
0.0074463356 0.08733811 0.09337636 -0.024064329 0.12642953 0.11428583 0.015691547 0.09406551
0.08119085 0.11023914 -0.01907199 0.010122484 0.06783515 0.04366346 -0.019542165 0.014902196
0.093869045 -0.007027153 -0.010014685 -0.085788354 0.10189107 0.10423751 -0.0727357 -0.087775685
0.13768052 0.15470445 -0.040018316 -0.023071824 0.115579166 -0.07721502 -0.0798638 0.008922241
0.06153151 0.13477561 0.07985205 -0.020446341 -0.022618383 0.10849383 0.14049107 0.08802642
-0.065174125 -0.08201953 0.1169367 0.08264576 0.083594 0.121057145 -0.1015327 -0.008752451
0.016406858 0.053428 0.041256323 0.014920917 0.019700777 -0.11371059 -0.005757946 0.13388246
-0.036695343 0.061836574 0.06713712 0.02048035 0.111472726 0.1305528 -0.09855722 0.04365896
0.050362907 -0.06591108 0.1191917 -0.1029266 0.013417404 0.094597384 0.021527184 0.10174011
0.015250123 0.07516927 0.042858128 -0.056628183 0.055967383 -0.03798197 -0.0678105 -0.048547376
-0.07563909 -0.08595211 0.061855115 -0.07461166 0.052940957 -0.062375564 0.046056703 0.00902524
0.056313694 0.071429245 -0.131084 0.024043852 0.037344836 0.06302378 -0.003958323 0.013399644
-0.03438289 -0.12651807 0.026583273 -0.037559103 -0.086385846 -0.05390592 0.03657952 -0.10532087
-0.03740097 -0.09612475 0.06381352 -0.06290744 -0.010908084 0.012864738 -0.088264525 -0.037622124
-0.027064444 -0.035079747 0.012640727 -0.0223131 0.10574425 0.10408071 0.10246574 -0.085232206
0.12986523 0.11750729 0.025692986 -0.0462888 -0.046167985 -0.106467135 -0.094239965 0.10181327
0.0050918837 0.046934072 0.084218934 -0.122671776 -0.065854 0.12513009 -0.01824485 0.025691254
-0.07339692 -0.08173012 -0.034550004 0.07173344 0.12866451 -0.06437184 -0.00031804183 0.06927427
0.05178255 -0.0022753088 0.07079515 0.009856331 -0.098959945 0.10598756 0.0808584 -0.08035752
-0.017929865 -0.056576677 -0.073629044 -0.046795927 0.03224277 -0.090703435 0.109360054 -0.046737626
-0.10970928 -0.08322818 0.03576886 0.10168146 0.11851127 -0.048255704 -0.09485536 -0.03220281
0.08973991 0.117292 -0.121195644 -0.11559077 0.015372813 -0.040535927 0.062446136 0.018188333
-0.10965767 0.100402564 -0.015202416 -0.0048450674 0.10717178 0.10207226 -0.10364386 0.10849973
0.05754482 -0.0036753637 0.03297558 -0.10387534 0.043988567 0.032417275 -0.060790367 -0.0704965
0.02463451 0.0035406714 0.095402144 -0.086303435 -0.043337595 0.12494159 0.020297563 0.11359731
0.07034388 0.105808824 -0.041771248 -0.07255765 -0.05183878 0.029323474 0.039130583 -0.08059675
0.11996735 -0.0568964 -0.043817747 0.06260488 0.10571383 0.016708141 0.124207795 -0.08457079
0.105382904 0.15981863 -0.058743954 -0.0042474787 0.0514006 0.040522374 0.056608308 0.14373165
0.08791733 0.044564936 0.07993441 0.07346351 0.01225836 0.09118946 0.13965824 0.1421127
-0.0671009 -0.031005405 -0.104444094 0.00034832297 -0.07126091 0.06793711 -0.07603054 0.12993278
0.13311595 0.08161132 -0.1090569 -0.052518852 -0.038991034 0.05924086 0.16432251 0.05724959
0.10371885 -0.06899205 0.043977644 0.025247848 0.0863816 0.0889726 -0.00023567992 0.016351614
00000000: 6400 f43b 53de b23d 1b3c bf3d 8e22 c5bc
00000010: be76 013e b00e ea3d 8f8b 803c 6ba5 c03d
00000020: 6347 a63d 0fc5 e13d dd3c 9cbc c6d8 253c
00000030: 28ed 8a3d 75d8 323d e416 a0bc 5728 743c
00000040: 6a3e c03d 0844 e6bb a214 24bc ceb1 afbd
00000050: 44ac d03d 7a7a d53d 74f6 94bd bdc3 b3bd
00000060: 1ffc 0c3e d86a 1e3e 3fea 23bd 1f01 bdbc
00000070: c5b4 ec3d e922 9ebd a28f a3bd 972e 123c
00000080: 7708 7c3d 9e02 0a3e 7989 a33d 167f a7bc
00000090: 304a b9bc 0332 de3d e4dc 0f3e 3247 b43d
000000a0: 037a 85bd dbf9 a7bd 827c ef3d 2e42 a93d
000000b0: 5533 ab3d cfec f73d 60f0 cfbd 7166 0fbc
000000c0: ad67 863c 52d7 5a3d 64fc 283d dd76 743c
000000d0: 8663 a13c 19e1 e8bd 27ad bcbb 7c18 093e
000000e0: db4d 16bd 5948 7d3d 307f 893d 68c6 a73c
000000f0: d04b e43d a2af 053e 5ed8 c9bd bdd3 323d
00000100: 5649 4e3d 63fc 86bd c71a f43d 2ecb d2bd
00000110: acd4 5b3c 46bc c13d c759 b03c 1e5d d03d
00000120: a7db 793c 59f2 993d 018c 2f3d f4f2 67bd
00000130: 0e3e 653d fb92 1bbd 3be0 8abd 9dd9 46bd
00000140: abe8 9abd a907 b0bd ca5b 7d3d ffcd 98bd
00000150: 9ed8 583d 857d 7fbd f4a5 3c3d 9ade 133c
00000160: 30a9 663d 7f49 923d e23a 06be 9df7 c43c
00000170: e6f6 183d 9d12 813d d2b4 81bb 2e8a 5b3c
00000180: 13d5 0cbd f48d 01be 2ac5 d93c 93d7 19bd
00000190: 10eb b0bd 74cc 5cbd 68d4 153d 78b2 d7bd
000001a0: c231 19bd 0edd c4bd aab0 823d 9ed5 80bd
000001b0: d2b7 32bc 9fc6 523c 08c4 b4bd a819 1abd
000001c0: 41b6 ddbc c8af 0fbd 0d1b 4f3c f6c9 b6bc
000001d0: 7190 d83d 4428 d53d 8fd9 d13d 398e aebd
000001e0: 64fb 043e a9a7 f03d 197a d23c 5399 3dbd
000001f0: a41a 3dbd 710b dabd e200 c1bd 7a83 d03d
00000200: d1d9 a63b f13d 403d fa7a ac3d 573b fbbd
00000210: 76de 86bd 1a22 003e 3976 95bc 7776 d23c
00000220: 2051 96bd 1f62 a7bd 4e84 0dbd fbe8 923d
00000230: a1c0 033e 62d5 83bd dabe a6b9 abdf 8d3d
00000240: f019 543d 591d 15bb 0cfd 903d 737c 213c
00000250: 83ab cabd 0110 d93d 1799 a53d 7c92 a4bd
00000260: a7e1 92bc f2bc 67bd d3ca 96bd 16ad 3fbd
00000270: ff10 043d b9c2 b9bd 2af8 df3d f46f 3fbd
00000280: 42af e0bd 8973 aabd 5e82 123d 5f3e d03d
00000290: 09b6 f23d c6a7 45bd 8743 c2bd 18e7 03bd
000002a0: 8fc9 b73d ca36 f03d 6c35 f8bd dbba ecbd
000002b0: 40de 7b3c 0009 26bd 85c7 7f3d b3ff 943c
000002c0: 3394 e0bd dc9f cd3d 8e13 79bc 5fc3 9ebb
000002d0: e17c db3d 430b d13d 3b43 d4bd 1b35 de3d
000002e0: 1eb4 6b3d 5fde 70bb 6711 073d 98bc d4bd
000002f0: 5b2d 343d fac7 043d 52ff 78bd 7860 90bd
00000300: 50ce c93c 9c0a 683b 3362 c33d dbbf b0bd
00000310: c382 31bd 60e1 ff3d 1347 a63c b5a5 e83d
00000320: 7410 903d 4cb2 d83d 5418 2bbd 1b99 94bd
00000330: e754 54bd c837 f03c 6447 203d e90f a5bd
00000340: 71b1 f53d 330c 69bd 3d7a 33bd fd36 803d
00000350: 7e80 d83d 83df 883c a860 fe3d 7333 adbd
00000360: fed2 d73d 7fa7 233e 809d 70bd 6f2e 8bbb
00000370: 6f89 523d cafa 253d 1dde 673d 642e 133e
00000380: 000e b43d b989 363d a7b4 a33d 0974 963d
00000390: 4ad7 483c 8ac1 ba3d 9202 0f3e fe85 113e
000003a0: 326c 89bd 0cff fdbc c9e6 d5bd 1e9f b639
000003b0: 3df1 91bd 9d22 8b3d e6b5 9bbd 190d 053e
000003c0: 8c4f 083e d623 a73d 3959 dfbd 021e 57bd
000003d0: 10b5 1fbd 8ba6 723d 2944 283e 8c7e 6a3d
000003e0: 8c6a d43d b44b 8dbd e721 343d 93d4 ce3c
000003f0: d6e8 b03d 4437 b63d d920 77b9 d2f3 853c
