models saved/FCAdam_G-L_ETTh1.pth (torch, 353563 bytes, 15 tensors)

weight_ih_l0 f4 [256, 7]
-0.095556095 0.020192342 0.08530646 0.011826742 -0.08406889 -0.05234962 0.12837477 0.043760955
0.045421172 -0.0014432543 0.08952491 0.090308905 0.050234403 -0.05950909 0.06932668 0.1004268
0.025758011 -0.077955656 -0.044478483 -0.01800539 -0.019403819 0.01298933 0.083091386 -0.03749698
0.07022062 0.046012264 0.08628267 0.060450535 -0.008395571 0.0786711 0.068461716 0.06398926
0.0041288966 0.061167378 -0.10467497 -0.04653155 -0.11373912 -0.12011959 -0.088083245 0.110725954
-0.08747348 -0.14688529 -0.04167369 -0.05371557 -0.011030549 -0.06495803 0.03223991 -0.055633537
0.06170714 -0.047726028 -0.102515966 0.06987449 -0.09736608 -0.055100475 0.003996531 0.13557321
-0.1147762 0.020478124 0.024723094 0.008377618 0.024581268 0.111093275 -0.083193 0.05503393
-0.038418427 -0.0028185048 0.04608001 0.04558745 0.061079092 0.0097930385 0.009808324 -0.11721426
-0.043760516 -0.103155434 -0.10630461 -0.088654354 0.119387925 0.08243311 0.08691582 0.04896636
-0.10940585 0.1084075 -0.016619561 -0.15264758 0.04281875 0.025867872 0.048110634 -0.010880148
0.10618215 -0.046380676 0.106491774 0.03468341 0.03776582 -0.109937675 0.071466394 -0.106409684
-0.12309304 -0.0325959 -0.07414769 -0.0569442 -0.0022100909 -0.03848955 -0.020221101 0.022806695
0.015440929 0.0074948883 -0.072976224 0.037180655 0.057034116 0.026126318 -0.051783066 0.122986354
-0.032459404 -0.10709799 0.055027343 0.091767795 -0.059243612 0.036813136 0.11926969 -0.044616383
0.05979293 0.04874916 0.11885499 0.0840719 0.048665952 -0.024824664 -0.072133474 0.055997923
-0.0067787855 0.089108944 -0.083102666 0.06673762 0.021408655 0.034611795 0.04336911 -0.056296285
-0.058400806 0.07367487 -0.040923182 0.06943034 0.017639657 -0.09073272 -0.027768087 0.022417212
-0.09526134 -0.057402443 -0.052991603 0.100143105 -0.009776667 0.03858515 -0.14514413 -0.088737875
0.084634736 -0.09839415 0.03374547 0.10943543 0.11936997 0.06006208 -0.06507096 0.09460837
0.07881968 -0.11712346 0.036954746 0.020233441 -0.06837204 -0.06868642 0.07040437 0.07424147
-0.0878304 -0.06140171 0.09169529 0.07188919 -0.08955106 -0.10876332 0.08839259 0.10921172
-0.005217142 0.07088614 0.04713932 0.080890045 0.041601736 -0.080920026 -0.022446763 -0.05037956
-0.058588006 -0.07521021 -0.02106856 -0.0254037 -0.122572795 -0.031558316 0.036095813 0.0803587
-0.009599957 -0.0018192716 0.105887055 -0.087340854 0.037628584 0.003058041 -0.12115603 0.02909415
0.001467782 -0.03300882 0.040597927 0.083523884 -0.002206762 -0.007322926 -0.052164324 -0.12767275
-0.0769876 0.1693211 -0.1126734 -0.04492133 -0.051109023 0.09812909 0.080836035 0.048283458
0.12039242 -0.03793477 -0.06534544 -0.08609327 0.018749366 -0.006520181 0.053022917 -0.048153
0.14673848 -0.04586859 -0.047597498 0.03094166 0.048970435 0.096400365 -0.04618502 -0.04011744
-0.030011782 0.001726464 0.05953984 -0.110639066 0.12588635 -0.064973645 0.07929245 -0.06318392
-0.08249473 -0.030456482 -0.08755354 -0.126527 -0.04295448 -0.0911831 0.078474 0.0972478
0.07371792 0.044753127 -0.037864782 -0.1549099 -0.018554429 -0.07647107 0.10272776 -0.06949443
00000000: eab2 c3bd 696a a53c 27b5 ae3d f4c4 413c
00000010: 4f2c acbd 8e6c 56bd ad74 033e b03e 333d
00000020: 8d0b 3a3d 942b bdba d658 b73d e0f3 b83d
00000030: 97c2 4d3d cebf 73bd 25fb 8d3d 91ac cd3d
00000040: 7702 d33c 37a7 9fbd 122f 36bd 0a80 93bc
00000050: c2f4 9ebc 33d1 543c d12b aa3d 6f96 19bd
00000060: d4cf 8f3d 5b77 3c3d f8b4 b03d fb9a 773d
00000070: 948d 09bc 501e a13d a835 8c3d cd0c 833d
00000080: b24b 873b a58a 7a3d d55f d6bd de97 3ebd
00000090: 0ef0 e8bd 4201 f6bd fd64 b4bd 4ac4 e23d
000000a0: 4c25 b3bd 1969 16be 08b2 2abd dc04 5cbd
000000b0: 7ab9 34bc b708 85bd ff0d 043d fedf 63bd
000000c0: a0c0 7c3d 5e7c 43bd e4f3 d1bd 5b1a 8f3d
000000d0: de67 c7bd 09b1 61bd 55f5 823b b4d3 0a3e
000000e0: c90f ebbd bdc1 a73c 1688 ca3c 4742 093c
000000f0: a85e c93c df84 e33d 1761 aabd 426b 613d
00000100: a45c 1dbd aab6 38bb 64be 3c3d e8b9 3a3d
00000110: 122e 7a3d fb72 203c 18b3 203c 080e f0bd
00000120: 3a3e 33bd 2843 d3bd 3bb6 d9bd 6a90 b5bd
00000130: a881 f43d b1d2 a83d ec00 b23d f390 483d
00000140: 2d10 e0bd c004 de3d bf25 88bc a64f 1cbe
00000150: b762 2f3d dce8 d33c a80f 453d a642 32bc
00000160: 0776 d93d aaf9 3dbd 5c18 da3d 3110 0e3d
00000170: 55b0 1a3d 0127 e1bd f95c 923d 52ed d9bd
00000180: 3418 fcbd 4783 05bd beda 97bd 523e 69bd
00000190: 2cd7 10bb 38a7 1dbd b9a6 a5bc 1bd5 ba3c
000001a0: f3fb 7c3c ae97 f53b 8f74 95bd be4a 183d
000001b0: 9b9c 693d dc06 d63c 7b1a 54bd 45e0 fb3d
000001c0: 27f4 04bd 3156 dbbd 5a64 613d c1f0 bb3d
000001d0: 6ea9 72bd 5fc9 163d ab43 f43d abbf 36bd
000001e0: 6ee9 743d 33ad 473d 3f6a f33d e32d ac3d
000001f0: f355 473d 185d cbbc b7ba 93bd 145e 653d
00000200: 9320 debb c07e b63d bb31 aabd bcad 883d
00000210: 3461 af3c 19c5 0d3d cfa3 313d ef96 66bd
00000220: af35 6fbd dae2 963d 119f 27bd 7e31 8e3d
00000230: 0b81 903c 14d2 b9bd e679 e3bc 4da4 b73c
00000240: 6118 c3bd d31e 6bbd b90d 59bd d417 cd3d
00000250: 502e 20bc 760b 1e3d aaa0 14be 34bc b5bd
00000260: fa54 ad3d df82 c9bd b138 0a3d af1f e03d
00000270: 3e78 f43d a803 763d ec43 85bd 08c2 c13d
00000280: 366c a13d 6dde efbd dc5d 173d 9ac0 a53c
00000290: a406 8cbd 77ab 8cbd 2b30 903d e90b 983d
000002a0: 6de0 b3bd 5c80 7bbd bdca bb3d a43a 933d
000002b0: 8c66 b7bd 4ebf debd 2d07 b53d 65aa df3d
000002c0: 8ff4 aabb c12c 913d 2915 413d aea9 a53d
000002d0: 9566 2a3d 66b9 a5bd 46e2 b7bc cc5a 4ebd
000002e0: faf9 6fbd d007 9abd f997 acbc 6c1b d0bc
000002f0: 7207 fbbd 4b43 01bd 34d9 133d 1a93 a43d
00000300: 2349 1dbc a074 eeba 50db d83d c3df b2bd
00000310: 6e20 1a3d 6a69 483b a720 f8bd db56 ee3c
00000320: 9762 c03a 4234 07bd 034a 263d 920e ab3d
00000330: 539f 10bb 28f5 efbb 42aa 55bd a5bc 02be
00000340: adab 9dbd 8362 2d3e 50c1 e6bd 6eff 37bd
00000350: b257 51bd e8f7 c83d 5d8d a53d e0c4 453d
00000360: 4d90 f63d 7d61 1bbd d4d3 85bd ab51 b0bd
00000370: 4598 993c 3ea7 d5bb 8f2e 593d 153c 45bd
00000380: 9d42 163e b4e0 3bbd 98f5 42bd 5d79 fd3c
00000390: 3995 483d 8e6d c53d 812c 3dbd 2f52 24bd
000003a0: 45db f5bc 854a e23a 0ce0 733d bc96 e2bd
000003b0: 5ae8 003e e710 85bd 1464 a23d 9266 81bd
000003c0: fff2 a8bd df7f f9bc 454f b3bd 4b90 01be
000003d0: 09f1 2fbd 35be babd fab6 a03d db29 c73d
000003e0: 6cf9 963d 0e4f 373d 1a18 1bbd b3a0 1ebe
000003f0: 75ff 97bc dd9c 9cbd ef62 d23d 1953 8ebd

weight_hh_l0 f4 [256, 64]
0.01330056 -0.05955573 -0.08410654 0.12954518 -0.10375373 -0.054293208 -0.060399827 0.04751256
-0.0735389 0.09154224 -0.042129666 0.024298215 0.006944342 -0.018117892 0.13024801 -0.009981478
0.07567446 -0.098014675 -0.017768791 -0.0224372 0.0027989517 0.0549577 -0.1287202 -0.0071078786
0.10672873 0.09278022 0.013755697 -0.08859909 -0.06492282 -0.072467096 0.1296363 0.108238615
-0.09545373 -0.099320166 0.007615045 0.10504045 0.12383835 0.026454018 0.029710472 0.07420827
0.05511634 -0.11454267 0.022521932 -0.021271218 -0.09624609 0.12965278 -0.08520031 -0.106520995
0.102227695 -0.021059372 -0.093858585 -0.08615985 0.09686995 -0.09535001 -0.020567946 0.010974242
0.042500913 0.0034636445 -0.0015514274 0.07007871 0.036628425 -0.05920084 0.09529152 0.056698903
-0.036826033 -0.014471942 0.08461499 -0.10351688 -0.09684083 0.10671808 -0.09319409 -0.101608075
0.07205417 -0.1193337 0.10463878 0.080534264 -0.0423172 -0.021841865 -0.1446691 0.10312011
-0.058332663 0.12261177 -0.026760774 -0.06877226 -0.028095996 -0.08045636 0.12688914 0.0035413285
-0.11578081 -0.061683834 -0.101781346 0.048571046 0.05278294 -0.08450275 -0.13849513 0.10432866
0.07741288 0.045850467 0.052742295 -0.038431797 -0.13090232 -0.09949323 0.008761784 0.0039571486
0.05181631 0.012882501 -0.028810514 0.09906706 0.09279385 0.017119575 -0.0013334751 -0.13248271
-0.007894046 -0.047599066 0.016854146 0.05385086 -0.02406585 -0.054671694 -0.04375924 -0.09833453
0.037311967 -0.05244692 -0.10174456 0.08528821 0.026621757 -0.04572621 0.081535466 -0.10282609
-0.14089942 0.059894193 0.08447935 -0.054459855 -0.021552445 -0.07257164 -0.100708045 -0.033518683
0.051180627 0.06012859 0.0018457192 -0.050323956 -0.081062876 -0.092479795 -0.07160583 0.0991334
0.100863196 -0.14048022 -0.11461166 -0.06257123 0.0561114 -0.11318617 -0.045174703 0.1448967
-0.0065876553 -0.014357942 -0.09161518 -0.09581341 -0.09382237 -0.0966114 -0.061455246 0.11665048
-0.039522298 0.051180065 -0.06833053 0.017534094 0.06431197 -0.051901046 0.009228117 -0.032909025
0.027248744 -0.043570533 -0.017555907 0.0027514524 0.07697483 0.13861182 0.057419088 -0.044551242
0.039176334 -0.04062605 0.042903006 -0.1496381 -0.08509971 -0.08478992 0.10064851 0.076598
0.09751255 0.080488056 0.027780833 -0.09195389 -0.06465223 -0.094171114 -0.08751393 -0.08094798
-0.11517303 0.052223183 0.06461781 0.012150694 0.05808967 -0.06375635 -0.08936018 -0.047699988
-0.11220636 -0.022445064 -0.060847506 0.01484061 0.0025407798 0.02753535 -0.005252465 0.0385365
-0.046164848 0.096780695 -0.04053733 0.10450715 -0.053703394 -0.10894878 -0.073385194 0.031999808
-0.079043105 -0.08318964 -0.030508839 0.110418394 0.08172292 -0.019157726 -0.091017835 0.06252709
-0.034094695 0.11861841 -0.012654255 -0.042402335 -0.09746258 -0.11168923 -0.019378917 0.08411622
-0.01710076 0.10519993 -0.06574029 -0.08126393 0.12039535 0.028630225 0.036765877 -0.10241052
-0.096100636 0.06647251 0.02688028 0.018394956 0.051152725 -0.06890637 -0.014682668 -0.057920206
0.04247039 0.07653688 0.0841284 -0.11714398 0.104908064 -0.10292431 0.024178648 0.09898363
00000000: 98ea 593c b6f0 73bd 0d40 acbd 7ea7 043e
00000010: d67c d4bd 8e62 5ebd cf65 77bd 889c 423d
00000020: 909b 96bd 7f7a bb3d 2890 2cbd 0d0d c73c
00000030: 5d8d e33b f96b 94bc bc5f 053e 5a89 23bc
00000040: 36fb 9a3d ebbb c8bd db8f 91bc 38ce b7bc
00000050: 9e6e 373b 531b 613d 3acf 03be 35e9 e8bb
00000060: 9894 da3d 8e03 be3d 935f 613c 7173 b5bd
00000070: 41f6 84bd a169 94bd 61bf 043e 35ac dd3d
00000080: 3f7d c3bd 5f68 cbbd a187 f93b 731f d73d
00000090: f69e fd3d 19b6 d83c 6063 f33c 81fa 973d
000000a0: acc1 613d 5995 eabd ea7f b83c fa40 aebc
000000b0: ac1c c5bd b3c3 043e 807d aebd ae27 dabd
000000c0: c15c d13d b484 acbc ee38 c0bd 9374 b0bd
000000d0: c163 c63d de46 c3bd 1c7e a8bc 4fcd 333c
000000e0: 7015 2e3d 50fe 623b 4459 cbba 6d85 8f3d
000000f0: b007 163d 947c 72bd 3328 c33d 1c3d 683d
00000100: e5d6 16bd b91b 6dbc a04a ad3d a800 d4bd
00000110: 7c54 c6bd 028f da3d 8bdc bebd e517 d0bd
00000120: 2391 933d 3a65 f4bd db4c d63d 26ef a43d
00000130: cd54 2dbd b6ed b2bc 2324 14be a330 d33d
00000140: 3bee 6ebd e11b fb3d 6939 dbbc 78d8 8cbd
00000150: 9329 e6bc 4ec6 a4bd 3aef 013e a215 683b
00000160: 7d1e edbd 30a8 7cbd bd72 d0bd 6ff2 463d
00000170: ed32 583d c70f adbd abd1 0dbe 44aa d53d
00000180: a58a 9e3d b3cd 3b3d 4e08 583d a96a 1dbd
00000190: 420b 06be 1bc3 cbbd 968d 0f3c f8aa 813b
000001a0: 573d 543d 2011 533c 0704 ecbc ace3 ca3d
000001b0: b40a be3d 5a3e 8c3c 00c8 aeba 8ca9 07be
000001c0: 0756 01bc 3df7 42bd b511 8a3c b892 5c3d
000001d0: bf25 c5bc 6def 5fbd e43c 33bd 9d63 c9bd
000001e0: 6fd4 183d 95d2 56bd 745f d0bd 96ab ae3d
000001f0: df15 da3c 684b 3bbd 11fc a63d 7c96 d2bd
00000200: f047 10be 9d53 753d 8203 ad3d 4c11 5fbd
00000210: c18e b0bc 71a0 94bd 0540 cebd e34a 09bd
00000220: c7a2 513d 6549 763d 0fec f13a 7e20 4ebd
00000230: 4b04 a6bd 0c66 bdbd 14a6 92bd 7406 cb3d
00000240: 5d91 ce3d 0cda 0fbe 85b9 eabd 5825 80bd
00000250: 11d5 653d 27ce e7bd 1c09 39bd cd5f 143e
00000260: 42dd d7bb 933d 6bbc bda0 bbbd d239 c4bd
00000270: f125 c0bd 33dc c5bd 7fb8 7bbd 72e6 ee3d
00000280: 22e2 21bd 30a2 513d e0f0 8bbd a9a3 8f3c
00000290: feb5 833d 3196 54bd 8731 173c 9dcb 06bd
000002a0: c238 df3c 0477 32bd 68d1 8fbc b651 343b
000002b0: fba4 9d3d 42f0 0d3e 4730 6b3d 5d7b 36bd
000002c0: 5d77 203d 8067 26bd 10bb 2f3d bb3a 19be
000002d0: c248 aebd 56a6 adbd ce20 ce3d 6adf 9c3d
000002e0: a9b4 c73d ecd6 a43d a194 e33c 5252 bcbd
000002f0: 6368 84bd c9dc c0bd 813a b3bd 0ec8 a5bd
00000300: d6df ebbd fae7 553d 5856 843d b413 473c
00000310: 6fef 6d3d b092 82bd 7802 b7bd 1061 43bd
00000320: 73cc e5bd b6de b7bc 3c3b 79bd 0826 733c
00000330: 3683 263b d091 e13c df1c acbb 73d8 1d3d
00000340: 5a17 3dbd f534 c63d 790a 26bd d807 d63d
00000350: 17f8 5bbd 8a20 dfbd fa4a 96bd 3b12 033d
00000360: 5ae1 a1bd 545f aabd aced f9bc 0a23 e23d
00000370: 595e a73d aaf0 9cbc 8f67 babd 340e 803d
00000380: e1a6 0bbd 35ee f23d cb53 4fbc 12ae 2dbd
00000390: 769a c7bd 53bd e4bd 89c0 9ebc 2045 ac3d
000003a0: e516 8cbc 1073 d73d d8a2 86bd b46d a6bd
000003b0: d691 f63d ef89 ea3c d197 163d 9bbc d1bd
000003c0: 69d0 c4bd bd22 883d 0834 dc3c 05b1 963c
000003d0: 8585 513d c81e 8dbd 938f 70bc bd3d 6dbd
000003e0: 6ff5 2d3d 5ebf 9c3d 834b ac3d 2fe9 efbd
000003f0: 0ada d63d fbc9 d2bd 4d12 c63c eeb7 ca3d

bias_ih_l0 f4 [256]
-0.05201637 0.08740713 0.086481504 0.0015835236 -0.06793806 -0.059361856 0.038782276 0.07855368
-0.08216984 -0.11241897 0.03166539 0.046089347 0.033919808 0.070428796 0.04604159 -0.08831796
0.07990391 -0.028636672 0.0530615 -0.10761218 -0.04951813 0.09764566 0.09929423 -0.07167511
-0.030136395 -0.044804715 -0.06986899 -0.0093889255 0.016076932 -0.038287736 -0.07289886 -0.068762235
0.11838577 -0.085641496 0.12811579 0.120171994 0.09474378 -0.02718161 -0.013162299 -0.03028986
-0.04508677 0.10322213 -0.036309008 -0.06463158 0.007131247 -0.09355624 0.11628137 0.066948585
-0.016452437 -0.03171942 -0.08034812 0.106008165 0.004191169 0.06612062 0.003388528 0.055521175
-0.0312951 0.02194841 0.07864458 0.12477666 -0.0479691 0.02972383 -0.06254647 -0.043658677
-0.018325644 -0.11117046 -0.09666562 0.05417246 0.055631697 -0.039432462 -0.060035672 -0.10714864
0.12822114 -0.014124176 -0.0107376985 0.0076434207 0.08639804 -0.038254537 -0.13515347 -0.024316419
0.040907566 0.03868969 0.029094536 -0.00984812 0.03666001 -0.12320329 0.059839047 0.07303021
-0.051761348 -0.024124883 -0.04017911 0.01854789 0.0135899335 -0.10219038 0.024016589 0.07029597
-0.05640249 -0.054256998 -0.02466421 -0.12298556 0.021290326 -0.056785006 0.051770702 -0.10093604
0.08488622 -0.0071000205 -0.12232979 0.00747362 -0.013730157 0.023139589 0.010212043 0.104895264
0.017912965 0.1334762 0.028712848 -0.041440126 -0.038512208 0.0029910768 0.08425737 -0.016824184
0.05128446 -0.07028732 -0.07090497 -0.088234335 -0.043297186 -0.07893595 0.0076496666 -0.09124111
0.011800466 -0.0030634583 0.08358602 0.10337328 -0.11825455 -0.10267975 -0.101434655 0.026832456
0.08074888 0.08235468 -0.12127266 0.0556018 -0.055793207 -0.037237473 -0.101331055 -0.03539863
-0.09702432 -0.11046567 0.08918789 -0.015983298 -0.04585353 0.094699554 0.11019212 -0.053226076
-0.05278993 -0.029726267 -0.0063801096 0.045219783 -0.06251808 -0.03562099 -0.0013478551 0.040019885
-0.0820425 0.08893703 -0.0833252 -0.08193867 0.07454556 -0.106428534 0.11959946 -0.043572966
0.052611776 0.10325072 -0.09713584 0.121095665 -0.107183106 -0.033942845 -0.02156805 0.005944256
-0.11779008 -0.005901947 -0.03073034 -0.12198887 -0.017175157 -0.04596835 0.08015637 0.072812684
-0.061046906 0.0009806933 0.055006344 0.0058825626 -0.057164684 0.012935808 0.048729297 0.016653296
0.13021095 0.044999607 -0.084954284 -0.084418215 0.0760314 -0.03659994 -0.0070344075 -0.042400777
0.11465462 -0.039708257 0.09882406 0.00246425 0.10681943 0.09196744 -0.083374664 0.040132355
0.0254054 0.00045018957 -0.06332679 -0.07849324 -0.076577336 -0.031242225 -0.0834526 0.035634536
0.12878355 -0.0129453 0.10921043 -0.09786581 0.010191654 0.12079917 -0.059101894 -0.008784768
-0.002344009 0.011137738 0.16625965 -0.00029846918 0.136223 0.04036166 -0.10424983 0.06762077
0.094258785 0.024208792 0.12929045 0.08032345 -0.06556507 0.025794206 -0.037824273 0.011015602
0.11159279 0.06636711 -0.09799547 -0.007770399 0.041036643 -0.073673226 0.02462351 0.09567214
0.019643392 -0.053378258 -0.09331938 0.0056447103 0.06388857 0.06564317 -0.008971631 -0.1097992
00000000: 1e0f 55bd 8202 b33d 371d b13d 3c8e cf3a
00000010: 1c23 8bbd 6b25 73bd 2ada 1e3d c0e0 a03d
00000020: a948 a8bd eb3b e6bd 91b3 013d 2fc8 3c3d
00000030: 7fef 0a3d f93c 903d 1b96 3c3d 0ce0 b4bd
00000040: a9a4 a33d 7497 eabc 0457 593d c663 dcbd
00000050: 86d3 4abd 73fa c73d c65a cb3d 66ca 92bd
00000060: 9ae0 f6bc 2685 37bd 7917 8fbd 02d4 19bc
00000070: c5b3 833c 9ad3 1cbd ff4b 95bd 37d3 8cbd
00000080: 3d74 f23d cf64 afbd c930 033e bc1c f63d
00000090: 0709 c23d f8ab debc afa6 57bc 7122 f8bc
000000a0: e8ac 38bd 2066 d33d c1b8 14bd 905d 84bd
000000b0: 3cad e93b 6a9a bfbd ed24 ee3d 571c 893d
000000c0: 43c7 86bc 39ec 01bd 8e8d a4bd cf1a d93d
000000d0: 1356 893b 3f6a 873d 1112 5e3b 2c6a 633d
000000e0: 4a2f 00bd 27cd b33c 6910 a13d e88a ff3d
000000f0: 3f7b 44bd 647f f33c 5d18 80bd 71d3 32bd
00000100: a91f 96bc 57ad e3bd a0f8 c5bd f1e3 5d3d
00000110: 10de 633d ef83 21bd f7e7 75bd bf70 dbbd
00000120: 674c 033e 1769 67bc 2ced 2fbc a975 fa3b
00000130: 75f1 b03d cab0 1cbd ac65 0abe 3a33 c7bc
00000140: b18e 273d 1579 1e3d aa57 ee3c 025a 21bc
00000150: cf28 163d 0252 fcbd ca19 753d dd90 953d
00000160: b503 54bd 8ca1 c5bc da92 24bd bff1 973c
00000170: 50a8 5e3c 3149 d1bd 70be c43c 55f7 8f3d
00000180: 4c06 67bd 963c 5ebd 990c cabc dadf fbbd
00000190: 0d69 ae3c 6597 68bd 840d 543d 8eb7 cebd
000001a0: d4d8 ad3d 4aa7 e8bb 0a88 fabd 45e5 f43b
000001b0: 74f4 60bc 3c8f bd3c 6a50 273c 54d3 d63d
000001c0: 36be 923c fcad 083e 3537 eb3c 1fbd 29bd
000001d0: fabe 1dbd f105 443b 218f ac3d dfd2 89bc
000001e0: a70f 523d ccf2 8fbd a036 91bd 34b4 b4bd
000001f0: 6458 31bd 2ca9 a1bd 0eaa fa3b 9edc babd
00000200: be56 413c 4dc4 48bb 262f ab3d 5fb5 d33d
00000210: 712f f2bd c349 d2bd f9bc cfbd bdcf db3c
00000220: ab5f a53d 92a9 a83d cd5d f8bd b7be 633d
00000230: 6b87 64bd 5286 18bd a886 cfbd 27fe 10bd
00000240: b0b4 c6bd d33b e2bd 24a8 b63d 68ef 82bc
00000250: e9d0 3bbd d7f1 c13d 68ac e13d 9603 5abd
00000260: 413a 58bd 8084 f3bc 3d10 d1bb 6138 393d
00000270: 7b09 80bd 51e7 11bd 83aa b0ba e4eb 233d
00000280: e605 a8bd 9e24 b63d 67a6 aabd 76cf a7bd
00000290: 58ab 983d 34f7 d9bd 90f0 f43d 9179 32bd
000002a0: 727f 573d 1d75 d33d 28ef c6bd 0101 f83d
000002b0: d182 dbbd a707 0bbd 7baf b0bc 09c8 c23b
000002c0: ed3b f1bd 1f65 c1bb 32be fbbc 4dd5 f9bd
000002d0: eab2 8cbc 4f49 3cbd 0629 a43d d11e 953d
000002e0: 520c 7abd 9b8a 803a 554e 613d 83c2 c03b
000002f0: 8425 6abd b6f0 533c 5f98 473d 7e6c 883c
00000300: 0556 053e 8251 383d 83fc adbd 75e3 acbd
00000310: 5ab6 9b3d d2e9 15bd e380 e6bb 70ac 2dbd
00000320: 0bd0 ea3d 20a5 22bd 4564 ca3d 417f 213b
00000330: 25c4 da3d 6d59 bc3d 56c0 aabd d361 243d
00000340: fc1e d03c 6c07 ec39 7ab1 81bd 10c1 a0bd
00000350: 94d4 9cbd b2ef ffbc 32e9 aabd 85f5 113d
00000360: d6df 033e 8618 54bc b8a9 df3d df6d c8bd
00000370: e5fa 263c 8e65 f73d d414 72bd fded 0fbc
00000380: f29d 19bb 0f7b 363c f83f 2a3e db7b 9cb9
00000390: 0b7e 0b3e 4552 253d ef80 d5bd c27c 8a3d
000003a0: c00a c13d 8451 c63c b764 043e 9f80 a43d
000003b0: fb46 86bd 5f4e d33c a0ed 1abd c97a 343c
000003c0: c38a e43d 7beb 873d d9b1 c8bd d59e febb
000003d0: 0a16 283d fde1 96bd 3eb7 c93c c1ef c33d
000003e0: 2eeb a03c 29a3 5abd 3b1e bfbd 43f7 b83b
000003f0: 03d8 823d ed6f 863d bffd 12bc 67de e0bd

bias_hh_l0 f4 [256]
-0.0040157386 -0.022132857 -0.03676084 -0.014890359 0.052189026 -0.0017997881 0.104645744 0.14586239
-0.0723621 -0.038847927 -0.07797434 0.06333935 0.045183275 0.1026499 -0.073010705 -0.08840484
0.07312442 0.1031733 0.04608033 -0.064485945 0.07621734 0.08057143 0.120401144 -0.093686104
0.0618321 0.023403147 -0.03863894 -0.08964844 0.051826626 -0.009849361 0.06986449 0.0035833477
-0.07468004 0.10386912 0.11476891 -0.07582039 -0.014042555 0.123434074 0.10288114 0.12124567
-0.09011702 0.095460005 -0.047893308 0.022048946 0.0027168342 0.13000724 0.015934104 -0.04536172
0.06365091 0.08843969 0.043468807 -0.046989214 -0.09662465 0.06540298 -0.01908655 0.14224151
0.038056392 0.08987745 -0.045978136 -0.00086418487 0.101105794 -0.01758922 -0.06019358 -0.00013641948
-0.016698215 0.105740875 -0.026675079 0.0025064219 0.05764278 0.049604293 -0.119632825 -0.05960902
-0.009769436 0.11374995 -0.06608243 0.0008917086 0.05179831 0.06619968 -0.07395507 0.04609822
0.039455857 0.058639802 -0.081350535 0.09628115 -0.09465428 -0.07631056 -0.10460394 -0.051202904
0.019797273 0.11244772 0.12964515 0.05538528 -0.0871669 -0.023121849 0.121821955 -0.048185986
-0.045802254 -0.06239673 -0.07226755 0.07011662 -0.013286469 -0.02014764 0.07864954 0.04271565
-0.06841257 0.041253213 0.05830169 0.03223828 0.036884833 0.057268646 -0.0741726 -0.08212186
-0.052294042 0.076236345 -0.06794233 -0.084956124 -0.071412936 0.029326068 -0.0317431 -0.12408244
-0.06503329 -0.011996833 -0.008977272 0.07434504 0.08828005 -0.08519239 0.0002396706 0.057454284
-0.019756371 0.0897547 0.03985847 -0.0012890605 -0.07925526 -0.0054901694 0.086785205 0.07935106
-0.029337082 -0.050750773 -0.052535687 0.032697186 0.043116823 -0.042128775 -0.09995836 0.07180855
0.030257523 0.057515133 0.03723842 0.06941534 0.10554668 -0.117551155 0.018010411 0.099608794
-0.12163756 0.084872685 -0.023563042 0.014417025 0.092947416 -0.064072035 -0.085886516 0.029716156
0.015751278 0.09493189 0.048727497 -0.09002608 0.01961517 -0.113939166 -0.045662805 0.1202811
0.05130787 -0.021693502 -0.037595693 0.03300174 0.09901487 0.08747394 0.08531013 -0.026055608
-0.08021313 -0.108305976 -0.11774037 0.1010932 -0.04685318 0.04499181 0.03878535 -0.03426849
-0.07416378 -0.0469592 -0.0069819232 -0.044970483 -0.08878169 -0.12727186 -0.10189762 -0.07922348
0.06132479 0.13076758 -0.015243781 0.11736403 0.031097747 0.13374318 -0.042574298 -0.0010683786
0.10645308 0.109323695 -0.014316489 0.056303624 0.043084793 0.037410576 0.1352974 -0.018464455
0.11374017 0.03196237 -0.07899314 0.086567536 0.010000847 0.11979823 0.072268255 0.022874266
-0.099687144 0.075765096 -0.05035376 -0.022821765 0.094406754 0.17457981 0.10908978 -0.06483513
0.13589041 -0.104013644 0.10729615 0.003956274 -0.019672902 -0.025030984 0.07895554 0.032962512
0.059740283 -0.09812219 0.13790926 0.004456286 -0.07536366 0.009570428 0.1452188 0.10467236
-0.04412127 -0.0230379 -0.04138807 -0.099050455 0.05722035 0.15727259 0.099008806 -0.029526465
0.1259044 0.074267596 0.066236764 0.04637246 0.03543385 -0.052774414 0.044291504 0.12753269
00000000: 7596 83bb f74f b5bc 8992 16bd b1f6 73bc
00000010: 29c4 553d dee6 ebba 8250 d63d f35c 153e
00000020: 9532 94bd 011f 1fbd 03b1 9fbd 10b8 813d
00000030: 1912 393d 1c3a d23d a386 95bd 990d b5bd
00000040: 42c2 953d 864c d33d babe 3c3d 3511 84bd
00000050: d617 9c3d a202 a53d e094 f63d 80de bfbd
00000060: a843 7d3d f5b7 bf3c dd43 1ebd 9a99 b7bd
00000070: 2848 543d 375f 21bc 1d15 8f3d 99d6 6a3b
00000080: d9f1 98bd 55b9 d43d f60b eb3d b847 9bbd
00000090: bf12 66bc 01cb fc3d 59b3 d23d a64f f83d
000000a0: 468f b8bd 8980 c33d c62b 44bd fe9f b43c
000000b0: ea0c 323b 9e20 053e 3d88 823c 36cd 39bd
000000c0: 695b 823d de1f b53d 590c 323d c377 40bd
000000d0: 25e3 c5bd fff1 853d 665b 9cbc c2a7 113e
000000e0: 05e1 1b3d ab11 b83d 9253 3cbd 778a 62ba
000000f0: 8e10 cf3d 4517 90bc 8b8d 76bd d30b 0fb9
00000100: b2ca 88bc ac8e d83d b285 dabc c842 243b
00000110: d61a 6c3d df2d 4b3d 0e02 f5bd 9628 74bd
00000120: fc0f 20bc bcf5 e83d 3a56 87bd 8dc1 693a
00000130: 772a 543d b393 873d c175 97bd 7dd1 3c3d
00000140: 779c 213d 4a30 703d 1c9b a6bd 0d2f c53d
00000150: 1ada c1bd b648 9cbd 973a d6bd 23ba 51bd
00000160: e42d a23c fd4a e63d b3c1 043e addb 623d
00000170: 8f84 b2bd 086a bdbc ca7d f93d ab5e 45bd
00000180: 259b 3bbd b793 7fbd 0201 94bd 4d99 8f3d
00000190: 7daf 59bc aa0c a5bc 0313 a13d 9bf6 2e3d
000001a0: e41b 8cbd 21f9 283d c1cd 6e3d 490c 043d
000001b0: 8d14 173d 8792 6a3d cee7 97bd 812f a8bd
000001c0: 4732 56bd cd21 9c3d 5925 8bbd 7afd adbd
000001d0: f240 92bd 393d f03c 0e05 02bd ef1e febd
000001e0: 2c30 85bd 5d8e 44bc 6815 13bc 3642 983d
000001f0: 2ccc b43d 5979 aebd 1650 7b39 2f55 6b3d
00000200: 1dd8 a1bc 50d1 b73d a342 233d b1f5 a8ba
00000210: 9550 a2bd e1e6 b3bb 71bc b13d cf82 a23d
00000220: 5254 f0bc 0be0 4fbd a92f 57bd 7ced 053d
00000230: 449b 303d 398f 2cbd f8b6 ccbd 5c10 933d
00000240: a0de f73c fd94 6b3d 5087 183d a129 8e3d
00000250: dc28 d83d a9be f0bd 928a 933c b2ff cb3d
00000260: 1d1d f9bd bbd1 ad3d 4807 c1bc 6335 6c3c
00000270: 375b be3d 3338 83bd 45e5 afbd 4c6f f33c
00000280: d308 813c a76b c23d 7c96 473d 985f b8bd
00000290: feaf a03c f058 e9bd ec08 3bbd f055 f63d
000002a0: 3328 523d 92b6 b1bc f1fd 19bd d52c 073d
000002b0: 4fc8 ca3d 8925 b33d 14b7 ae3d 9272 d5bc
000002c0: c846 a4bd 86cf ddbd dd21 f1bd f409 cf3d
000002d0: 1fe9 3fbd 5549 383d 63dd 1e3d 1e5d 0cbd
000002e0: 2ee3 97bd 4a58 40bd 9ec8 e4bb f832 38bd
000002f0: 2dd3 b5bd 8e53 02be b3af d0bd eb3f a2bd
00000300: b42f 7b3d f0e7 053e 0dc1 79bc 8d5c f03d
00000310: b4c0 fe3c f9f3 083e 6362 2ebd d608 8cba
00000320: 1304 da3d 1ae5 df3d b58f 6abc a19e 663d
00000330: ae79 303d d53b 193d 678b 0a3e c542 97bc
00000340: 9bf0 e83d f9ea 023d 28c7 a1bd 524a b13d
00000350: 98da 233c c658 f53d 6101 943d d062 bb3c
00000360: c628 ccbd bb2a 9b3d bf3f 4ebd b6f4 babc
00000370: 5458 c13d 0dc5 323e 766a df3d 48c8 84bd
00000380: db26 0b3e 1b05 d5bd 15be db3d a2a3 813b
00000390: 1129 a1bc c70d cdbc 71b3 a13d b303 073d
000003a0: 3ab2 743d 49f4 c8bd 1638 0d3e 0906 923b
000003b0: 4358 9abd 49cd 1c3c 3db4 143e 765e d63d
000003c0: 81b8 34bd fab9 bcbc 8986 29bd f7da cabd
000003d0: e35f 6a3d 110c 213e 21c5 ca3d 7ce1 f1bc
000003e0: 15ed 003e 9c19 983d 24a7 873d 0cf1 3d3d
000003f0: 1623 113d fc29 58bd 026b 353d ee97 023e

weight_ih_l1 f4 [256, 64]
-0.09840003 -0.042467125 0.07404982 0.12717323 -0.09048548 -0.014735484 -0.05064413 -0.017043537
-0.028523337 0.12312058 -0.103659384 -0.12294723 -0.12229873 -0.018960327 0.0400932 -0.0288576
0.055511884 -0.12471639 -0.13746302 -0.013048685 0.004981597 -0.12159237 -0.15399915 -0.09325268
-0.0780372 0.011910915 0.03018874 0.026894106 0.06419411 -0.11764958 0.14280027 0.06867644
-0.010774819 -0.09591198 0.08501673 -0.05293992 -0.090717025 -0.0058931843 -0.08158577 -0.10630119
0.0352287 0.105527006 -0.0990548 -0.04780766 -0.111630686 0.1351138 -0.16792211 -0.07598088
0.12936789 -0.107579544 -0.14033708 0.0055210185 -0.0481 -0.020741994 -0.08039051 0.07530756
0.08696679 -0.086237475 0.015537491 -0.010061669 0.100002915 0.077634275 0.028935397 -0.013876829
-0.073969014 0.056695882 -0.09419712 0.009698013 -0.02567349 -0.072263956 0.034656197 -0.0772028
0.08821544 -0.122569524 -0.07894131 -0.06441747 -0.053863898 0.032225315 -0.043706972 0.025586998
-0.037117787 0.027974868 0.092227876 -0.04415401 -0.025644986 -0.10110874 0.036374267 0.025920823
-0.07487019 0.12784578 0.100170135 0.016769672 0.08534058 -0.06391388 -0.03792269 -0.051583026
-0.09487505 0.06303919 0.0019441507 -0.13085394 -0.043186486 0.10416217 -0.024968568 0.014870759
0.07320318 -0.033851553 -0.0047443244 -0.082714416 -0.069173045 -0.090916246 0.03350576 0.1087894
0.09321957 -0.0041860472 -0.10113084 -0.07023869 0.08021215 0.09046799 -0.021472605 -0.06115355
0.104054786 0.1435958 -0.021667812 -0.05390639 -0.084887736 0.07874481 0.0733437 -0.12080214
-0.13648671 -0.08961086 -0.027608769 0.05448425 0.08435867 0.057325862 -0.08734676 -0.07344416
-0.014071048 0.04150944 -0.026001425 -0.03316511 -0.0028852448 -0.04243307 -0.084697336 0.097137645
0.02540114 0.06551078 0.09980272 -0.080196045 -0.09472572 0.01935485 0.10541904 -0.062377922
0.08912709 0.011222228 0.02167146 -0.062209718 -0.02037916 0.094083376 0.05286616 -0.045033008
-0.02175581 0.11610181 -0.046646968 0.10004128 -0.092025 0.06420576 -0.029268494 -0.09293647
0.030266996 -0.10194674 0.029669521 0.11208423 -0.066717476 -0.054269534 0.121565565 -0.018623255
0.09902473 -0.1309047 0.07294491 -0.0575189 0.0626875 0.1228789 -0.096683964 0.031896383
0.03216729 0.0010773275 0.13042237 -0.11875429 0.022560664 -0.0026014484 -0.020860339 -0.076456204
0.022578927 0.044880055 0.14542507 -0.012880814 -0.06477978 0.03516824 0.16671553 -0.107811116
-0.042375963 0.07519108 0.13097164 -0.07532363 0.08810025 0.01531781 -0.022703702 -0.12029344
-0.06761793 -0.036007486 0.00036339674 -0.12990896 0.0977171 -0.060259312 -0.015557143 -0.009116611
-0.04627806 0.09019501 0.031632584 -0.0846748 -0.02271082 0.1594314 -0.07672024 0.14959876
-0.023683298 -0.07670737 -0.11297411 -0.053063612 -0.029441604 0.13842168 -0.0049709184 0.047700323
-0.033269983 0.042287577 -0.080981135 -0.012387432 0.08927556 -0.0055159773 -0.03628975 0.040905055
-0.02501669 -0.07282615 -0.094265625 -0.090613924 -0.054463323 0.11960102 -0.07840814 0.07044389
-0.136887 0.16093272 0.0689627 0.056833275 0.1646273 -0.16559443 0.06533877 -0.09757966
00000000: f485 c9bd 02f2 2dbd 6fa7 973d b339 023e
00000010: 7450 b9bd 196d 71bc 3870 4fbd e39e 8bbc
00000020: c6a9 e9bc a526 fc3d 5f4b d4bd c2cb fbbd
00000030: c277 fabd b052 9bbc c438 243d c666 ecbc
00000040: 6e60 633d 4f6b ffbd 1bc3 0cbe 27ca 55bc
00000050: aa3c a33b 6c05 f9bd f4b1 1dbe 43fb bebd
00000060: f8d1 9fbd 0026 433c 604e f73c 0751 dc3c
00000070: 3478 833d 43f2 f0bd 3c3a 123e 3ca6 8c3d
00000080: de88 30bc 806d c4bd 401d ae3d 88d7 58bd
00000090: d9c9 b9bd 9d1b c1bb 7116 a7bd 70b4 d9bd
000000a0: f84b 103d 8b1e d83d 3edd cabd f7d1 43bd
000000b0: a19e e4bd 465b 0a3e c6f3 2bbe dd9b 9bbd
000000c0: 0479 043e aa52 dcbd 86b4 0fbe a9e9 b43b
000000d0: 8104 45bd 1deb a9bc c8a3 a4bd da3a 9a3d
000000e0: a51b b23d 469d b0bd f690 7e3c b3d9 24bc
000000f0: 54ce cc3d b8fe 9e3d ed09 ed3c a45b 63bc
00000100: 117d 97bd f139 683d 6bea c0bd 6ae4 1e3c
00000110: 3651 d2bc 20ff 93bd a8f3 0d3d 801c 9ebd
00000120: 4caa b43d bb05 fbbd fbab a1bd 4eed 83bd
00000130: 64a0 5cbd b1fe 033d 1506 33bd d39b d13c
00000140: d208 18bd 8d2b e53c f8e1 bc3d d6da 34bd
00000150: 6f15 d2bc 1912 cfbd 2ffd 143d e857 d43c
00000160: 8b55 99bd 01ea 023e 0026 cd3d 8d60 893c
00000170: 0bc7 ae3d 48e5 82bd d354 1bbd b948 53bd
00000180: da4d c2bd b11a 813d dfd2 fe3a 93fe 05be
00000190: 50e4 30bd fa52 d53d e28a ccbc 7ca4 733c
000001a0: 8deb 953d eda7 0abd 4776 9bbb 2d66 a9bd
000001b0: 99aa 8dbd 4c32 babd 563d 093d facc de3d
000001c0: e7e9 be3d 1c2b 89bb b01d cfbd 4dd9 8fbd
000001d0: 4546 a43d 4847 b93d 51e7 afbc 257c 7abd
000001e0: ad1a d53d c70a 133e b280 b1bc f2cc 5cbd
000001f0: 9fd9 adbd f544 a13d 3935 963d 1d67 f7bd
00000200: 2cc3 0bbe e685 b7bd c92b e2bc e02a 5f3d
00000210: 3dc4 ac3d 86ce 6a3d dce2 b2bd e469 96bd
00000220: 418a 66bc cd05 2a3d f100 d5bc 23d8 07bd
00000230: 6016 3dbb 4cce 2dbd cc75 adbd 1af0 c63d
00000240: 0d16 d03c 842a 863d 5e65 cc3d d33d a4bd
00000250: 8fff c1bd 108e 9e3c f0e5 d73d fe7f 7fbd
00000260: 4488 b63d 70dd 373c 5888 b13c 9ecf 7ebd
00000270: 32f2 a6bc c9ae c03d 308a 583d 8874 38bd
00000280: 3e39 b2bc c9c6 ed3d e410 3fbd 71e2 cc3d
00000290: 9a77 bcbd 4f7e 833d 7bc4 efbc 7a55 bebd
000002a0: 7ef2 f73c 74c9 d0bd 7f0d f33c 6b8c e53d
000002b0: 2ca3 88bd bb49 5ebd 5ef7 f83d cc8f 98bc
000002c0: 7acd ca3d e20b 06be 2464 953d f098 6bbd
000002d0: 4e62 803d efa7 fb3d 3e02 c6bd c8a5 023d
000002e0: d9c1 033d 1d35 8d3a 718d 053e 7335 f3bd
000002f0: 24d1 b83c 107d 2abb 4de3 aabc 1295 9cbd
00000300: 71f7 b83c 26d4 373d 4fea 143e 0d0a 53bc
00000310: 43ab 84bd 930c 103d 7ab7 2a3e 13cc dcbd
00000320: 6b92 2dbd c8fd 993d 6e1d 063e 4643 9abd
00000330: e76d b43d 8df7 7a3c 1dfd b9bc 685c f6bd
00000340: 457b 8abd 967c 13bd 4986 be39 db06 05be
00000350: e71f c83d 78d2 76bd 63e3 7ebc d75d 15bc
00000360: 108e 3dbd 29b8 b83d 2b91 013d fb69 adbd
00000370: 0b0c babc fc41 233e 801f 9dbd 6b30 193e
00000380: 7a03 c2bc c118 9dbd f85e e7bd 3b59 59bd
00000390: 852f f1bc 6abe 0d3e 16e3 a2bb 6a61 433d
000003a0: 1b46 08bd bd35 2d3d 70d9 a5bd a8f4 4abc
000003b0: 1bd6 b63d 5fbf b4bb 90a4 14bd 0f8c 273d
000003c0: cdef ccbc e025 95bd 560e c1bd cb93 b9bd
000003d0: ef14 5fbd 61f1 f43d 7294 a0bd e344 903d
000003e0: 1b2c 0cbe 8ccb 243e 513c 8d3d 02ca 683d
000003f0: 0f94 283e 9691 29be 55d0 853d d8d7 c7bd

weight_hh_l1 f4 [256, 64]
0.03494863 -0.08410929 0.02528511 -0.124979086 -0.03394223 0.038321823 0.00649687 0.07314389
0.0655712 0.025077984 0.058245048 -0.04117116 -0.0063142767 0.10516985 -0.024112811 -0.04539405
0.016084274 0.06716981 0.02934663 -0.010096898 -0.03461225 -0.02027124 -0.12397361 0.126866
-0.08953822 -0.046843156 -0.052821822 0.0859894 0.10394135 -0.02728296 0.12502386 -0.003621372
0.011013799 0.06513884 0.024395512 0.00015773604 0.015348509 -0.05847649 -0.06829789 0.09812401
-0.12634249 -0.054996658 0.098533966 0.07935913 0.06665761 0.083166614 -0.05469476 -0.04945314
0.014838958 -0.03867937 -0.10648881 -0.0002434234 0.016870946 -0.046239022 0.02061739 -0.11074908
0.0059986142 -0.13019055 -0.08294513 0.024939077 -0.12993391 0.06576474 0.004231833 -0.09840141
-0.12369274 -0.06271749 0.0002421795 -0.08979585 -0.062032364 0.037767347 -0.01503225 0.08272
-0.11186725 0.124880075 -0.09568403 -0.06868635 -0.07653237 0.03725551 -0.07379626 0.073125765
-0.100546084 -0.025589338 0.002698277 0.026188169 -0.058040496 -0.110950805 0.0722117 -0.12208517
0.008047523 -0.033457924 0.08760608 -0.11808967 0.04992292 0.014599919 0.09992748 -0.07935176
0.07413192 0.10397945 0.10509315 -0.044128854 -0.04195989 0.0097515825 0.064192876 0.017597225
-0.022725284 -0.04498401 0.03196814 -0.13429457 -0.10266019 0.026554361 -0.108593546 0.11304159
0.040537886 -0.13078423 -0.053008556 -0.10004376 -0.07758558 0.07049363 0.14847483 0.04036881
-0.064909846 0.081862256 0.10299464 -0.01209425 0.05185487 -0.106103204 0.011923923 0.028946508
0.0928886 0.020725057 0.06137344 -0.09746585 -0.014252367 0.07179484 0.0017396824 0.06327205
-0.073816 -0.0625118 -0.017306907 -0.026301986 0.09411451 0.14888021 -0.015765939 -0.07612301
-0.095260076 -0.07901601 0.10665067 -0.13107072 -0.054880872 0.009762371 0.09556133 -0.03790649
0.03437849 -0.064016394 0.06361938 -0.005709448 0.024947781 -0.13742623 -0.036871687 0.038664974
0.0311233 -0.037780188 -0.0045556524 -0.07354831 0.09545133 -0.020590317 -0.03779684 0.069656014
-0.11264128 0.12076296 0.08617959 -0.051675916 -0.08753542 -0.022708537 -0.10878977 -0.032339092
0.10526455 0.08260422 0.066844225 -0.041916844 -0.10474711 0.024224652 0.08598989 0.035189316
-0.05239513 -0.07118404 0.11290038 0.10333904 0.09560452 0.091607474 0.07958491 0.090536185
0.07374834 0.03167561 0.0145771615 0.0871333 0.08883212 -0.06790287 -0.040436134 0.06207162
-0.106123045 0.10787993 -0.14681455 -0.1030412 0.091078326 -0.029802745 -0.07454273 -0.0013935189
-0.10297595 0.048089582 0.0085438425 -0.008323636 0.13135974 -0.07828277 -0.02702403 -0.03674561
-0.031784806 -0.012889839 -0.03680715 -0.05956456 0.12933618 0.024809942 0.07570718 -0.10462348
-0.0109032 -0.0574261 0.09289091 -0.10069066 0.02378796 0.09863233 -0.100569546 -0.10202149
0.13142253 -0.07184891 0.06404858 -0.035580393 -0.06634562 -0.09905388 -0.12493809 -0.05858486
-0.026319724 -0.006850734 -0.051407482 -0.09631284 0.06612221 -0.022160891 0.015351284 0.056301054
0.044904873 -0.13091998 0.09986137 0.063152105 0.092847236 -0.10978567 0.01486288 -0.008785772
00000000: 4b26 0f3d 7e41 acbd b822 cf3c 09f5 ffbd
00000010: 0207 0bbd 58f7 1c3d b2e3 d43b 77cc 953d
00000020: 314a 863d 5870 cd3c 5c92 6e3d 17a3 28bd
00000030: fee7 cebb 4a63 d73d 3b88 c5bc 1def 39bd
00000040: 2bc3 833c 5390 893d 5868 f03c 766d 25bc
00000050: 93c5 0dbd df0f a6bc e0e5 fdbd 29e9 013e
00000060: d05f b7bd 9cde 3fbd b25b 58bd 361b b03d
00000070: 34df d43d 8480 dfbc 4106 003e 8a54 6dbb
00000080: 3973 343c 8367 853d 19d9 c73c f265 2539
00000090: 5078 7b3c 0b85 6fbd c4df 8bbd 3ef5 c83d
000000a0: ed5f 01be 2d44 61bd 2dcc c93d 0a87 a23d
000000b0: c983 883d 4253 aa3d 9d07 60bd 608f 4abd
000000c0: 1a1f 733c 426e 1ebd ce16 dabd 793f 7fb9
000000d0: f034 8a3c 2165 3dbd cde5 a83c 6ad0 e2bd
000000e0: 0690 c43b ac50 05be 23df a9bd 094d cc3c
000000f0: 650d 05be aaaf 863d 30ab 8a3b ae86 c9bd
00000100: 9f52 fdbd 0772 80bd 91f1 7d39 e3e6 b7bd
00000110: a615 7ebd efb1 1a3d d449 76bc 1a69 a93d
00000120: a81a e5bd 20c1 ff3d fdf5 c3bd 6eab 8cbd
00000130: 01bd 9cbd 3c99 183d 7e22 97bd f6c2 953d
00000140: 1beb cdbd bba0 d1bc 93d5 303b 9288 d63c
00000150: dfbb 6dbd 2d3a e3bd bae3 933d ca07 fabd
00000160: c2d9 033c 2d0b 09bd d16a b33d ffd8 f1bd
00000170: fa7b 4c3d 8034 6f3c c7a6 cc3d 2d83 a2bd
00000180: 7ad2 973d 2ef3 d43d 143b d73d 75c0 34bd
00000190: 22de 2bbd 1ac5 1f3c 8e77 833d 0e28 903c
000001a0: 602a babc 2741 38bd 06f1 023d 8484 09be
000001b0: 813f d2bd 8888 d93c 4b66 debd 5982 e73d
000001c0: 0e0b 263d 4dec 05be 801f 59bd bee3 ccbd
000001d0: 30e5 9ebd f75e 903d c909 183e c459 253d
000001e0: 74ef 84bd 66a7 a73d dbee d23d f626 46bc
000001f0: c665 543d a34c d9bd 8f5c 433c 3a21 ed3c
00000200: 613c be3d 98c7 a93c b762 7b3d 2d9c c7bd
00000210: c382 69bc 2c09 933d 0e06 e43a c794 813d
00000220: d82c 97bd 3006 80bd 37c7 8dbc 4377 d7bc
00000230: 1cbf c03d 0e74 183e 9227 81bc 61e6 9bbd
00000240: b717 c3bd 25d3 a1bd ab6b da3d 6737 06be
00000250: c4ca 60bd 5af2 1f3c a9b5 c33d d643 1bbd
00000260: 76d0 0c3d 071b 83bd e14a 823d 5216 bbbb
00000270: 4a5f cc3c 76b9 0cbe c406 17bd 2a5f 1e3d
00000280: 4af6 fe3c 66bf 1abd 9547 95bb 7fa0 96bd
00000290: fd7b c33d 06ad a8bc dcd0 1abd d0a7 8e3d
000002a0: 79b0 e6bd 9252 f73d ed7e b03d 20aa 53bd
000002b0: c545 b3bd 4107 babc 2ccd debd ff75 04bd
000002c0: f194 d73d 672c a93d a0e5 883d ffb0 2bbd
000002d0: a785 d6bd c772 c63c 781b b03d ac22 103d
000002e0: 479c 56bd f0c8 91bd 5038 e73d 6ba3 d33d
000002f0: 4dcc c33d b39c bb3d 6afd a23d 096b b93d
00000300: 5f09 973d 49be 013d 0cd5 6e3c f272 b23d
00000310: 9ded b53d a910 8bbd 5ca0 25bd d03e 7e3d
00000320: 0a57 d9bd 27f0 dc3d 8e56 16be 4407 d3bd
00000330: 4687 ba3d e324 f4bc dca9 98bd bca6 b6ba
00000340: 0ee5 d2bd 95f9 443d 79fb 0b3c dc5f 08bc
00000350: 2b83 063e b852 a0bd 8061 ddbc 9182 16bd
00000360: c930 02bd e72f 53bc 18c3 16bd f8f9 73bd
00000370: b470 043e 383e cb3c 5e0c 9b3d d644 d6bd
00000380: 56a3 32bc a137 6bbd 973d be3d e836 cebd
00000390: f8de c23c bfff c93d 68f7 cdbd a5f0 d0bd
000003a0: a193 063e 8525 93bd e72b 833d bfbc 11bd
000003b0: 36e0 87bd c3dc cabd 8bdf ffbd aef6 6fbd
000003c0: 769c d7bc 1f7c e0bb a790 52bd ab3f c5bd
000003d0: 156b 873d c28a b5bc f483 7b3c ef9b 663d
000003e0: 2cee 373d e30f 06be 1e84 cc3d e455 813d
000003f0: b126 be3d 4fd7 e0bd 7083 733c 33f2 0fbc

bias_ih_l1 f4 [256]
0.10063719 -0.10872641 -0.057327982 -0.08428982 0.035686154 -0.08607266 -0.07930879 0.1638206
-0.06410244 0.16326143 -0.07299514 0.06318727 -0.10351325 0.07330263 0.0048910147 0.04239154
0.060111433 0.04286355 -0.10050841 0.08735213 0.1090426 -0.05546246 0.08145066 0.15312313
0.08700306 -0.08353683 0.06929161 -0.083051264 0.12680563 0.065186426 0.1087269 0.1132531
-0.0013891323 -0.09449408 0.10933739 0.10237101 -0.023962952 -0.02661512 0.057505693 -0.08513605
0.067305885 -0.064825095 0.060297064 -0.020694574 0.055107303 0.09111345 0.12304861 -0.021146363
0.042714085 -0.059560213 0.15417631 0.06050184 -0.08558822 -0.08850544 0.001480396 -0.06848937
0.1123298 -0.047058888 0.058498934 0.09296488 0.11913187 -0.020994032 -0.0959421 0.015461627
-0.008250414 -0.010932189 0.08668807 0.039923944 -0.02596176 -0.062231466 0.06492629 0.0665562
0.11513044 -0.0793459 0.009257637 0.046578012 0.09112865 0.023617331 -0.012520494 0.08407079
0.043664575 0.09531899 0.03618047 0.030543774 -0.082066625 0.056243017 0.00409864 0.13193485
-0.04706434 0.010818483 0.008457518 0.008520056 -0.056778304 -0.07753446 -0.059044145 0.09185012
-0.08029612 -0.07542278 0.11001147 -0.001162775 -0.013313764 -0.035436194 0.08696698 -0.10912197
0.031939793 0.03104018 0.00071938673 -0.09004943 -0.103834316 0.02937764 0.056382913 -0.0053848727
-0.013825702 0.10800897 0.0001474197 -0.04203593 0.09712494 -0.10242915 0.049477987 0.031792905
0.09110221 0.016048053 -0.10179436 0.0750452 -0.018075354 0.07874086 -0.0022736045 -0.0009853092
0.029042844 -0.07061204 -0.04847818 -0.06545789 0.10540445 0.0014124534 0.011845098 0.1154544
0.0046385685 0.087999955 -0.10337964 0.07967834 -0.07169368 0.016177159 -0.070217386 0.055738185
-0.06444416 -0.068558306 -0.106915586 -0.12948133 0.04943269 0.10239221 -0.007310975 -0.0015064947
-0.0731563 -0.057381365 0.062614426 -0.04871458 0.10252229 -0.058736812 0.066782236 -0.035373695
0.0740271 0.03956252 0.08698724 0.014052889 0.018435096 -0.017502757 -0.10344328 -0.046168063
-0.071179956 -0.04544171 0.114143685 -0.054644343 0.08215249 0.10464504 -0.049409803 -0.029790433
-0.0027492235 -0.08555429 0.059537496 -0.059787065 0.024575956 -0.07644539 0.072693266 -0.044121917
-0.07348414 -0.04083147 0.09682309 -0.05148296 0.089161165 -0.077075474 -0.09343686 -0.0052953893
-0.02785703 -0.077568054 0.1456848 0.08679546 -0.017544823 -0.085386805 0.073343106 0.1628434
0.094936185 0.21945329 0.07334149 -0.04992836 0.056935024 -0.032612845 -0.07788115 -0.03997191
-0.07349761 0.09489116 -0.03820985 0.14348623 0.04728743 -0.04664003 0.022027088 0.15167512
0.06761205 -0.06950042 -0.09553899 0.13068612 -0.025994908 -0.039663203 0.08141002 0.108733624
0.06845447 0.00049261 0.065705776 0.08495469 0.022280965 0.14991502 0.12572955 0.13413842
0.12496903 0.09731522 0.14136443 -0.034751166 0.07249663 0.07662533 0.079610586 -0.0457597
-0.032260735 0.11081237 -0.057337776 0.033600118 0.0071942112 0.007923658 0.094008595 -0.06525686
-0.0020543695 0.0046690297 0.13063744 0.07853075 0.10703578 0.059242297 0.050346013 -0.0625139
00000000: df1a ce3d f4ab debd bfd0 6abd 24a0 acbd
00000010: a52b 123d dd46 b0bd a66c a2bd 96c0 273e
00000020: 2448 83bd 012e 273e 7a7e 95bd 5468 813d
00000030: c1fe d3bd b01f 963d ce44 a03b c0a2 2d3d
00000040: 6837 763d b191 2f3d 5ad7 cdbd ace5 b23d
00000050: ba51 df3d 9b2c 63bd 9bcf a63d 4fcc 1c3e
00000060: a92e b23d 5c15 abbd c2e8 8d3d c816 aabd
00000070: 56d9 013e 7680 853d 35ac de3d 3ef1 e73d
00000080: 8c13 b6ba 1d86 c1bd 48ec df3d e4a7 d13d
00000090: f44d c4bc f407 dabc 178b 6b3d cf5b aebd
000000a0: abd7 893d 05c3 84bd 0efa 763d ab87 a9bc
000000b0: 32b8 613d b099 ba3d e900 fc3d 233b adbc
000000c0: f7f4 2e3d 69f5 73bd 65e0 1d3e c7d0 773d
000000d0: e048 afbd 5742 b5bd d909 c23a 2844 8cbd
000000e0: 2b0d e63d d2c0 40bd 949c 6f3d 5f64 be3d
000000f0: 69fb f33d adfb abbc 4b7d c4bd c452 7d3c
00000100: bf2c 07bc ed1c 33bc 8489 b13d 4a87 233d
00000110: c2ad d4bc 6ce6 7ebd 13f8 843d 9e4e 883d
00000120: 82c9 eb3d 1a80 a2bd 58ad 173c 96c8 3e3d
00000130: a8a1 ba3d 2279 c13c c222 4dbc 4e2d ac3d
00000140: a0d9 323d 9a36 c33d f931 143d f036 fa3c
00000150: 8c12 a8bd 145f 663d e24d 863b ee19 073e
00000160: 8ac6 40bd 0240 313c 6791 0a3c b497 0b3c
00000170: 5e90 68bd 63ca 9ebd 46d8 71bd ea1b bc3d
00000180: 4b72 a4bd 4277 9abd b24d e13d 4168 98ba
00000190: f921 5abc 8b25 11bd be1b b23d 577b dfbd
000001a0: 4dd3 023d fa47 fe3c 3a95 3c3a d66b b8bd
000001b0: 16a7 d4bd 60a9 f03c c5f1 663d 9673 b0bb
000001c0: 3285 62bc cf33 dd3d ad94 1a39 de2d 2cbd
000001d0: 71e9 c63d 60c6 d1bd 6ea9 4a3d 4739 023d
000001e0: cc93 ba3d 3577 833c 9079 d0bd 4cb1 993d
000001f0: c412 94bc e342 a13d c100 15bb 7e25 81ba
00000200: 42eb ed3c 0c9d 90bd 0e91 46bd c90e 86bd
00000210: 4ade d73d 1222 b93a f111 423c 5b73 ec3d
00000220: 22ff 973b 5239 b43d b4b8 d3bd 662e a33d
00000230: 23d4 92bd f685 843c 22ce 8fbd b94d 643d
00000240: 4dfb 83bd 4c68 8cbd 8ff6 dabd c196 04be
00000250: ef79 4a3d 02b3 d13d e790 efbb 9375 c5ba
00000260: f8d2 95bd b908 6bbd fe3b 803d f088 47bd
00000270: 35f7 d13d 0396 70bd 20c5 883d 02e4 10bd
00000280: 859b 973d 4f0c 223d 5e26 b23d 173e 663c
00000290: 3305 973c f161 8fbc 12da d3bd b91a 3dbd
000002a0: ccc6 91bd 1621 3abd 2ac4 e93d bfd2 5fbd
000002b0: 913f a83d 2450 d63d ef61 4abd 110b f4bc
000002c0: 512c 34bb 1637 afbd 97dd 733d 48e3 74bd
000002d0: 8453 c93c 678f 9cbd 35e0 943d 2fb9 34bd
000002e0: da7e 96bd e63e 27bd 2f4b c63d ccdf 52bd
000002f0: 219a b63d bfd9 9dbd d35b bfbd f284 adbb
00000300: 6d34 e4bc 00dc 9ebd 652e 153e d1c1 b13d
00000310: 29ba 8fbc 47df aebd e934 963d 6cc0 263e
00000320: e76d c23d 5db8 603e 1034 963d ae81 4cbd
00000330: b334 693d 0c95 05bd 2780 9fbd 96b9 23bd
00000340: ea85 96bd 4c56 c23d ef81 1cbd 0eee 123e
00000350: 77b0 413d 9e09 3fbd 2772 b43c b950 1b3e
00000360: 3078 8a3d 3c56 8ebd f2a9 c3bd 95d2 053e
00000370: 46f3 d4bc e275 22bd 4cba a63d bcaf de3d
00000380: db31 8c3d 7f22 013a c090 863d b9fc ad3d
00000390: 9286 b63c 5383 193e 3fbf 003e 955b 093e
000003a0: c3ef ff3d 344d c73d d6c1 103e 3d57 0ebd
000003b0: 1d79 943d beed 9c3d e00a a33d 866e 3bbd
000003c0: d523 04bd 99f1 e23d 04db 6abd 47a0 093d
000003d0: 6bbd eb3b 3bd2 013c 9487 c03d 63a5 85bd
000003e0: 9aa2 06bb a9fe 983b d2c5 053e bbd4 a03d
000003f0: 9335 db3d 0da8 723d 9f37 4e3d 4a07 80bd
