models saved/FCAdam_G_L_DJIA.pth (torch, 351259 bytes, 15 tensors)

weight_ih_l0 f4 [256, 5]
0	0xbdd7f268	-0.10544282
1	0xbd928f31	-0.07156218
2	0xbdb4512b	-0.08804544
3	0x3da3adb1	0.079921134
4	0xbd072d1c	-0.033002004
5	0xbdbd7793	-0.092513226
6	0x3d28058b	0.04102091
7	0xbe0b84c6	-0.13624868
8	0x3d6cf660	0.05785215
9	0xbe20a096	-0.15686259
10	0x3cf316fa	0.029674042
11	0xbd2f96da	-0.042868473
12	0x3c481871	0.012212859
13	0xbcd066aa	-0.025439579
14	0x3d0bda0d	0.034143496
15	0xbc85ec86	-0.016348135
16	0xbd5e7259	-0.05430827
17	0x3c99a85d	0.01875704
18	0xbd124462	-0.035709746
19	0xbceeedab	-0.029166063
20	0x3d05bd8d	0.032651473
21	0x3df1d59d	0.118083216
22	0x3d5f5be0	0.05453098
23	0xbd54268b	-0.05179457
24	0x3e10586d	0.14096232
25	0x3d688fbe	0.05677771
26	0x3d47f3fc	0.048816666
27	0x3d95ba52	0.073109284
28	0x3dc2fbb2	0.09520663
29	0x3dd616b2	0.104535475
30	0x3d617c84	0.055050388
31	0xbdee9c15	-0.11650864
32	0xbd8cfab5	-0.06883756
33	0xbda12fb0	-0.07870424
34	0x3d1147e3	0.035468947
35	0x3d9e0b7b	0.077170335
36	0x3e031920	0.12802553
37	0x3db5eb8b	0.08882817
38	0xbd5dc44a	-0.054142274
39	0x3d5ef772	0.0544352
40	0xbccaaf63	-0.024741834
41	0xbd99711e	-0.074922785
42	0x3db21e74	0.08697215
43	0x3dd329d9	0.10310716
44	0xbc1c11e1	-0.009525747
45	0x3ddb2bc9	0.10701711
46	0x3da483be	0.0803294
47	0xbde79622	-0.113079324
48	0x3df66cd3	0.12032475
49	0x3daac518	0.08338374
50	0xbdd07687	-0.10178857
51	0x3daaf0ca	0.08346708
52	0x39cfeedb	0.00039660078
53	0x3db1f6e7	0.08689671
54	0x3c83827a	0.016053427
55	0xbdb85e06	-0.090023085
56	0x3dcec97b	0.10097023
57	0x3e0566b2	0.13027456
58	0x3dd331f5	0.10312263
59	0x3d8d06da	0.068860725
60	0x3dbfc885	0.09364418
61	0x3dcbf751	0.09959281
62	0xbb99bc42	-0.0046916315
63	0x3dcaaab4	0.0989584
64	0x3b5229ea	0.003206844
65	0xbc050b97	-0.008120439
66	0xbd95a4a3	-0.073067926
67	0xbd936f47	-0.07198959
68	0xbd987290	-0.07443726
69	0x3daa06b9	0.083020635
70	0x3cb9aaa6	0.02266438
71	0x3dcc08c3	0.09962609
72	0x3d88f7c2	0.06687881
73	0xbceae205	-0.028672228
74	0x3da342b6	0.079717085
75	0x3dd654e9	0.10465414
76	0x3d6d8112	0.05798442
77	0x3cb0934e	0.021554615
78	0x3dd4cf75	0.10391132
79	0x3cd435e4	0.025904603
80	0x3da7d78a	0.08195408
81	0xbcffba77	-0.031216843
82	0x3e0d3ecd	0.13793488
83	0x3d9c7b61	0.0764072
84	0x3c6e957f	0.01456201
85	0x3de06fed	0.10958848
86	0xbc5c5762	-0.013448568
87	0x3ced7ce2	0.028990213
88	0xbd382a3b	-0.04496215
89	0x3e1c0292	0.15235355
90	0x3cde5abb	0.027142873
91	0xbcebce86	-0.028785001
92	0xbdac8b5e	-0.0842502
93	0x3dbd3fe9	0.092407055
94	0x3d353d06	0.04424765
95	0x3d49b877	0.049248185
96	0x3d29dad7	0.041468468
97	0x3da7a667	0.081860356
98	0xbdcb2e45	-0.099209346
99	0xbded5332	-0.11588134
100	0x3cb14db8	0.021643505
101	0x3cdcb070	0.0269396
102	0x3d0f65b4	0.0350091
103	0xbc8ccf56	-0.01718871
104	0x3d94595c	0.072436064
105	0xbcbbcbeb	-0.022924384
106	0xbc3d0e20	-0.011539012
107	0xbc987010	-0.018608123
108	0x3df8095f	0.121111624
109	0x3c91fc0a	0.017820377
110	0xbd21cf2b	-0.03950421
111	0x3a810c0d	0.000984551
112	0x3cb04f71	0.021522256
113	0x3bf356ce	0.0074261194
114	0x3c4e6200	0.012596607
115	0x3dddd6a3	0.10831954
116	0xbdd1f63d	-0.10252044
117	0x3d883f78	0.06652731
118	0x3d0e4356	0.034732185
119	0xbd4d9d18	-0.050198644
120	0xbc16a5cc	-0.0091948025
121	0x3e05f125	0.1308027
122	0x3db2990e	0.08720599
123	0x3d4b7081	0.04966784
124	0x3d688a41	0.056772474
125	0x3d15facd	0.036616135
126	0xbd88bfa2	-0.06677176
127	0x3ddb7279	0.10715193
128	0xbd6dd37c	-0.058063015
129	0x3dff4584	0.12464431
130	0xbdd0c225	-0.1019328
131	0xbd0f365a	-0.034963943
132	0x3de8acc6	0.11361079
133	0x3d87a619	0.066234775
134	0x3c8a601f	0.016891537
135	0x3dc43183	0.09579756
136	0xbd2d709d	-0.042343725
137	0x3d5c0b56	0.05372175
138	0xbc07e9ac	-0.008295458
139	0xbd902b10	-0.070394635
140	0xbd7993d5	-0.060932
141	0x3df93879	0.121689744
142	0xbd9ec913	-0.077531956
143	0x3c5a9755	0.013341744
144	0x3d1a35f7	0.03764912
145	0xbcd513ca	-0.026010413
146	0x3d4f0152	0.05053837
147	0xbdbc7872	-0.092026606
148	0x3dcd0414	0.100105435
149	0x3ddf7dad	0.10912643
150	0xbce9359c	-0.028467946
151	0xbd779fa2	-0.060454972
152	0xbdc54fdc	-0.096343726
153	0xbdc589ad	-0.096454
154	0xbde797bd	-0.11308239
155	0x3d61ca3e	0.055124514
156	0x3d69adef	0.05705064
157	0xbdfd46e4	-0.12367037
158	0x3db800f3	0.08984556
159	0xbe037c57	-0.128404
160	0xbe171bb0	-0.14756656
161	0xbd99860a	-0.07496269
162	0xbdc56ce4	-0.0963991
163	0xbbb50252	-0.0055239582
164	0xbe0fff7d	-0.14062305
165	0xbda6f281	-0.08151723
166	0xbc7e9026	-0.015537297
167	0xbdc721e6	-0.097232625
168	0x3dc13340	0.09433603
169	0x3d881a59	0.066456504
170	0xbd105e62	-0.03524626
171	0xbdc0c53c	-0.094126195
172	0x3dce38dc	0.10069439
173	0xbdc396c9	-0.09550244
174	0x3d3f557b	0.04671238
175	0x3d9c21f5	0.07623664
176	0xbd8e777a	-0.06956382
177	0x3dfba042	0.12286426
178	0xbdd28b84	-0.10280517
179	0xbce650b4	-0.028114654
180	0x3e0892ca	0.13337246
181	0xbdb50648	-0.08839089
182	0x3de82c10	0.11336529
183	0x3ddb567f	0.10709857
184	0xbde8b6ac	-0.11362967
185	0xbcdca9ff	-0.02693653
186	0x3db86654	0.090038925
187	0x3d9ed74c	0.07755908
188	0x3dc04446	0.09388022
189	0x3cdfa04a	0.027298111
190	0x3d2697ad	0.040671993
191	0x3cd571e3	0.026055282
192	0x3d5a95d9	0.053365562
193	0x3ce03173	0.02736733
194	0xbd97ebb3	-0.07418003
195	0x3d81e952	0.063433304
196	0xbc9111c3	-0.017708665
197	0xbd87c746	-0.06629805
198	0xbdab4f0b	-0.083646856
199	0x3d7c6acf	0.061625298
200	0x3db60187	0.0888701
201	0x3d9331da	0.07187243
202	0x3deab9af	0.114611976
203	0x3d1261cb	0.035737794
204	0x3d9131b1	0.07089556
205	0x3d88661f	0.06660103
206	0xbd9924d4	-0.074777275
207	0x3da63ae0	0.08116698
208	0xbdab801d	-0.08374045
209	0x3c709c2a	0.01468567
210	0xbd1ce7d7	-0.038307037
211	0x3da18c5c	0.078880996
212	0x3c6c1806	0.0144100245
213	0xbc6ccfb9	-0.014453822
214	0xbded4882	-0.115860954
215	0x3da3a37d	0.07990167
216	0xbe076193	-0.13220815
217	0xbd5d3886	-0.054008983
218	0x3c3b872c	0.011445802
219	0xbdfee6b9	-0.124463506
220	0xbdd215df	-0.10258078
221	0x3cee9e8f	0.029128341
222	0xbae8c81d	-0.0017759834
223	0xbd3a0b5c	-0.04542099
224	0x3d499e1e	0.049223058
225	0x3debf4c6	0.11521296
226	0x3db2d665	0.08732299
227	0xbbe366e4	-0.0069397558
228	0x3aedefca	0.0018153128
229	0x3dcdc795	0.10047833
230	0x3c459ec6	0.01206178
231	0xbd730c00	-0.059337616
232	0x3d09efcd	0.033675957
233	0xbe01dfc9	-0.12683024
234	0xbd058252	-0.032594986
235	0x3dc751b1	0.09732378
236	0x3d7c22ca	0.061556615
237	0xbcd01e5f	-0.025405107
238	0x3c45f7d0	0.012083009
239	0x3d0062e4	0.03134431
240	0x3aba8e70	0.0014233124
241	0x3d22240c	0.03958516
242	0x3d4c38f8	0.049859017
243	0xbd6a1d90	-0.0571571
244	0xbd926b40	-0.071493626
245	0xbd9d5279	-0.07681746
246	0xbd854699	-0.06507606
247	0xbd86190a	-0.065477446
248	0x3d4f2d3a	0.05058024
249	0x3da22ea9	0.07919056
250	0x3e163297	0.14667736
251	0xbadbd400	-0.0016771555
252	0x3e110a88	0.14164174
253	0x3e1a8f7f	0.15093802
254	0x3dd84b3e	0.10561226
255	0xbd4d6190	-0.05014187

weight_hh_l0 f4 [256, 64]
0	0x3da8829c	0.08228037
1	0xbd888521	-0.06666017
2	0xbcc3846d	-0.023866856
3	0xbe067ec2	-0.13134292
4	0x3c73fc32	0.014891671
5	0x3dc06900	0.09395027
6	0xbd6be4ca	-0.057591237
7	0xbd84373e	-0.06455849
8	0xbd80851d	-0.06275389
9	0xbda1e962	-0.07905842
10	0xbdc2193e	-0.09477471
11	0x3c7fa55e	0.015603391
12	0x3e0edd47	0.13951598
13	0x3bf09013	0.0073413937
14	0xbc2a47be	-0.010393081
15	0x3dccde28	0.100033104
16	0xbcea1d2e	-0.028578367
17	0x3d9186fa	0.07105823
18	0xbd9904af	-0.074715964
19	0xbdee8db4	-0.116481215
20	0xbd8c1143	-0.0683923
21	0x3ca1d1b6	0.019753318
22	0xbd049a5b	-0.032373767
23	0xbba05786	-0.004893246
24	0x3ddd0b9e	0.107932314
25	0x3da8677b	0.08222862
26	0xbcb63549	-0.022242205
27	0x3cc80ef2	0.024421189
28	0x3d8e4ecf	0.06948625
29	0x3cee56f4	0.029094197
30	0xbccf9af9	-0.025342451
31	0x3e065d64	0.13121563
32	0xbde14c5a	-0.11000891
33	0xbdbac659	-0.09119863
34	0xbd860c95	-0.065453686
35	0x3d784b2c	0.060618564
36	0x3da42ef2	0.080167666
37	0x3ced7460	0.028986156
38	0x3d2dc4cb	0.042424005
39	0xbd665a30	-0.056238353
40	0x3ca1c07c	0.019745104
41	0x3dcb97d8	0.09941071
42	0xbd1a6854	-0.03769715
43	0x3dd33c0a	0.10314186
44	0xbdebdffc	-0.11517331
45	0xbd5e01e2	-0.054201014
46	0x3d338df5	0.043836553
47	0x3dcbc805	0.0995026
48	0xbc92f992	-0.01794127
49	0x3df9c26e	0.12195288
50	0xbdbd21ab	-0.09234937
51	0xbde050d6	-0.10952918
52	0x3d25884f	0.040413197
53	0x3d1fea43	0.03904177
54	0x3d291501	0.041279797
55	0x3db40b32	0.08791198
56	0x3dbaad46	0.091150805
57	0xbc6a6fee	-0.014308913
58	0xbda396bc	-0.07987735
59	0xbdef583f	-0.116867535
60	0xbdb1b0bc	-0.086762875
61	0xbdac758b	-0.08420857
62	0xbd95a377	-0.07306569
63	0xbbdb93ef	-0.0067009847
64	0x3e0a34c2	0.13496688
65	0x3da7896c	0.08180508
66	0x3dd45229	0.10367233
67	0xbd96de6b	-0.073666416
68	0xbc3115bb	-0.010808404
69	0x3d2d804f	0.042358693
70	0xbcff41c4	-0.03115929
71	0xbd6b237b	-0.057406884
72	0x3dc3563b	0.095379315
73	0x3dd01f3e	0.10162209
74	0xbe04a656	-0.12954077
75	0xbd819ab1	-0.06328333
76	0x3d8bb176	0.06820957
77	0x3dd33136	0.103121206
78	0x3dc1ad96	0.09456937
79	0x3d3333a3	0.043750416
80	0xbdeb6287	-0.11493402
81	0xbd63fcd7	-0.05566105
82	0xbdba1686	-0.09086327
83	0x3d765877	0.06014296
84	0x3e0f85a0	0.14015818
85	0x3d25b6f0	0.040457666
86	0x3d76a644	0.060217157
87	0x3d88c143	0.06677487
88	0xbdd97cd2	-0.10619511
89	0x3d89e479	0.06733031
90	0x3d7b1b30	0.061305225
91	0xbd6d23e7	-0.057895567
92	0xbd7efee6	-0.06225481
93	0x3e017540	0.12642384
94	0x3d5ee1d7	0.054414596
95	0x3d974be9	0.073875256
96	0x3d9d3f4b	0.07678088
97	0xbd9a2d7f	-0.07528209
98	0xbdcfbe66	-0.101437375
99	0x3d2c3221	0.042039994
100	0xbd47edda	-0.048810817
101	0x3d3177f1	0.043327276
102	0xbd577ecf	-0.05261117
103	0xbdcc7be0	-0.09984565
104	0xbd3ff752	-0.046866722
105	0x3e073695	0.13204415
106	0xbc2cf66b	-0.0105567975
107	0x3c4d76f2	0.012540566
108	0x3b2d698d	0.0026460618
109	0xbd676f2a	-0.0565025
110	0xbd3dce95	-0.04633959
111	0xbc82f58e	-0.01598623
112	0x3da0bcf4	0.0784854
113	0x3d082104	0.03323461
114	0xba28a845	-0.00064337655
115	0x3a11b6bd	0.0005558541
116	0x3c5a61d2	0.013328986
117	0xbc1da369	-0.00962148
118	0x3de6d38b	0.11270817
119	0xbdf80fdd	-0.12112401
120	0x3d0c55e6	0.034261607
121	0xbd3fff83	-0.046874534
122	0x3dd6dac9	0.10490949
123	0xbdfdf726	-0.124006554
124	0x3c4201cb	0.011841248
125	0xbd702aa6	-0.058634423
126	0xbdc2db2e	-0.095144615
127	0x3d01669e	0.031592004
128	0x3b9c032a	0.0047611194
129	0x3d5ce89c	0.05393277
130	0xbe056715	-0.13027604
131	0x3dc65766	0.09684639
132	0x3d41424b	0.047182363
133	0xbd9b5361	-0.07584263
134	0x3c291ab4	0.010321308
135	0x3de8b439	0.113625
136	0xbd2d5701	-0.0423193
137	0xbbdd4844	-0.0067529995
138	0xbceb6ec4	-0.02873934
139	0x3d3d1a6d	0.04616778
140	0x3cd92a0c	0.026509307
141	0xbd42f7bd	-0.047599543
142	0xbd4139b8	-0.047174186
143	0xbd8eb1fd	-0.06967542
144	0xbd578a04	-0.052621856
145	0xbde392fc	-0.111120194
146	0xbda95167	-0.082674794
147	0xbde10f3e	-0.10989235
148	0x3cb51d6b	0.022108754
149	0xbd49b160	-0.049241424
150	0xbd387993	-0.045037817
151	0x3d5f3612	0.054494925
152	0x3b4e6c38	0.003149761
153	0x3de21f91	0.11041177
154	0x3d11698b	0.035501044
155	0xbd60730a	-0.05479721
156	0x3bd11a4f	0.00638131
157	0x3d9a5b8d	0.07536993
158	0x3b701761	0.0036635029
159	0x3bf917e9	0.0076017273
160	0x3d779bdb	0.06045137
161	0x3d7d81fc	0.06189154
162	0xbd47ce77	-0.048780885
163	0x3dcde0ad	0.10052619
164	0xbd60d7b6	-0.054893218
165	0xbde8d068	-0.11367875
166	0xbde01ce5	-0.10943011
167	0xbdc93086	-0.09823708
168	0x3d9731d7	0.07382553
169	0x3dacb6ca	0.08433302
170	0x3d0348ab	0.032051723
171	0x3d977224	0.073948175
172	0xbd294d91	-0.04133374
173	0x3d2663ec	0.040622637
174	0xbc6c8ab9	-0.014437371
175	0xbca1402a	-0.019683916
176	0xbdc9ddba	-0.09856744
177	0xbd9f3bea	-0.077750996
178	0xbdbc8121	-0.09204317
179	0xbc93f4f2	-0.018061135
180	0xbddddee8	-0.108335316
181	0x3dacb43b	0.08432814
182	0xbdd441a0	-0.103640795
183	0xbd426fdd	-0.047469962
184	0x3da19c79	0.07891173
185	0xbdba8451	-0.091072686
186	0x3dd0d833	0.10197487
187	0xbd868b8f	-0.065695874
188	0xbcf7495a	-0.030186344
189	0xbd53f3ec	-0.051746294
190	0x3ddf702c	0.10910067
191	0xbdc1d39e	-0.09464191
192	0xbd2fd4bf	-0.0429275
193	0x3d37c288	0.044863254
194	0x3dada5b6	0.084788725
195	0x3db50b91	0.08840097
196	0xbd8badfe	-0.06820296
197	0x3c7adc8f	0.015311374
198	0xbcacb023	-0.021080082
199	0xbddfb8a4	-0.10923889
200	0x3ddb90d4	0.10720983
201	0x3d5ec002	0.05438233
202	0x3cc1e35c	0.023667984
203	0xbdd64b4e	-0.10463582
204	0x3cfb2ed7	0.030661983
205	0xbdf25394	-0.118323475
206	0x3db0622b	0.08612474
207	0xbdebcda5	-0.11513833
208	0x3cc61189	0.024178283
209	0xbda80c59	-0.0820548
210	0xbd1259ee	-0.035730295
211	0xbdca231b	-0.09869977
212	0xbd89a91b	-0.067217074
213	0xbd295564	-0.0413412
214	0x3c32ebab	0.010920445
215	0x3d9bd811	0.07609571
216	0x3dcd4abc	0.1002402
217	0xbdbbb4c0	-0.09165335
218	0xbdd3085e	-0.1030433
219	0x3d4a1b61	0.049342517
220	0x3dce6914	0.10078636
221	0xbdc290d1	-0.09500278
222	0x3dad7c79	0.08471007
223	0x3c81d6a3	0.015849417
224	0x3d160a19	0.036630724
225	0xbdd120aa	-0.10211308
226	0x3d8e9cff	0.069635384
227	0x3dba1698	0.09086341
228	0xbcb7a072	-0.022415373
229	0xbbbd9608	-0.0057857074
230	0xbd32c6ba	-0.04364655
231	0x3cd031c9	0.025414364
232	0xbbf75d75	-0.0075489827
233	0x3caa208a	0.020767469
234	0xbd608d6d	-0.054822374
235	0x3ded9032	0.11599769
236	0xbd60af27	-0.05485454
237	0xbdf02820	-0.11726403
238	0xbd5e1ef7	-0.05422875
239	0x3d6f10de	0.058365695
240	0x3d8cc160	0.06872821
241	0xbdd8c787	-0.10584932
242	0xbb6e4575	-0.0036357318
243	0xbd0f1d7a	-0.03494022
244	0x3d92f829	0.07176239
245	0xbd0073e8	-0.031360537
246	0xbd56a6ca	-0.052405156
247	0xbd02f73e	-0.03197407
248	0xbdc7d571	-0.097575076
249	0xbd71c654	-0.05902703
250	0x3c0e3181	0.008678795
251	0x3cfb6780	0.030689001
252	0xbe09e84b	-0.13467519
253	0x3de55317	0.11197489
254	0xbd5b02ad	-0.05346935
255	0xbd666a47	-0.056253698

bias_ih_l0 f4 [256]
0	0x3e09bd7f	0.13451193
1	0x3cd92ca3	0.026510542
2	0x3cb5cc45	0.02219213
3	0xbcf174a3	-0.029474562
4	0xbdce5dc5	-0.10076479
5	0xbd464ed6	-0.048415028
6	0xbdab844f	-0.08374845
7	0x3dc5ed68	0.09664422
8	0xbdb40ef3	-0.08791914
9	0xbd28f4fe	-0.041249268
10	0x3db4a2a4	0.08820084
11	0xbcad2b07	-0.021138681
12	0x3dc9ff0e	0.09863101
13	0x3dcac261	0.09900356
14	0xbd328c9d	-0.04359113
15	0x3dd0fd42	0.10204555
16	0x3dcd090f	0.100114934
17	0x3cdeebc2	0.027212027
18	0xbd59b1c0	-0.05314803
19	0xbd333038	-0.043747157
20	0x3e04f5cd	0.1298439
21	0xbda852d0	-0.0821892
22	0x3c87072e	0.016482916
23	0xbdb920e6	-0.09039478
24	0xbd13e1c8	-0.036103994
25	0x3b840a64	0.004029559
26	0x3e06a285	0.13147934
27	0x3c188b41	0.0093105445
28	0x3dce1242	0.10062076
29	0xbdff6630	-0.124706626
30	0x3dffcbac	0.12490019
31	0x3ccfb872	0.025356505
32	0x3d9f0fae	0.077666625
33	0x3dfccf62	0.12344243
34	0x3df5c679	0.12000746
35	0xbae42bdc	-0.0017408091
36	0x3d84482d	0.06459079
37	0x3df65351	0.1202761
38	0x3dc912c5	0.09818033
39	0xbdbb89aa	-0.09157117
40	0xbdae3b29	-0.08507378
41	0x3d697949	0.057000432
42	0x3dc6a921	0.097002275
43	0x3dbf481a	0.09339924
44	0xbd215830	-0.039390743
45	0xbd2852b4	-0.041094497
46	0x3de307ab	0.11085447
47	0xbd504134	-0.050843433
48	0xbb7f848d	-0.0038988919
49	0x3d825e94	0.063656956
50	0x3d928428	0.07154113
51	0xbde1e060	-0.11029124
52	0xbc2038a8	-0.009779133
53	0x3d3c602c	0.045990154
54	0x3c240a5d	0.010012236
55	0x3e071c37	0.13194357
56	0x3d768e8f	0.06019455
57	0xbd7f1dff	-0.062284466
58	0x3e0d5c3e	0.13804719
59	0x3bcc513d	0.0062352703
60	0x3bacbd5e	0.0052715978
61	0x3d3dff83	0.046386253
62	0xbd3b2e93	-0.045698714
63	0x3d428783	0.047492515
64	0xbb48efbc	-0.003066047
65	0xbda92fc2	-0.08261062
66	0x3df7a6f9	0.120923944
67	0x3cfba8ac	0.030720077
68	0x3cb47ff6	0.022033673
69	0xbc9ca118	-0.019119784
70	0xbdd98991	-0.10621942
71	0xbbeeb87a	-0.007285175
72	0xbd143f77	-0.036193337
73	0xbc98f357	-0.018670721
74	0xbd711aca	-0.05886344
75	0xbdcad5b3	-0.09904041
76	0x3d23039f	0.039798375
77	0xbde8d5db	-0.11368915
78	0x3d9a4719	0.07533092
79	0xbda2ae92	-0.07943453
80	0x3cb64c68	0.02225323
81	0x3dfdce5b	0.12392875
82	0xbbe41c3b	-0.006961373
83	0x3d8443a7	0.06458216
84	0xbc34a1cf	-0.011024906
85	0x3d811f28	0.06304771
86	0xbd3a055e	-0.045415275
87	0xbde98507	-0.11402326
88	0x3da3a400	0.07990265
89	0xbde8517e	-0.113436684
90	0x3dd22e93	0.102627896
91	0x3ddc270f	0.10749637
92	0xbda9385c	-0.08262703
93	0xbd71095a	-0.05884681
94	0xbc83876a	-0.016055781
95	0x3d0caedb	0.034346443
96	0xbd0005e8	-0.031255633
97	0xbccdd043	-0.025123721
98	0xbdddfd9f	-0.1083939
99	0x3dde1245	0.108433284
100	0x3c85a223	0.016312664
101	0xbd6938e3	-0.056939017
102	0xbbf2c32e	-0.007408521
103	0x3e032714	0.12807876
104	0xbcd27dcc	-0.02569475
105	0x3b8c2fa1	0.0042781387
106	0xbdb5ca15	-0.08876435
107	0xbdce9c44	-0.10088399
108	0x3dcb6065	0.09930495
109	0xbdc6b0f6	-0.09701721
110	0xbcef94ea	-0.029245812
111	0x3e0ba051	0.13635375
112	0xbbc00c9a	-0.005860877
113	0x3c91b1e2	0.017785016
114	0x3e0a77ef	0.13522314
115	0x3d9c7954	0.07640329
116	0xbc9688d6	-0.018375795
117	0x3e0355a2	0.12825635
118	0xbdc91472	-0.09818353
119	0x3d53dbe0	0.05172336
120	0x3bef0686	0.007294479
121	0xbb641449	-0.003480213
122	0x3df60117	0.120119266
123	0xbd3a4e53	-0.045484852
124	0xbdee71e3	-0.11642816
125	0x3ca7dc50	0.020490795
126	0xbc7ebd45	-0.015548055
127	0x3da4053f	0.08008813
128	0xbe05e688	-0.13076222
129	0xbd4567c7	-0.048194673
130	0xbd644b58	-0.055735916
131	0x3c0eff17	0.00872781
132	0xbde24b33	-0.11049499
133	0xbdc4e25b	-0.096134864
134	0x3da68b50	0.081320405
135	0x3990080f	0.00027471824
136	0x3dd135c3	0.10215332
137	0xbd5d995d	-0.054101337
138	0x3d842c5d	0.06453774
139	0x3db0c8f1	0.086320765
140	0xbb210661	-0.0024570453
141	0xbc59a1e9	-0.013283231
142	0xbd793ef8	-0.060851067
143	0x3dcf68d7	0.101274185
144	0xbd057f2e	-0.03259199
145	0x3db99022	0.09060694
146	0x3db6554d	0.089029886
147	0x3bea7d6b	0.0071560643
148	0xbd5b6d92	-0.05357129
149	0xbdbff26f	-0.093724124
150	0xbd9be668	-0.07612306
151	0xbd9ea37f	-0.07746028
152	0x3d2ed1b1	0.042680446
153	0x3dd9e435	0.1063923
154	0x3d444b05	0.047923107
155	0x3abcf004	0.0014414792
156	0xbdddaf87	-0.10824495
157	0xbd1cd8d6	-0.03829273
158	0x3dc20f1d	0.09475539
159	0xbd48eaf5	-0.049052197
160	0xbdba6b0a	-0.09102447
161	0xbc9c8366	-0.019105624
162	0x3dfc1720	0.12309098
163	0xbe04e99a	-0.12979737
164	0x3ddee3d6	0.108833
165	0x3da24d00	0.07924843
166	0xbdc5a774	-0.0965108
167	0x3ada857c	0.0016671862
168	0x3de9aeaa	0.11410268
169	0x3dd66317	0.10468119
170	0xbdc47ae1	-0.0959375
171	0xbdaeef69	-0.085417576
172	0xbdd2c239	-0.10290951
173	0x3b9b5e75	0.0047414848
174	0xbd691658	-0.056906074
175	0xbd45779d	-0.048209775
176	0x3d429dd6	0.047513805
177	0x3ddfa252	0.10919632
178	0xbdc3bb28	-0.095571816
179	0x3cba58a6	0.022747349
180	0x3d0f4bc5	0.03498437
181	0x3deaedec	0.11471161
182	0x3dfa0621	0.122082
183	0x3d8c4f26	0.06851034
184	0x3d0fb4f3	0.035084676
185	0xbde5a459	-0.112129875
186	0x3d6e4f63	0.058181178
187	0x3da869c8	0.08223301
188	0x3dbdfbba	0.09276529
189	0xbc06a0e7	-0.008217073
190	0x3d844c08	0.06459814
191	0x3dfab1ba	0.1224093
192	0x3d8dfd03	0.06933024
193	0x3dd37838	0.10325664
194	0xbcacdf70	-0.021102637
195	0xbd8830c2	-0.06649925
196	0x3d0421ed	0.032258917
197	0x3c8a8aef	0.016911952
198	0xbd2ba5da	-0.041906215
199	0xbd91defb	-0.07122608
200	0x3d51b88b	0.051201385
201	0xbd48309f	-0.048874494
202	0x3dba9ebe	0.09112309
203	0x3d84d2e6	0.06485538
204	0x3d955d44	0.0729318
205	0x3c8b6726	0.017016958
206	0xbdd33be9	-0.10314161
207	0x3d524ff7	0.05134579
208	0xbdce300b	-0.10067757
209	0x3c9a6671	0.018847676
210	0x3db0eab2	0.086385146
211	0xbc80ff1e	-0.01574665
212	0x3e0169f8	0.1263808
213	0x3da6ae4a	0.08138712
214	0x3d9ed100	0.07754707
215	0x3d7adac8	0.061243802
216	0x3db8e584	0.09028152
217	0x3dbf9640	0.0935483
218	0xbc997bce	-0.018735792
219	0xbe0d48a9	-0.13797249
220	0xbd8ae437	-0.0678181
221	0x3d4b6d73	0.049664926
222	0xbdb5606e	-0.08856283
223	0x3db9fbe0	0.090812445
224	0x3d4cdea4	0.050017014
225	0x3c15920d	0.0091290595
226	0x3d571dfd	0.052518833
227	0x3c9a6127	0.018845154
228	0x3d2a4caf	0.041577037
229	0x3d71f66d	0.0590729
230	0x3dfb99eb	0.12285217
231	0x3de3cb98	0.11122817
232	0x3d120fc5	0.03565957
233	0xbc773f43	-0.015090766
234	0x3dc14c5a	0.09438391
235	0x3ce84d58	0.028357193
236	0x3df476a4	0.119366914
237	0xbc86a95d	-0.01643818
238	0x3deb03b1	0.114753135
239	0x3db7920f	0.08963405
240	0xbdc76d8c	-0.09737691
241	0x3d891b3e	0.06694649
242	0xbd57d189	-0.052690063
243	0x3c500909	0.012697467
244	0xbde91268	-0.11380464
245	0x3d70c983	0.058785927
246	0xbdc70411	-0.097175725
247	0x3d1b6963	0.0379423
248	0xbcee403c	-0.029083364
249	0x3d13cf8f	0.036086615
250	0x3da595c8	0.08085209
251	0xbcfa80b6	-0.030578952
252	0xbc18f4a3	-0.00933567
253	0x3cf345bc	0.029696338
254	0xb91d64d3	-0.00015010247
255	0xbdd2f6ed	-0.103010036

bias_hh_l0 f4 [256]
0	0xbddd3bee	-0.10802446
1	0xbde882a0	-0.1135304
2	0xbcd68095	-0.02618436
3	0xbddb8748	-0.10719162
4	0xbc7426d9	-0.01490184
5	0xbe0ab0f8	-0.1354407
6	0xbd7a54c4	-0.061115995
7	0x3d51bce1	0.05120552
8	0x3c9b3e1f	0.01895052
9	0xbdd52335	-0.10407106
10	0x3dcf85bc	0.1013293
11	0xbde3716b	-0.11105617
12	0xbd5fb478	-0.054615468
13	0x3df61860	0.12016368
14	0xbde3b1ad	-0.11117873
15	0xbdcb258d	-0.099192716
16	0x3bd2615f	0.006420299
17	0x3de84524	0.113413125
18	0x3da9a371	0.08283127
19	0x3d16dd94	0.036832407
20	0x3dfd1914	0.12358299
21	0x3c7419e8	0.014898755
22	0x3d06326d	0.032762934
23	0x3dba343e	0.09091996
24	0x3d890db0	0.06692064
25	0xbdbc9e9f	-0.09209942
26	0xbdcd8704	-0.10035518
27	0x3dd18073	0.10229578
28	0x3e0f5b64	0.13999707
29	0x3da986f7	0.082776956
30	0xbd565129	-0.052323494
31	0x3bdc12c3	0.0067161038
32	0xbd9886b6	-0.07447569
33	0x3d38ee67	0.045149233
34	0xbd85ff08	-0.06542784
35	0x3c00dc43	0.0078650145
36	0x3deb86a0	0.11500287
37	0x3d26f56f	0.040761407
38	0xbde8c4e3	-0.11365678
39	0xbc87c576	-0.016573649
40	0xbdf4264c	-0.11921367
41	0xbd881237	-0.06644099
42	0x3d49a28b	0.04922728
43	0x3e0baed1	0.13640906
44	0xbd8758e7	-0.06608754
45	0x3e0cf715	0.1376613
46	0x3d7ce3d8	0.061740726
47	0x3d1f4aab	0.03888957
48	0x3d22d8fd	0.039757717
49	0x3deb0d22	0.11477114
50	0xbcd716fd	-0.026256079
51	0x3d84a7ef	0.06477343
52	0x3b8b2553	0.0042463928
53	0xbdd64476	-0.10462277
54	0xbc704423	-0.014664683
55	0x3cbe0b79	0.02319883
56	0x3d65f6c5	0.05614354
57	0xbcb91928	-0.022595003
58	0xbaed045f	-0.0018082968
59	0x397b9916	0.00023994254
60	0xbd79a377	-0.060946908
61	0xbdbbc3f2	-0.09168233
62	0x3d45a90e	0.048256926
63	0x3dc5a3d7	0.096503906
64	0xbb366cf6	-0.0027835942
65	0x3d750dae	0.0598275
66	0xbd11dad9	-0.0356091
67	0xbd4ad73f	-0.04952168
68	0x3d216d7b	0.03941105
69	0xbdf4f286	-0.1196032
70	0xbad052cc	-0.0015893816
71	0xbdc10762	-0.09425236
72	0xbdc84ceb	-0.09780296
73	0x3d7700ea	0.060303606
74	0xbdc3ac9f	-0.09554409
75	0xbdeb419c	-0.11487123
76	0x3db778de	0.089586005
77	0x3dc800c6	0.097657725
78	0xbd89cc6c	-0.067284435
79	0xbcee72b1	-0.029107423
80	0xbd95edf9	-0.0732078
81	0xbd14eaf6	-0.03635689
82	0x3ca8be67	0.020598603
83	0x3de3103c	0.11087081
84	0xbde8f2bd	-0.11374424
85	0x3d0e0a56	0.034677826
86	0xbd017098	-0.03160152
87	0xbdc4de2b	-0.09612688
88	0x3cf56bc9	0.029958623
89	0xbd0161f2	-0.03158755
90	0xbcaf65b7	-0.021410806
91	0x3dcbf67a	0.09959121
92	0x3d0128fc	0.031533226
93	0x3d2c3731	0.042044822
94	0x3d5bcf41	0.05366445
95	0x3d877005	0.06613163
96	0xbd1b712a	-0.03794972
97	0xbdb87cfb	-0.09008213
98	0xbb6ebdcb	-0.0036429043
99	0x3d893451	0.06699432
100	0x3d7f9cfd	0.062405575
101	0x3d6fa495	0.058506567
102	0xbd83e703	-0.06440546
103	0x3c612c3f	0.013743459
104	0xbdf19264	-0.117955
105	0xbc7aaf68	-0.015300609
106	0x3de78f17	0.11306589
107	0x3dff8d56	0.124781296
108	0xbc4ed0e9	-0.01262305
109	0xbaf0f7f2	-0.001838444
110	0xbcdb7535	-0.026789287
111	0x3dcf68e5	0.10127429
112	0xbdae6fcf	-0.085174195
113	0xbdad2157	-0.08453625
114	0x3db26800	0.08711243
115	0xbdfed75f	-0.124434225
116	0x3d712347	0.058871534
117	0xbddf3419	-0.10898609
118	0xbda39751	-0.07987846
119	0x3dbf6b06	0.09346585
120	0x3d53f738	0.051749438
121	0xb82dbe10	-4.1423424e-05
122	0x3d987e49	0.07445962
123	0x3dd3e241	0.10345889
124	0xbcbedc88	-0.023298517
125	0x3d51ad33	0.051190566
126	0xbd51c57e	-0.051213734
127	0x3d879654	0.0662047
128	0x3c227201	0.009914876
129	0xbd09a4ec	-0.033604547
130	0x3d45d1a3	0.04829563
131	0xbdb39ee9	-0.08770544
132	0xbcd4fc91	-0.02599934
133	0xbcb7a660	-0.022418201
134	0x3dae4971	0.085101016
135	0xbdca0a5c	-0.09865257
136	0x3c4b1a8b	0.012396465
137	0x3d923343	0.07138684
138	0x3c7f1402	0.015568735
139	0x3c0224c3	0.007943335
140	0xbceaf55c	-0.02868145
141	0xbb918e55	-0.004442016
142	0x3d8184a5	0.06324128
143	0xbd38f5d7	-0.045156326
144	0x3d5f2c2a	0.054485478
145	0x3d2f2d1e	0.042767636
146	0x3e031897	0.12802349
147	0xbda531e0	-0.080661535
148	0x3cd2657e	0.02568316
149	0xbda22302	-0.079168335
150	0xbd146912	-0.036233015
151	0x3cd28ffc	0.025703423
152	0xbdaeba57	-0.08531635
153	0x3df02263	0.11725309
154	0xbca0771b	-0.019588044
155	0xbdc4a6a3	-0.09602096
156	0x3d9337f3	0.07188406
157	0xbddeb4df	-0.10874342
158	0xbdf8b35e	-0.121435866
159	0x3cbcecab	0.02306207
160	0xbd97dd11	-0.07415212
161	0x3dd44f2d	0.10366664
162	0xbdb347f9	-0.08753962
163	0x3d21c0e7	0.039490607
164	0xbd637c7d	-0.055538643
165	0x3d665ad3	0.05623896
166	0x3d8e8f8b	0.069609724
167	0x3da47823	0.08030727
168	0xbce8d469	-0.028421598
169	0xbd4d7453	-0.050159764
170	0x3dcb9934	0.099413306
171	0x3d948bff	0.07253265
172	0x3e069716	0.13143572
173	0xbc6702e3	-0.014099809
174	0x3cc1a909	0.023640173
175	0x3d025962	0.031823523
176	0x3cfb0ee8	0.030646756
177	0xbc9108ff	-0.017704485
178	0x3dc44a5b	0.09584495
179	0xbdd2d788	-0.102950156
180	0x3d04857e	0.03235387
181	0xbd67f3fc	-0.056629166
182	0xbc1d77c7	-0.009611077
183	0xbda0b6e1	-0.078473814
184	0x3dd0b741	0.10191203
185	0xbe03e462	-0.1288009
186	0xbde7349a	-0.1128933
187	0xbdb490b3	-0.08816662
188	0x3ded824c	0.11597118
189	0xbdce455e	-0.100718245
190	0xbdbf5c86	-0.09343819
191	0xbd7d0230	-0.061769664
192	0xbdbbac88	-0.09163767
193	0xbdb0af9b	-0.08627244
194	0xbd738061	-0.059448604
195	0xbb724207	-0.0036965625
196	0x3e06e7b7	0.1317433
197	0x3d80c507	0.0628758
198	0x3d99b782	0.075057045
199	0xbddb6c8f	-0.10714065
200	0xbd8fc6e7	-0.070203595
201	0xbddefa46	-0.108875796
202	0x3d87e8e2	0.06636216
203	0x3e027924	0.12741524
204	0xbdba5812	-0.09098829
205	0x3aa8cc08	0.0012878189
206	0x3cb4cc59	0.022070097
207	0xbd9063eb	-0.07050308
208	0xbccf9e31	-0.025343986
209	0xbd84a672	-0.064770594
210	0x3d7b7b1a	0.061396696
211	0x3dd688a5	0.104752816
212	0x3d21228b	0.039339583
213	0x3cba8af8	0.022771344
214	0x3d436554	0.047704056
215	0x39d099d8	0.00039787474
216	0x3d54f5b0	0.05199212
217	0x3caa9f2d	0.020827854
218	0xbb330dfc	-0.0027321568
219	0x3c27a9da	0.010233367
220	0x3dca3f1f	0.09875321
221	0x3d96a0d5	0.07354895
222	0xbc41294f	-0.011789634
223	0xbd4e86ab	-0.050421398
224	0x3dd57d78	0.10424322
225	0xbd9d5f09	-0.07684142
226	0xbc033166	-0.008007383
227	0xbbc024cd	-0.005863762
228	0x3d9a49cb	0.07533606
229	0xbdbfd13a	-0.09366079
230	0xbca1dc8f	-0.01975849
231	0xbdbb47fb	-0.091445886
232	0x3d34e3b8	0.044162482
233	0x3d9fba95	0.077992596
234	0xba5e2236	-0.0008473726
235	0x3d84e87a	0.06489654
236	0x3df30af7	0.11867326
237	0x3da59d90	0.08086693
238	0x3de37cc1	0.11107779
239	0x3e0cfd3f	0.1376848
240	0x3d4dfda4	0.05029072
241	0x3db792f6	0.089635774
242	0xbcd9561d	-0.02653032
243	0xbda2d5e4	-0.07950953
244	0xbdae0e22	-0.08498789
245	0xbc85db52	-0.016339932
246	0xbc9a2117	-0.018814607
247	0x3dcd65b7	0.10029166
248	0x3dfb1b65	0.122610845
249	0x3cd99e6c	0.0265648
250	0x3d0b4d1a	0.034009077
251	0x3da18899	0.07887382
252	0xbdd395f7	-0.10331338
253	0x3d067220	0.03282368
254	0x3d0d1b08	0.034449607
255	0xbdbdb7a0	-0.09263539

weight_ih_l1 f4 [256, 64]
0	0x3dce8427	0.100838
1	0xbd78822d	-0.06067102
2	0x3d3e2e18	0.046430677
3	0xbdb8211f	-0.08990692
4	0xbded249e	-0.1157925
5	0x3b70ebba	0.0036761598
6	0x3d63f9f9	0.055658314
7	0xbd526951	-0.05136997
8	0xbdc5a0bd	-0.09649799
9	0xbdb5a733	-0.08869781
10	0xbb4d0d2d	-0.003128837
11	0x3dd868b1	0.10566843
12	0x3cd64e95	0.026160518
13	0x3cf72974	0.030171134
14	0x3b313942	0.0027042185
15	0x3e01d79c	0.12679905
16	0x3e1af6f9	0.15133275
17	0xbda9dc72	-0.08294
18	0x3d307e0d	0.04308896
19	0xbd87cd67	-0.06630974
20	0xbc55a28a	-0.013039241
21	0xbd42ea23	-0.04758657
22	0x3e07d19f	0.13263558
23	0x3d20d4df	0.03926551
24	0x3dbf7ad0	0.093495965
25	0x3d8ea2f9	0.06964678
26	0xbd914d7d	-0.07094858
27	0xbc9f0248	-0.019410267
28	0xbd34c5fa	-0.044134118
29	0x3dd14c34	0.10219613
30	0x3dc20d86	0.09475236
31	0xbdf7175e	-0.12065004
32	0xbdc501d1	-0.09619487
33	0xbc9b1a63	-0.01893348
34	0x3c025702	0.007955315
35	0xbae81e1a	-0.0017709166
36	0xbdab9968	-0.08378869
37	0xbd909c88	-0.07061106
38	0x3cf15fdf	0.02946466
39	0x3d338676	0.043829404
40	0xbe0b934e	-0.13630411
41	0xbd78bc30	-0.060726345
42	0xbda9bad4	-0.08287588
43	0xbdcb1092	-0.0991527
44	0x3c53897f	0.0129112
45	0xbad7d165	-0.0016465603
46	0xbb5877f4	-0.0033030482
47	0xbd4fd98c	-0.05074458
48	0xbd00a839	-0.03141043
49	0xbdd6087e	-0.104508385
50	0xbda86a0f	-0.08223354
51	0xbd4f7788	-0.050651103
52	0xbe198329	-0.1499144
53	0xbe10157e	-0.14070699
54	0x3d83b841	0.06431628
55	0x3d23776f	0.039908823
56	0xbd4e1aa7	-0.050318386
57	0xbdf17b4a	-0.11791094
58	0xbda86266	-0.08221893
59	0x3e0316f8	0.1280173
60	0x3de6b020	0.11264062
61	0x3d926572	0.071482554
62	0xbe0e0e32	-0.13872603
63	0xbce044ac	-0.027376495
64	0xbd8f988c	-0.07011518
65	0x3d761ac6	0.060084127
66	0x3d9d45f4	0.07679358
67	0x3d65877a	0.056037404
68	0xbd6211a6	-0.055192612
69	0x3d7b8299	0.061403845
70	0xbb91ebe4	-0.004453169
71	0xbd9d21f1	-0.076724894
72	0xbbeda30e	-0.0072521036
73	0x3e0861b8	0.13318527
74	0x3cbd9bdd	0.02314561
75	0xbde608b1	-0.112321265
76	0x3d0c112b	0.03419606
77	0x3d2e5c08	0.042568237
78	0xbc7c7432	-0.0154085625
79	0xbc843c76	-0.016142111
80	0x3d7041a2	0.058656342
81	0xbda528ee	-0.08064447
82	0xbd2a190b	-0.04152779
83	0x3c4cf1e7	0.012508846
84	0xbb93a80d	-0.004506117
85	0x3b9be00c	0.004756933
86	0xbc8f05ba	-0.017458785
87	0x3dd1afba	0.10238595
88	0xbdee0fe0	-0.11624122
89	0x3dc2596c	0.09489712
90	0x3d32dcee	0.043667726
91	0xbda7da05	-0.08195881
92	0x3dc4e282	0.096135154
93	0x3daef059	0.085419364
94	0x3d9e44cc	0.07727966
95	0xbd51f8d1	-0.05126268
96	0xbe055911	-0.13022257
97	0xbd6f9b28	-0.058497578
98	0xbdb62bdb	-0.088950835
99	0xbc121f8d	-0.008918655
100	0xbc7dff45	-0.0155027555
101	0xbda66c5b	-0.08126136
102	0xbca41cc4	-0.020033248
103	0xbc8c7036	-0.01714335
104	0xbde60ab3	-0.112325095
105	0xbc9d7495	-0.01922063
106	0x3dd6573d	0.10465858
107	0x3e05a517	0.13051258
108	0x3e0624f8	0.1310004
109	0x3d3900f3	0.04516692
110	0xbdf14a13	-0.11781707
111	0x3cb4e182	0.022080187
112	0x3d929104	0.07156566
113	0xbdc30fc3	-0.09524491
114	0x3cd2fd67	0.025755597
115	0x3d88f9dd	0.06688283
116	0xbe00597d	-0.12534137
117	0xbb607d63	-0.0034254424
118	0x3da35283	0.07974722
119	0x3d9e7090	0.07736313
120	0xbe008299	-0.12549819
121	0x3d67346d	0.05644648
122	0xbdcef766	-0.10105781
123	0x3da1fcc7	0.079095416
124	0x3d9a9971	0.07548798
125	0xbdd569cf	-0.10420572
126	0x3e0025b4	0.12514383
127	0xbc5aa3d2	-0.013344722
128	0x3d38fef7	0.04516503
129	0xbd76e2d8	-0.06027493
130	0x3c1cc76e	0.009569032
131	0x3c556ce3	0.013026449
132	0xbd7147c2	-0.058906324
133	0x3d269781	0.04067183
134	0xbd51bcd6	-0.05120548
135	0xbdbde43e	-0.09272049
136	0xbdb77254	-0.08957353
137	0x3d82580a	0.06364448
138	0xbd9636de	-0.07334684
139	0xbe060320	-0.1308713
140	0xbd1c3b99	-0.038142774
141	0xbc593c76	-0.013259044
142	0x3d9fec43	0.07808735
143	0xbd2e407a	-0.04254196
144	0xbdfe46e4	-0.12415865
145	0x3ddfcb71	0.10927475
146	0x3db03a3c	0.08604857
147	0xbd54e15d	-0.051972736
148	0xbd7a8421	-0.061161164
149	0xbd862551	-0.06550086
150	0xbd93528a	-0.071934775
151	0xbde8aeaf	-0.11361443
152	0xbd9a4170	-0.075320125
153	0x3d7e9a08	0.062158614
154	0x3d8aa8cf	0.06770479
155	0xbdba5de4	-0.090999395
156	0xbc067abe	-0.008207975
157	0x3d3c7d01	0.04601765
158	0x3e12ad3b	0.14323895
159	0xbdac69be	-0.08418606
160	0x3d870b0f	0.06593906
161	0xbdf955a0	-0.12174535
162	0xbd15715a	-0.036485054
163	0xbda67b99	-0.08129043
164	0x3d316585	0.043309707
165	0x3dba0726	0.09083395
166	0x3d0be2fa	0.03415201
167	0x3dc91a4e	0.0981947
168	0x3df1ca00	0.118061066
169	0xbcc7dd95	-0.02439765
170	0x3d7c7494	0.061634615
171	0x3de9937f	0.11405086
172	0xbb844c97	-0.0040374505
173	0xbc1ada26	-0.009451425
174	0xbd936bac	-0.07198271
175	0x3dcf3a2a	0.10118516
176	0xbd60664c	-0.054785058
177	0x3dfa3551	0.122172005
178	0x3d826339	0.063665815
179	0x3cda1ada	0.026624132
180	0xbd8851f1	-0.06656254
181	0xbd533315	-0.051562387
182	0x3dd695a2	0.10477759
183	0x3d13af90	0.0360561
184	0x3dc9e418	0.098579586
185	0x3e1cd060	0.15313864
186	0xbd7d4537	-0.061833587
187	0x3db704b0	0.08936441
188	0x3dd12b8c	0.10213384
189	0xbdb3ae0c	-0.08773431
190	0x3c9e242c	0.019304357
191	0xbd681f45	-0.056670446
192	0xbdcf1e37	-0.10113185
193	0x3dd2567f	0.10270404
194	0xbdf6c965	-0.12050132
195	0xbd217abc	-0.03942369
196	0xbddb9e54	-0.10723558
197	0x3caa2258	0.02076833
198	0xbce02ac2	-0.027364139
199	0xbdf61fdd	-0.12017796
200	0x3db7b0d2	0.08969273
201	0x3c3ca514	0.011513967
202	0xbcc68927	-0.024235321
203	0x3e10fec4	0.14159685
204	0x3e21859d	0.15773626
205	0xbdbf9b25	-0.09355763
206	0x3d8796d0	0.06620562
207	0x3dc6b496	0.09702413
208	0x3d7cba75	0.061701257
209	0xbd28d92c	-0.041222736
210	0xbccaa654	-0.024737515
211	0xbe18fd0c	-0.1494028
212	0xbd537bd7	-0.051631775
213	0x3ddc846f	0.10767447
214	0xbd5f476b	-0.05451147
215	0xbd1d5c43	-0.038418066
216	0xbd2fb3d6	-0.042896114
217	0x3daa6505	0.08320049
218	0x3e1f24e7	0.15541421
219	0xbd9c1b23	-0.076223634
220	0xbe0534ab	-0.13008372
221	0x3d1ffc7c	0.039059147
222	0x3c1ae15d	0.009453145
223	0x3a13723a	0.0005624626
224	0x3db512eb	0.08841499
225	0x3d9992fa	0.07498737
226	0x3dff1991	0.12456048
227	0xbc55ab78	-0.01304137
228	0xbded13fa	-0.11576076
229	0x3deed434	0.11661568
230	0xbd898ab0	-0.06715906
231	0xbd06b0c8	-0.032883435
232	0x3b82d2ab	0.0039923987
233	0xbdf49c16	-0.119438335
234	0xbcb30429	-0.02185257
235	0x3d947620	0.07249093
236	0xbdd401b1	-0.10351885
237	0x3d008929	0.031380806
238	0x3cf7cc31	0.030248733
239	0xbd2dcde7	-0.042432692
240	0xbcc3970b	-0.023875734
241	0xbdad0095	-0.08447377
242	0xbd10128d	-0.03517394
243	0x3d89b349	0.06723649
244	0x3db58269	0.088627644
245	0xbe0215a4	-0.12703568
246	0x3d52c84e	0.051460557
247	0x3dece11b	0.11566373
248	0xbd9a79b3	-0.075427435
249	0x3da9a597	0.08283537
250	0xbdc48539	-0.09595723
251	0x3d42d539	0.047566626
252	0xbd1fbfc2	-0.039001234
253	0x3daa93af	0.0832895
254	0xbe0a983f	-0.1353464
255	0xbd350e5f	-0.04420316

weight_hh_l1 f4 [256, 64]
0	0xbd505da7	-0.050870564
1	0xbbd43410	-0.006475933
2	0xbd968773	-0.07350054
3	0xbd95bc9b	-0.07311364
4	0x3e140be2	0.14457658
5	0xbcdb2454	-0.026750721
6	0x3df88a54	0.12135759
7	0xbcc162cd	-0.023606682
8	0x3c6fd748	0.014638729
9	0x3cf81f29	0.030288296
10	0xbda478d3	-0.08030858
11	0xbdb39f1a	-0.087705806
12	0x3cc3bf1c	0.023894839
13	0xbc60b87c	-0.0137158595
14	0xbe07c360	-0.13258123
15	0x3c8408b0	0.016117424
16	0xb8831247	-6.249971e-05
17	0xbdeb7ca1	-0.114983805
18	0xbc68cb81	-0.014208675
19	0xbd916d03	-0.071008705
20	0x3e07581e	0.13217208
21	0x3d52a27d	0.051424492
22	0xbc8ac76e	-0.016940799
23	0x3d7781b8	0.060426444
24	0xbbb592f6	-0.0055412007
25	0xbd227bcf	-0.039668854
26	0x3ca54c90	0.02017811
27	0xbd9675a8	-0.0734666
28	0x3d428b13	0.047495913
29	0x3dfb0169	0.12256128
30	0xbd5ece4f	-0.05439597
31	0x3c0555a9	0.008138099
32	0xbd955981	-0.07292462
33	0xbd80f244	-0.062962085
34	0xbda83c53	-0.08214631
35	0xbdba6c4e	-0.09102689
36	0xbd630910	-0.055428565
37	0x3ccf6c9a	0.02532034
38	0x3de999c2	0.1140628
39	0x3d0b9b52	0.034083672
40	0x3decb5e1	0.11558128
41	0x3da05346	0.07828383
42	0x3d52ecc5	0.051495332
43	0xbca94d49	-0.020666735
44	0x3e08af7b	0.1334819
45	0xbccd1514	-0.025034465
46	0xbe070167	-0.13184129
47	0x3d804251	0.06262649
48	0x3da83e4d	0.08215008
49	0xbcfea65b	-0.031085184
50	0xbdedccdd	-0.1161134
51	0xbd960431	-0.07325018
52	0xbd344e62	-0.044020064
53	0x3e046b1f	0.12931488
54	0x3e01ad1b	0.12663691
55	0xbcf10382	-0.029420618
56	0xbc36895a	-0.011141146
57	0xbd9b373b	-0.07578894
58	0x3db3db42	0.087820545
59	0xbd44485a	-0.047920562
60	0x3da9e151	0.08294929
61	0x3c935da8	0.017988995
62	0x3b228da3	0.002480366
63	0xbd3a2062	-0.04544104
64	0xbd276a26	-0.040872715
65	0xbb310897	-0.0027013177
66	0xbc9a9379	-0.018869149
67	0xbc65de1c	-0.014030006
68	0x3df1fc73	0.11815729
69	0x3d741881	0.05959368
70	0xbd2eb9c5	-0.042657632
71	0x3cee09b9	0.02905737
72	0x3dc82470	0.09772575
73	0xbd5d9e45	-0.054106016
74	0x3cd9c646	0.026583802
75	0xbd5b4b5b	-0.05353866
76	0x3d93ba3e	0.07213257
77	0xbc98580f	-0.018596677
78	0xbd4879da	-0.04894433
79	0x3d49f5a1	0.049306516
80	0x3dee8468	0.11646348
81	0xbd6e27c5	-0.058143396
82	0x3dcdcb39	0.10048527
83	0x3c5c74ba	0.013455564
84	0x3d7746cf	0.060370263
85	0xbdc11ea8	-0.09429675
86	0xbdf7b8ff	-0.12095832
87	0x3db28352	0.087164536
88	0x3def2b91	0.116782315
89	0xbcce4140	-0.025177598
90	0xbbc9d579	-0.006159481
91	0x3daddc99	0.08489341
92	0x3d890bb9	0.06691689
93	0x3da9ffbc	0.083007306
94	0x3cf477e3	0.029842323
95	0x3dd93090	0.10604966
96	0x3c89b542	0.016810063
97	0x3e00f562	0.12593606
98	0x3d691189	0.05690149
99	0xbd52511d	-0.051346887
100	0xbdad3a99	-0.08458442
101	0xbccb2ae4	-0.024800725
102	0xbde95f21	-0.113950975
103	0x3d7fcdd9	0.06245217
104	0x3c777a88	0.015104897
105	0x3db81073	0.089875124
106	0xbdd098c4	-0.10185388
107	0x3d3f4679	0.046698067
108	0x3cf90215	0.0303965
109	0x3c3d108f	0.011539592
110	0xbd21b089	-0.039474998
111	0xbdb1ff1a	-0.08691235
112	0x3d45bd36	0.04827615
113	0x3d89117d	0.06692789
114	0x3d82d15b	0.06387588
115	0x3def5160	0.11685443
116	0x3d80c65b	0.06287833
117	0xbd90f09f	-0.07077145
118	0x3d6047ea	0.054756083
119	0x3df0b27d	0.11752794
120	0x3dbb8233	0.09155693
121	0xbdfe2925	-0.124101914
122	0xbdfa01b1	-0.12207354
123	0x3d917098	0.07101554
124	0xbdb92e7e	-0.09042071
125	0x3cb48d15	0.02203993
126	0xbdc8299c	-0.09773561
127	0x3dfc6a35	0.12324945
128	0x3dcc6c6f	0.099816196
129	0x3d623efc	0.055235848
130	0xbd111fc1	-0.035430674
131	0x3d273c7f	0.040829178
132	0xbd8e6280	-0.06952381
133	0xbd7b11a1	-0.06129611
134	0x3d5be7a6	0.053687714
135	0xbda16ee9	-0.078824826
136	0x3ddb8b5f	0.10719942
137	0x3d92609c	0.07147333
138	0xbdb32ee9	-0.08749182
139	0xbe08e62c	-0.13369054
140	0x3c8a5e9f	0.016890822
141	0x3dee95b4	0.11649647
142	0x3da07552	0.07834877
143	0xbbb91fce	-0.0056495434
144	0xbde3ca9c	-0.11122629
145	0xbd44a4a6	-0.048008583
146	0x3e00122b	0.1250693
147	0x3c218204	0.009857658
148	0xbe044438	-0.12916648
149	0x3c91e38b	0.017808696
150	0x3d9a5e7f	0.07537555
151	0xbd6614e0	-0.05617225
152	0xbddd0fe2	-0.10794045
153	0xbc15b88a	-0.009138236
154	0xbd4238f4	-0.047417596
155	0xbd768b23	-0.060191285
156	0x3de9d92b	0.11418375
157	0xbe047020	-0.12933397
158	0x3de2574d	0.110518076
159	0x3d3e6d4a	0.046490945
160	0x3ce2e553	0.027697241
161	0xbce50e04	-0.027960785
162	0x3d642061	0.05569494
163	0x3da69343	0.08133557
164	0x3d84bbd4	0.06481138
165	0x3cf975c9	0.030451672
166	0xbcbc0d14	-0.022955455
167	0xbdae22cb	-0.0850273
168	0x3d5ef677	0.054434266
169	0xbdcaecb1	-0.099084266
170	0xbc0a45b6	-0.008439472
171	0xbe00b0c6	-0.12567434
172	0xbc351bf2	-0.011054026
173	0x3d761f08	0.060088187
174	0xbd77a3dc	-0.060459003
175	0xbca6813b	-0.020325294
176	0x3dc2bebe	0.095090374
177	0x3dbdccdc	0.092675894
178	0x3de893df	0.11356329
179	0x3d8bb814	0.068222195
180	0x3d120b5e	0.03565537
181	0x3d26a4ea	0.040684618
182	0xbdf34cb6	-0.11879866
183	0x3d586ae5	0.052836318
184	0xbd53f40e	-0.05174642
185	0xbde12cb8	-0.109948575
186	0x3dc2e4ce	0.09516297
187	0x3d699a5c	0.057031974
188	0x3d507422	0.050892003
189	0xbd9da595	-0.07697598
190	0x3bf6a45e	0.0075269183
191	0x3ceadb1b	0.02866893
192	0xbcf4fa63	-0.02990455
193	0xbd86abb0	-0.065757155
194	0x3dc1903c	0.09451339
195	0x3c1b4907	0.00947786
196	0x3de57f23	0.1120589
197	0xbe085ecf	-0.13317417
198	0xbd4a1c46	-0.04934337
199	0x3dce7058	0.100800216
200	0x3d76296e	0.060098104
201	0xbd9b7353	-0.07590356
202	0xbdd3bcbf	-0.10338735
203	0x3d20f2ca	0.03929404
204	0xbd98830c	-0.0744687
205	0x3d924766	0.071425244
206	0x3dde437b	0.10852715
207	0xbe07dce5	-0.13267858
208	0x3e004203	0.12525181
209	0xbd7a8a6e	-0.061167173
210	0x3dd2e2bc	0.102971524
211	0x3d605beb	0.05477516
212	0xbdbafd74	-0.091303736
213	0x3c4e0710	0.012574926
214	0x3d2ede00	0.042692184
215	0xbdaf3335	-0.08554689
216	0x3df6cdc9	0.12050969
217	0x3d3e2a8c	0.046427295
218	0xbdf34512	-0.118784085
219	0xbccaeaf0	-0.02477023
220	0xbc7a7d98	-0.015288733
221	0xbdaef733	-0.08543243
222	0x3db190b0	0.08670175
223	0xbc877f27	-0.016540123
224	0x3d5b7215	0.053575594
225	0xbd7a461b	-0.061102014
226	0xbd027ab0	-0.031855285
227	0x3cc9f43f	0.024652598
228	0xbda9b5f7	-0.0828666
229	0x3dcd68b5	0.10029737
230	0xbdbd98b6	-0.09257643
231	0xba1a4a64	-0.0005885719
232	0xbdb0a8a6	-0.08625917
233	0x3d8c803a	0.06860395
234	0xbc105c22	-0.008811029
235	0x3e10a6c0	0.1412611
236	0xbd1e6b23	-0.038676392
237	0xbcace6ec	-0.021106206
238	0xbdb7d7c7	-0.08976703
239	0x3ccd185c	0.02503603
240	0xbc968373	-0.018373227
241	0x3c7d28c8	0.015451618
242	0x3bf63ba9	0.0075144363
243	0x3d580ed8	0.05274853
244	0x3d2b7090	0.041855395
245	0xbd85ad32	-0.06527175
246	0xbd6b1dd6	-0.0574015
247	0x3d315624	0.04329504
248	0xbca68701	-0.020328047
249	0xbda78c9f	-0.08181118
250	0x3dd3ebcc	0.10347709
251	0x3dc37c2d	0.09545169
252	0xbd648a03	-0.05579568
253	0xbd691c7b	-0.056911927
254	0x3dcddb37	0.100515775
255	0x3e0860e8	0.13318217

bias_ih_l1 f4 [256]
0	0x3d3d80bf	0.04626536
1	0xbd29be60	-0.04144132
2	0x3d5b6b72	0.053569265
3	0x3dc68a65	0.096943654
4	0xbddcaf3a	-0.10775609
5	0xbd973f2f	-0.07385098
6	0xbd2c5f0c	-0.04208283
7	0xbd8429e9	-0.06453306
8	0x3d45b913	0.048272204
9	0xbdd96806	-0.10615544
10	0xbd5bf989	-0.053704772
11	0x3cff6c0b	0.031179449
12	0x3d36c746	0.044623636
13	0xbceb6b28	-0.02873762
14	0xbc386b2c	-0.0112560205
15	0xbd015347	-0.03157356
16	0xbdb7a168	-0.08966333
17	0x3e045039	0.12921228
18	0x3d313806	0.04326632
19	0x3d5e5216	0.054277502
20	0x3d61ce56	0.055128418
21	0x3ce86dea	0.028372724
22	0x3db55a55	0.0885512
23	0xbca04b50	-0.019567162
24	0x3d96accb	0.073571764
25	0x3dde892f	0.108660094
26	0xbc1ca80e	-0.009561552
27	0x3d89e4e3	0.0673311
28	0xbd96821a	-0.07349034
29	0xbd65452d	-0.055974174
30	0xbc269da2	-0.0101694185
31	0xbd10da50	-0.03536445
32	0xbd726d62	-0.059186347
33	0xbdd13faa	-0.10217221
34	0xbdddd61a	-0.10831852
35	0x3dfd0eb2	0.123563185
36	0xbceed6aa	-0.029155094
37	0xbdc9d3f0	-0.09854877
38	0x3db22c6f	0.08699881
39	0x3daa5346	0.083166644
40	0xbc509c3a	-0.01273256
41	0x3e070231	0.1318443
42	0xbae57849	-0.0017507161
43	0x3db5e43c	0.08881423
44	0xbbfdf090	-0.0077496246
45	0xbcd22f4e	-0.025657322
46	0xbda98b00	-0.08278465
47	0x3d956e7c	0.07296464
48	0x3d043953	0.03228123
49	0xbd8b0701	-0.06788445
50	0xbb9dd3bd	-0.004816501
51	0x3dba94d5	0.09110419
52	0xbd58cb31	-0.052928153
53	0x3ca6631a	0.020310927
54	0x3a14e1c7	0.00056793954
55	0xbdebf6ca	-0.11521681
56	0xbdb0622c	-0.08612475
57	0xbd550457	-0.052006092
58	0x3da781f5	0.08179084
59	0x3d838cb3	0.064233206
60	0x3de59ab5	0.11211149
61	0x3d9811a9	0.074252434
62	0x3e0ac3bc	0.13551229
63	0xbdbbf03d	-0.09176681
64	0x3d9e2f68	0.07723886
65	0x3ca083b2	0.019594047
66	0x3c8240cc	0.015900038
67	0x3df2b53c	0.11850974
68	0xbdbe6086	-0.09295754
69	0x3dfda038	0.12384075
70	0x3dc01143	0.093782924
71	0xbd78ec00	-0.060771942
72	0x3c071adf	0.008246153
73	0x3d638a71	0.05555195
74	0x3c064443	0.008194986
75	0x3c93bd04	0.018034466
76	0x3d9c4838	0.07630962
77	0x3d7a2259	0.061067913
78	0x3ca4c808	0.020114914
79	0xbbcb420c	-0.0062029418
80	0x3d1f276b	0.03885595
81	0xbc0631e6	-0.008190608
82	0x3d77ccaf	0.060497936
83	0xbdae71ba	-0.08517785
84	0xbd7cc5fc	-0.06171225
85	0x3dc8e5d9	0.09809465
86	0xbdf1a470	-0.11798942
87	0x3b076108	0.00206572
88	0x3d5ed7b1	0.054404918
89	0x3ca6dbe1	0.020368518
90	0x3df5c50f	0.120004766
91	0xbdac6f26	-0.084196374
92	0x3dee0275	0.116215624
93	0xbdc45ced	-0.09588037
94	0xbda21019	-0.07913227
95	0x3daccb3d	0.08437202
96	0x3d6e077e	0.058112614
97	0x3da2438f	0.07923042
98	0xbcddb8cd	-0.027065659
99	0xbd888d7f	-0.06667613
100	0xbd651188	-0.055924922
101	0x3d6d8d60	0.057996154
102	0xbd69807c	-0.057007298
103	0xbd83acf8	-0.064294755
104	0x3d7d4aeb	0.061839025
105	0x3da938fa	0.082628205
106	0x3d78de3c	0.060758814
107	0xbd7c0a2f	-0.06153315
108	0x3c84366b	0.01613923
109	0x3dbad292	0.09122194
110	0xbc98f556	-0.018671673
111	0x3d102d75	0.0351996
112	0xbda2e4e2	-0.07953812
113	0xbd040cc8	-0.03223875
114	0xbd488ad4	-0.04896052
115	0x3dcfa962	0.10139729
116	0xbd8faf21	-0.07015825
117	0x3d17bbf2	0.037044473
118	0xbdecd652	-0.11564316
119	0xbdbe9b72	-0.093069926
120	0x3db8c525	0.09021977
121	0xbdce54bb	-0.10074755
122	0x3b6da801	0.0036263468
123	0xbd88735f	-0.0666263
124	0xbd642c06	-0.055706047
125	0x3c3947a8	0.011308588
126	0xbda77657	-0.081768684
127	0x3d29f953	0.04149754
128	0xbc7063fd	-0.014672277
129	0x3d4f2aae	0.050577812
130	0xbd4a2d1f	-0.049359437
131	0xbd934800	-0.07191467
132	0xbd037f75	-0.032103974
133	0x3d652ded	0.055952
134	0xbd38fb18	-0.045161337
135	0xbd8061a8	-0.062686265
136	0x3d63a142	0.05557371
137	0x3dbc213a	0.09186025
138	0x3d046238	0.03232023
139	0x3dd22274	0.10260478
140	0xba53a5b4	-0.0008073703
141	0xbd834d4a	-0.06411226
142	0xbdf9a1e9	-0.12189085
143	0x3db35835	0.087570585
144	0x3d9bc9ba	0.07606836
145	0xbcca3b76	-0.024686556
146	0xbc392b8a	-0.011301884
147	0x3d087eb2	0.03332395
148	0xbbc11e8d	-0.0058935345
149	0xbc66c5e9	-0.014085271
150	0x3d9ad4d2	0.075601235
151	0x3ce2d5d7	0.027689857
152	0x3d0c62f8	0.03427407
153	0x3d239590	0.039937556
154	0x3d770134	0.06030388
155	0xbdb5acf3	-0.08870878
156	0xbd12246a	-0.03567926
157	0xbdc6ff2f	-0.09716641
158	0x3dfcf932	0.12352218
159	0x3b9c1349	0.004763041
160	0x3d289d91	0.041165892
161	0x3daea636	0.08527796
162	0xbd46c1d6	-0.0485247
163	0x3d6bb5f0	0.057546556
164	0xbd9ad5f0	-0.075603366
165	0xbd919bed	-0.071098186
166	0x3d950f1a	0.07278271
167	0xbd70c3af	-0.05878037
168	0x3dbd15e5	0.09232692
169	0x3d0075c0	0.031362295
170	0x3dde5085	0.10855202
171	0x3d7e65b5	0.062108714
172	0xbdc99bfd	-0.098442055
173	0x3d2d1362	0.042254813
174	0x3cc6313e	0.024193402
175	0x3da246ee	0.07923685
176	0x3d6d4a5e	0.05793225
177	0xbcfe4d79	-0.031042801
178	0x3da05f87	0.078307204
179	0xbdc23819	-0.09483356
180	0x3d7d51f0	0.06184572
181	0x3df5b604	0.11997607
182	0xbde42a46	-0.111408755
183	0xbd57f2b4	-0.052721694
184	0xbd6dfbf3	-0.058101606
185	0xbdaf00e7	-0.08545094
186	0x3d917443	0.07102253
187	0x3d601cdb	0.05471502
188	0x3deaf95f	0.11473345
189	0x3beb53e7	0.007181633
190	0x3d82e285	0.063908614
191	0xbd9a2e05	-0.07528309
192	0x3c107554	0.008817036
193	0x3d8eae7b	0.06966873
194	0x3ca9250c	0.020647548
195	0xbccef4e3	-0.025263255
196	0x3d284760	0.041083694
197	0xbdd020b8	-0.101624906
198	0xbd5c4735	-0.053778846
199	0x3df87b96	0.12132947
200	0xbdfc63a1	-0.1232369
201	0xbde082e5	-0.10962466
202	0x3d36122e	0.04445093
203	0x3da1624c	0.07880077
204	0xbdb7e83a	-0.089798406
205	0xbdede66e	-0.116162166
206	0xbd04c446	-0.032413743
207	0x3da7c066	0.08190994
208	0x3cd40583	0.025881534
209	0x3e01a56b	0.12660758
210	0x3c840e3f	0.016120074
211	0xbce4f241	-0.027947547
212	0x3e049b39	0.12949838
213	0x3cb4cd18	0.022070453
214	0x3d676891	0.056496207
215	0x3d0d0627	0.034429695
216	0xbcf86b2e	-0.030324545
217	0xbdf1842d	-0.11792789
218	0xbad94b11	-0.0016578158
219	0x3d85dae1	0.065358885
220	0x3dc7e402	0.09760286
221	0x3d56bbe2	0.052425273
222	0x3a8ca6c9	0.0010730858
223	0xbcffe688	-0.031237856
224	0xbc2f4926	-0.010698592
225	0xbde321d4	-0.110904366
226	0x3d3bf3ba	0.045886733
227	0x3dd8dc2b	0.10588869
228	0xbda47bb1	-0.08031405
229	0x3d7b75f9	0.061391804
230	0x3df25580	0.11832714
231	0x3c94ef01	0.018180372
232	0x3dd27684	0.10276511
233	0x3deaf6ec	0.11472878
234	0x3dc8e9ad	0.09810195
235	0xbc8113f8	-0.015756592
236	0x3dc2036e	0.094733104
237	0xbd0caf8b	-0.0343471
238	0xbd95e1de	-0.07318471
239	0xbd13671c	-0.035987005
240	0x3dd6aabf	0.10481786
241	0x3d882876	0.06648342
242	0x3d85618a	0.06512745
243	0xbda0e344	-0.078558475
244	0xbd1f04c8	-0.03882292
245	0x3cb46d77	0.022024853
246	0x3debac73	0.115075015
247	0xbcf62727	-0.030047966
248	0x3bd27609	0.0064227623
249	0xbd05e653	-0.032690357
250	0x3d41e654	0.0473388
251	0xbcfc726c	-0.03081628
252	0xbc1c98d6	-0.009557923
253	0x3c04987c	0.008092996
254	0xbd5dd4d6	-0.054158054
255	0xbdcee4e0	-0.10102248
