models saved/FCSGD_G-L_ETTh1.pth (torch, 353563 bytes, 15 tensors)

weight_ih_l0 f4 [256, 7]
0.08082495 0.121314056 -0.11045507 0.030585628 0.08745317 -0.016800173 -0.13403529 0.083420955
-0.09894984 -0.0422124 -0.040313993 -0.06839861 -0.068138674 0.020315832 0.03646976 -0.013820154
-0.12272558 0.0310175 -0.07637269 -0.04347645 -0.05282567 0.059238926 0.0056183646 -0.06342795
0.014240612 0.030278638 0.034563877 0.06535592 -0.0381631 -0.028574329 -0.08976775 -0.060882002
0.015069324 -0.07129476 0.003470243 0.0029817314 -0.016794257 0.10319903 -0.024307203 0.03841604
-0.10568507 -0.14735888 -0.02012716 -0.01948881 -0.07713577 -0.027273843 0.012124551 0.0069014803
-0.0008925376 -0.022547029 -0.0007592263 -0.054139584 0.021898773 0.07257571 0.0952744 0.03790431
0.049195282 0.09840651 -0.07253574 0.08159632 -0.053800844 0.01936257 0.00728073 0.11448851
0.042594213 -0.081766285 -0.12809028 -0.03557071 -0.039913204 0.119319126 -0.03237349 -0.03542106
0.0021224385 -0.034324434 0.015516019 0.072918795 -0.019449268 -0.07082469 0.04912159 0.10038303
0.12911037 0.10063726 0.0443407 -0.1003171 0.0041617765 -0.12013795 -0.10557732 0.105251044
0.04591293 0.0148034515 0.087518975 0.06277701 0.017400285 0.02204922 0.054299355 0.031054754
0.016635219 0.018557543 0.029676545 0.0014349591 0.1140506 0.009440531 -0.022090683 -0.11690905
0.030018052 -0.099821046 0.019198162 0.00031150537 0.038353294 -0.12261976 -0.0056032315 0.016219415
0.017295923 0.09794391 -0.077075385 -0.09470473 0.07645515 -0.09556686 0.04729663 -0.09253336
0.042064812 -0.0016752859 -0.07916959 -0.09094908 -0.032569602 -0.061935864 0.020319717 0.032603487
0.055327293 -0.0951127 0.015305455 0.037814714 -0.1382599 -0.0057710675 -0.021650745 0.024049668
0.0163744 0.07241419 0.10495741 0.09489352 -0.07056324 -0.08849345 -0.03291407 0.032173645
0.04151384 -0.03572382 0.008750756 0.11360165 0.060715027 0.080999255 -0.06281387 -0.028698491
-0.019414814 -0.0046727573 -0.08742604 -0.07691024 -0.037341446 0.03719562 -0.0835968 0.074559465
0.029466437 0.015051672 -0.005424121 -0.059093475 -0.03408372 -0.0028005189 0.13564575 0.13742988
0.114407085 0.032710355 0.07874782 -0.13165173 -0.045918677 0.08124537 0.05333211 -0.07100956
-0.08922221 -0.01984421 0.004747398 -0.032225665 -0.07230485 -0.056384705 0.062547974 0.11568241
-0.05084852 0.019748678 -0.08108457 0.029856969 0.007066614 -0.068692446 0.10523313 -0.07510519
-0.041763555 -0.008736842 0.10820427 -0.08696957 0.1104434 -0.12406099 0.11364443 0.0077223806
0.091624655 0.027220469 0.02041997 0.039667986 0.051519413 -0.086042754 -0.0961613 -0.114178024
0.043951795 0.11019251 -0.109953105 0.108310975 0.1243353 0.04576503 -0.12755911 -0.050873023
0.008632817 -0.023769254 0.07727135 0.03984325 -0.09021043 0.058388017 -0.012165508 -0.007288026
0.11811439 -0.037023794 0.05832589 -0.0542055 -0.09375191 -0.09000049 0.07398039 0.056535143
0.13142553 0.08464783 -0.09765047 -0.09234419 -0.039502695 -0.06407952 -0.07943482 -0.079446584
-0.07516858 -0.003956581 0.07690394 0.0038865507 0.06524651 0.07607815 0.10625481 0.115624934
-0.14394198 -0.00062215055 0.12346547 0.07928175 -0.0123477485 0.030252585 -0.061549585 0.0029696082
00000000: 8d87 a53d 8173 f83d 4536 e2bd b68e fa3c
00000010: a61a b33d 84a0 89bc 8c40 09be 9bd8 aa3d
00000020: 37a6 cabd e9e6 2cbd 4920 25bd 9214 8cbd
00000030: 4a8c 8bbd 636d a63c 5161 153d ed6d 62bc
00000040: 8d57 fbbd 6a18 fe3c 4969 9cbd 5d14 32bd
00000050: bb5f 58bd 84a4 723d 421a b83b 83e6 81bd
00000060: 7551 693c e80a f83c da92 0d3d 53d9 853d
00000070: e950 1cbd b614 eabc 27d8 b7bd 685f 79bd
00000080: 53e5 763c fd02 92bd 046d 633b 2769 433b
00000090: 1c94 89bc 035a d33d e61f c7bc 235a 1d3d
000000a0: 6a71 d8bd 3fe5 16be b7e1 a4bc ffa6 9fbc
000000b0: 5cf9 9dbd 656d dfbc 0ea6 463c d025 e23b
000000c0: 2ff9 69ba 8cb4 b8bc d106 47ba 78c1 5dbd
000000d0: 0e65 b33c 93a2 943d 3a1f c33d 8d41 1b3d
000000e0: fe80 493d 5a89 c93d 9e8d 94bd f91b a73d
000000f0: 465e 5cbd 419e 9e3c 3193 ee3b f478 ea3d
00000100: 4577 2e3d 1575 a7bd 192a 03be 98b2 11bd
00000110: 077c 23bd 965d f43d 119a 04bd ac15 11bd
00000120: 9c18 0b3b c797 0cbd e736 7e3c 7356 953d
00000130: 1254 9fbc 890c 91bd b833 493d 9e95 cd3d
00000140: 8235 043e e81a ce3d 989e 353d 0d73 cdbd
00000150: 835f 883b e30a f6bd ec38 d8bd dc8d d73d
00000160: 320f 3c3d 2d8a 723c 263d b33d 3c91 803d
00000170: 0b8b 8e3c 91a0 b43c 0069 5e3d 8a66 fe3c
00000180: 9546 883c fd05 983c 3a1c f33c 3d15 bc3a
00000190: 5c93 e93d 75ac 1a3c 85f7 b4bc 036e efbd
000001a0: 6be8 f53c fa6e ccbd 7745 9d3c 8b51 a339
000001b0: 5818 1d3d 1220 fbbd 509b b7bb 94de 843c
000001c0: 2eb0 8d3c d196 c83d b3d9 9dbd 8ef4 c1bd
000001d0: 8594 9c3d 8fb8 c3bd 1cba 413d 2182 bdbd
000001e0: 274c 2c3d 4495 dbba aa23 a2bd 8343 babd
000001f0: b467 05bd 76b0 7dbd 8975 a63c 3c8b 053d
00000200: df9e 623d 72ca c2bd bbc3 7a3c 9ae3 1a3d
00000210: 0194 0dbe 391b bdbb e75c b1bc cf03 c53c
00000220: 9b23 863c e44d 943d e9f3 d63d 8957 c23d
00000230: 7683 90bd 0e3c b5bd e7d0 06bd 83c8 033d
00000240: 6b0a 2a3d 2453 12bd 555f 0f3c fba7 e83d
00000250: 52b0 783d f0e2 a53d 8fa4 80bd 1919 ebbc
00000260: d10b 9fbc ee1d 99bb 6c0c b3bd 1e83 9dbd
00000270: 58f3 18bd 6f5a 183d cd34 abbd a2b2 983d
00000280: 9963 f13c 4a9b 763c d3bc b1bb 000c 72bd
00000290: 5f9b 0bbd e988 37bb b8e6 0a3e 6bba 0c3e
000002a0: 434e ea3d 4bfb 053d 8946 a13d b6cf 06be
000002b0: 3915 3cbd f963 a63d c572 5a3d 766d 91bd
000002c0: 22ba b6bd 5390 a2bc 1090 9b3b 0fff 03bd
000002d0: 9114 94bd a6f3 66bd 2719 803d e6ea ec3d
000002e0: 8a46 50bd fbc7 a13c ab0f a6bd 9a96 f43c
000002f0: 0e8f e73b a0ae 8cbd 7884 d73d c0d0 99bd
00000300: 4310 2bbd f924 0fbc 339a dd3d 1a1d b2bd
00000310: 2630 e23d b013 febd 69be e83d 060c fd3b
00000320: b5a5 bb3d 76fd de3c c847 a73c e67a 223d
00000330: 0506 533d 2f37 b0bd 37f0 c4bd 2bd6 e9bd
00000340: cc06 343d 9cac e13d 182f e1bd 25d2 dd3d
00000350: 81a3 fe3d 1d74 3b3d db9e 02be 3b60 50bd
00000360: a970 0d3c bdb7 c2bc 7140 9e3d ad32 233d
00000370: 3fc0 b8bd 4628 6f3d d751 47bc 65d0 eebb
00000380: f5e5 f13d 43a6 17bd 21e7 6e3d 9606 5ebd
00000390: 0001 c0bd 2d52 b8bd 0883 973d 6591 673d
000003a0: 6a94 063e d75b ad3d f8fc c7bd f31e bdbd
000003b0: 94cd 21bd 203c 83bd b9ae a2bd e4b4 a2bd
000003c0: fcf1 99bd 35a6 81bb d07f 9d3d 80b5 7e3b
000003d0: f69f 853d dcce 9b3d 1f9c d93d c4cc ec3d
000003e0: 8765 13be d117 23ba 77db fc3d 785e a23d
000003f0: 364e 4abc 45d4 f73c 6b1b 7cbd c29d 423b

weight_hh_l0 f4 [256, 64]
0.02667571 -0.08812219 0.10081587 -0.09509361 0.046830412 0.030477397 0.08965405 0.0185832
0.06662849 -0.027786883 0.09465313 -0.1035604 0.0062463395 0.12357315 0.07685545 -0.08397015
0.10424119 -0.10234871 0.12043896 -0.089121714 0.05132817 0.10539161 0.07698814 0.055387262
-0.09827236 -0.08432266 0.009058557 0.011206676 -0.0053920797 -0.0014980803 0.022072721 -0.018155742
0.059685126 -0.108735435 0.10975827 -0.019390585 0.050532926 0.04946075 0.07784841 0.060523517
-0.079627596 -0.08335236 -0.044004988 -0.039364293 -0.052103482 -0.10690249 -0.03414528 -0.025602577
0.110924035 0.03439078 -0.075868934 -0.09946419 0.06874566 0.12265658 0.04948944 -0.0393314
0.08147673 0.0041689496 -0.0055970033 0.03729291 -0.035898674 -0.01211051 -0.017258445 0.010043671
0.003515827 0.0063455626 -0.11736839 0.06669523 -0.029117493 0.09058006 0.03126556 -0.07803827
-0.019769251 0.066081844 -0.06402732 -0.0032505975 0.11113908 -0.026903687 0.091487266 -0.08527076
-0.11799295 0.04321851 0.031503692 -0.029365422 -0.09027862 -0.097458504 0.06442338 0.09965071
-0.048189282 -0.055113543 0.11625074 -0.05354353 -0.06926611 0.08939185 -0.04946243 -0.10900339
-0.054836527 -0.017088633 0.123578615 -0.053319793 -0.05582342 -0.012505182 -0.06128694 0.11872179
0.10753548 0.05955258 -0.027308878 -0.052612204 -0.008054362 -0.072695695 0.11415896 -0.111875586
0.11104949 -0.11544886 -0.03591013 0.086020745 0.06298205 0.08240118 -0.034068234 -0.00092651974
0.09588842 0.087181956 -0.03228187 -0.048296455 0.08727582 -0.10077223 -0.12429258 0.023489695
-0.0027212678 0.13991244 -0.05693245 -0.10365873 -0.08114427 -0.07268313 -0.032045916 0.03303171
0.028571313 0.06971356 -0.014128045 0.061395157 0.114425994 -0.11342872 0.0007964262 -0.048876364
0.0043466957 0.032380532 0.07976966 -0.07042289 0.03857686 0.09194401 -0.1345173 -0.103158176
-0.04243827 -0.042491574 0.053098485 0.117823154 -0.07957766 -0.004961085 -0.008061046 0.021337997
-0.009559742 0.023363657 -0.029803248 0.00995872 -0.12593408 0.045462377 0.019290885 -0.09156505
0.031123172 -0.028580073 0.091338 -0.056574263 -0.008029611 -0.12072799 -0.07908193 0.108866505
0.08261146 0.060876213 -0.13484253 -0.027753573 0.106795125 0.016814029 0.060397543 0.10767869
-0.11027513 0.08092372 0.09887338 -0.11813922 -0.076384686 0.011988134 0.012466541 0.1556559
-0.07646618 -0.043762363 0.08913052 -0.052993756 0.057162985 -0.09311388 -0.09987917 0.07379118
0.035131775 -0.049727283 -0.12173439 -0.094574794 0.11188109 -0.094751365 -0.022753468 -0.10925227
0.02563506 0.017349366 -0.069635145 0.0545276 -0.08165917 0.06688077 0.06083687 -0.019099422
-0.086340204 0.08940967 0.12049654 -0.03168585 -0.0418393 -0.06599327 -0.07932013 0.010257325
-0.050475664 -0.121035114 -0.0021861354 -0.105668 -0.005298636 -1.2861489e-05 -0.048199758 -0.09388988
-0.08114098 0.07015493 -0.053818863 -0.10148048 0.12256121 0.1083176 -0.10732744 -0.044886604
-0.10030021 0.014461359 -0.11777542 0.08918645 0.018531347 0.036842268 -0.07334469 -0.08569274
-0.046872832 -0.032950483 -0.055577233 -0.07689737 -0.12562105 0.09435428 0.060845464 0.0065134526
00000000: 0587 da3c 6879 b4bd 8d78 ce3d 70c0 c2bd
00000010: 3fd1 3f3d bcab f93c 8b9c b73d cc3b 983c
00000020: 8574 883d 51a1 e3bc 80d9 c13d 7a17 d4bd
00000030: 18ae cc3b eb13 fd3d 6466 9d3d 8bf8 abbd
00000040: 687c d53d 339c d1bd b4a8 f63d 7285 b6bd
00000050: 7d3d 523d 8ed7 d73d f5ab 9d3d c1dd 623d
00000060: 0543 c9bd 5cb1 acbd 586a 143c 359c 373c
00000070: 0bb0 b0bb 3c5b c4ba dad1 b43c 5abb 94bc
00000080: 6478 743d afb0 debd f2c8 e03d 01d9 9ebc
00000090: 9dfb 4e3d 5b97 4a3d fd6e 9f3d 82e7 773d
000000a0: cb13 a3bd a4b4 aabd 933e 34bd 743c 21bd
000000b0: 766a 55bd b1ef dabd ecdb 0bbd 7fbc d1bc
000000c0: 242c e33d 59dd 0c3d 2c61 9bbd e2b3 cbbd
000000d0: 86ca 8c3d 5f33 fb3d 70b5 4a3d f619 21bd
000000e0: 46dd a63d af9b 883b 1167 b7bb 73c0 183d
000000f0: 7d0a 13bd 296b 46bc 9561 8dbc 368e 243c
00000100: ca69 663b 70ee cf3b d75e f0bd 8297 883d
00000110: cf87 eebc 0a82 b93d 5110 003d 87d2 9fbd
00000120: 20f3 a1bc eb55 873d c120 83bd fa07 55bb
00000130: e39c e33d 1f65 dcbc ad5d bb3d 70a2 aebd
00000140: 4aa6 f1bd e405 313d 040a 013d c18f f0bc
00000150: ffe3 b8bd 5398 c7bd 68f0 833d ac15 cc3d
00000160: 2062 45bd bdbe 61bd de14 ee3d 7650 5bbd
00000170: 64db 8dbd 1313 b73d 1e99 4abd 2b3d dfbd
00000180: 449c 60bd 76fd 8bbc c916 fd3d db65 5abd
00000190: 19a7 64bd 89e2 4cbc 0408 7bbd 6924 f33d
000001a0: 903b dc3d 68ed 733d deb6 dfbc e57f 57bd
000001b0: 71f6 03bc 7be1 94bd 2ccc e93d 071f e5bd
000001c0: ea6d e33d 7470 ecbd 8016 13bd a52b b03d
000001d0: bcfc 803d f3c1 a83d 228b 0bbd b0e1 72ba
000001e0: 2661 c43d 748c b23d fe39 04bd 81d2 45bd
000001f0: aabd b23d ac61 cebd 1c8d febd 766d c03c
00000200: 4c57 32bb 3545 0f3e 0032 69bd 074b d4bd
00000210: f82e a6bd e5da 94bd 9442 03bd 424c 073d
00000220: 630e ea3c fcc5 8e3d 5179 67bc 7d79 7b3d
00000230: 2d58 ea3d 514d e8bd 42c7 503a 9532 48bd
00000240: ba6e 8e3b 73a1 043d 475e a33d e039 90bd
00000250: c502 1e3d 244d bc3d e7be 09be 9844 d3bd
00000260: c0d3 2dbd a50b 2ebd cc7d 593d 444d f13d
00000270: 9df9 a2bd 9990 a2bb 7a12 04bc 06cd ae3c
00000280: 77a0 1cbc 2465 bf3c f125 f4bc e629 233c
00000290: ddf4 00be c236 3a3d eb07 9e3c 7586 bbbd
000002a0: 06f6 fe3c c220 eabc 6b0f bb3d 6aba 67bd
000002b0: a18e 03bc 3d40 f7bd b5f5 a1bd 67f5 de3d
000002c0: 3230 a93d 5659 793d 2914 0abe 765b e3bc
000002d0: 67b7 da3d 93bd 893c 6a63 773d a586 dc3d
000002e0: edd7 e1bd 56bb a53d 207e ca3d faf2 f1bd
000002f0: 936f 9cbd e169 443c 7640 4c3c 4364 1f3e
00000300: 4d9a 9cbd 2a40 33bd 108a b63d fb0f 59bd
00000310: bc23 6a3d 7db2 bebd 738d ccbd d51f 973d
00000320: 56e6 0f3d d6ae 4bbd e14f f9bd 6eb0 c1bd
00000330: ea21 e53d 010d c2bd 7b65 babc a7bf dfbd
00000340: 9e00 d23c 4220 8e3c df9c 8ebd 5558 5f3d
00000350: ec3c a7bd c9f8 883d 1530 793d 6476 9cbc
00000360: 22d3 b0bd 6b1c b73d e4c6 f63d 06c9 01bd
00000370: b05f 2bbd 7b27 87bd 9872 a2bd 570e 283c
00000380: 92bf 4ebd 42e1 f7bd 4445 0fbb 7768 d8bd
00000390: 2ea0 adbb adc7 57b7 1c6d 45bd 5649 c0bd
000003a0: 3e2d a6bd 63ad 8f3d 2b71 5cbd ffd4 cfbd
000003b0: 5f01 fb3d 9ed5 dd3d 7dce dbbd 04db 37bd
000003c0: 326a cdbd 56ef 6c3c 3d34 f1bd 63a7 b63d
000003d0: 0dcf 973c ebe7 163d be35 96bd ad7f afbd
000003e0: bafd 3fbd 16f7 06bd f4a4 63bd 5e7c 9dbd
000003f0: cea2 00be d13c c13d 1839 793d cd6e d53b

bias_ih_l0 f4 [256]
-0.036731515 -0.048983518 -0.07193311 0.0831825 0.011203463 -0.09813722 -0.12917958 -0.008489937
-0.10041251 -0.058149926 -0.021929918 0.012564982 -0.08769755 -0.038798828 -0.070226595 -0.03529502
-0.06985222 -0.043540236 -0.008766262 -0.06270414 0.071118176 0.0010678832 0.14983222 0.07034015
-0.06414949 0.066868395 0.0020228964 -0.009243925 0.11081254 0.059827458 -0.005592489 0.08927373
-0.021437185 0.12623693 0.14246958 -0.093769625 0.005379516 0.02396119 -0.041579213 0.12818295
0.019428415 0.09996795 -0.106546775 0.13144138 -0.12151481 0.09270112 -0.084062845 0.05443057
0.007004025 0.08134673 -0.0015847215 0.044141177 -0.00076593476 0.13049848 -0.04243903 0.05312723
-0.09364896 0.03565367 0.10227204 0.040376507 0.04123908 0.010326042 0.057801846 0.09106934
-0.04185419 -0.11234626 0.05278676 -0.08100072 0.116447136 0.08480527 0.0885509 -0.010144036
-0.07780793 -0.040665265 -0.026860772 -0.06305298 -0.074019216 -0.083826445 -0.05146724 -0.10978375
-0.01548952 0.10552963 0.022704577 0.045365166 0.021329703 0.03560263 -0.0928687 0.061331682
-0.11344656 0.017651714 -0.014502933 0.072383545 0.06288349 -0.10515942 0.097900726 -0.052134
0.112541586 -0.05640648 -0.1062974 0.088966735 -0.08642156 -0.08237233 -0.01902036 0.10630368
0.020513533 -0.07896084 -0.09757846 -0.03328113 -0.11638718 0.08519038 -0.09634334 -0.033682067
0.07813642 -0.029776981 0.021263275 -0.045262847 0.038317494 -0.087030165 0.13642313 0.05616172
0.11111011 -0.015710266 0.07544353 -0.096751384 0.026073068 -0.08358711 -0.028379573 -0.02511202
0.08694153 -0.030591799 0.22303231 0.018927224 0.026597813 0.014619527 0.036700636 0.09418087
-0.018802028 -0.06381507 -0.109374225 -0.1039909 0.08598116 0.040572498 0.057440482 -0.06891695
-0.06387641 0.10112004 -0.007850401 -0.006335566 0.053146284 0.011429108 0.044930644 0.01744056
0.07783048 0.05946259 0.057427518 0.008305572 0.028621929 0.07859112 0.10927325 0.051461276
0.062745236 -0.09432684 -0.048233967 0.016021483 0.073667265 -0.0836021 0.051774662 -0.11415072
0.10169823 -0.03347443 -0.12152854 0.094977446 0.1009966 0.082788 0.14280042 -0.08373503
-0.027091635 -0.009640423 -0.040608414 0.08222025 0.09193087 0.053936712 0.028382251 -0.08778658
0.082287125 0.03194783 0.009813627 0.043686498 0.14720476 0.13950437 -0.04338439 0.04965928
0.036227345 -0.06979452 -0.0073748385 -0.090203404 0.13159963 -0.06278082 -0.032528587 0.019441048
-0.115051895 -0.06952061 0.1253536 0.10524562 -0.12159453 -0.092255585 0.12581989 -0.057043172
0.12356145 0.064139515 0.1161196 -0.11589331 0.12110675 0.0027688344 0.14816302 0.12408078
0.02857096 0.04598581 0.012697854 -0.03714033 0.089288786 0.031008916 -0.106573455 -0.100942545
0.052972045 0.010543264 0.024404664 -0.026560448 -0.06471369 -0.026771665 -0.109684594 -0.024343848
0.016555924 -0.03276459 0.09140375 0.11828206 -0.10782152 -0.06935404 0.032245625 0.08596928
-0.029978013 0.03717532 0.019552674 -0.103111856 0.14214097 -0.07978826 -0.10868214 0.018283032
-0.075909376 -0.10294218 0.14675026 -0.12996429 0.10102857 -0.029783592 -0.034961037 0.08274986
00000000: c973 16bd f1a2 48bd ab51 93bd 965b aa3d
00000010: bb8e 373c 2bfc c8bd a747 04be 6019 0bbc
00000020: 13a5 cdbd 9e2e 6ebd 5fa6 b3bc 5bdd 4d3c
00000030: c69a b3bd 85eb 1ebd f6d2 8fbd 8391 10bd
00000040: ae0e 8fbd 3f57 32bd 5ea0 0fbc 076b 80bd
00000050: 68a6 913d 37f8 8b3a 9e6d 193e 7f0e 903d
00000060: cf60 83bd 4cf2 883d 9292 043b d573 17bc
00000070: aff1 e23d a30d 753d 3341 b7bb 25d5 b63d
00000080: 099d afbc 4144 013e 8ce3 113e 4a0a c0bd
00000090: a746 b03b 424a c43c f74e 2abd 6442 033e
000000a0: 5728 9f3c ffbb cc3d 3235 dabd 9298 063e
000000b0: c2dc f8bd 16da bd3d 2429 acbd 97f2 5e3d
000000c0: 0582 e53b 1d99 a63d 6eb6 cfba 61cd 343d
000000d0: 03c9 48ba 65a1 053e 8cd4 2dbd f09b 593d
000000e0: 07cb bfbd 9509 123d 0174 d13d d661 253d
000000f0: 4fea 283d 8f2e 293c a1c1 6c3d 9082 ba3d
00000100: 4d6f 2bbd cc15 e6bd ee36 583d b5e3 a5bd
00000110: d67b ee3d 63ae ad3d 2d5a b53d 2c33 26bc
00000120: c459 9fbd 9f90 26bd 1f0b dcbc ec21 81bd
00000130: 6397 97bd 33ad abbd 50cf 52bd 4dd6 e0bd
00000140: c1c7 7dbc eb1f d83d f3fe b93c d3d0 393d
00000150: a1bb ae3c 10d4 113d f231 bebd ee36 7b3d
00000160: ac56 e8bd 549a 903c b69d 6dbc d33d 943d
00000170: 0fc9 803d d25d d7bd 2d80 c83d 768a 55bd
00000180: 347c e63d 7b0a 67bd 74b2 d9bd 3134 b63d
00000190: c9fd b0bd d3b2 a8bd 96d0 9bbc beb5 d93d
000001a0: ff0b a83c 39b6 a1bd 37d7 c7bd cb51 08bd
000001b0: 675c eebd 4b78 ae3d a84f c5bd 35f6 09bd
000001c0: fd05 a03d dbee f3bc 5230 ae3c 8965 39bd
000001d0: cef2 1c3d df3c b2bd 81b2 0b3e d509 663d
000001e0: b38d e33d d1b2 80bc 2382 9a3d 9725 c6bd
000001f0: 3097 d53c b82f abbd 477c e8bc b9b7 cdbc
00000200: 670e b23d a79b fabc 9562 643e 440d 9b3c
00000210: a8e3 d93c be86 6f3c 6853 163d e6e1 c03d
00000220: b606 9abc 7ab1 82bd 98ff dfbd 2ef9 d4bd
00000230: e416 b03d 592f 263d b646 6b3d 5424 8dbd
00000240: a3d1 82bd 0618 cf3d f89e 00bc 949a cfbb
00000250: ebaf 593d 2741 3b3c 3209 383d 81df 8e3c
00000260: 9665 9f3d 0b8f 733d 1e39 6b3d 1814 083c
00000270: 8978 ea3c 62f4 a03d a7ca df3d 0fc9 523d
00000280: 9380 803d 6e2e c1bd fb90 45bd 7c3f 833c
00000290: ddde 963d 9437 abbd ab11 543d dac7 e9bd
000002a0: 2947 d03d 7c1c 09bd f5e3 f8bd 8983 c23d
000002b0: 4ed7 ce3d c18c a93d 463a 123e 457d abbd
000002c0: 47ef ddbc ddf2 1dbc 0255 26bd 1763 a83d
000002d0: 4146 bc3d beec 5c3d e581 e83c 73c9 b3bd
000002e0: 2786 a83d badb 023d 56c9 203c 9df0 323d
000002f0: d8bc 163e 3cda 0e3e d5b3 31bd 8767 4b3d
00000300: 2063 143d 6ef0 8ebd a1a8 f1bb 90bc b8bd
00000310: 0ec2 063e 3b93 80bd b23c 05bd d542 9f3c
00000320: 54a0 ebbd d260 8ebd b25c 003e 048b d73d
00000330: 8e06 f9bd 7ff0 bcbd eed6 003e 1aa6 69bd
00000340: c90d fd3d 945b 833d 1dd0 ed3d 7959 edbd
00000350: d106 f83d 5575 353b 0cb8 173e 101e fe3d
00000360: a50d ea3c 9e5b 3c3d a90a 503c 7520 18bd
00000370: 0add b63d 6906 fe3c 2f43 dabd f7ba cebd
00000380: 37f9 583d a8bd 2c3c 4aec c73c 4c95 d9bc
00000390: 9c88 84bd 4050 dbbc 51a2 e0bd c06c c7bc
000003a0: 4aa0 873c 2a34 06bd e431 bb3d dd3d f23d
000003b0: 87d1 dcbd 7e09 8ebd fd13 043d a910 b03d
000003c0: 7394 f5bc 2645 183d ee2c a03c 4f2c d3bd
000003d0: 678d 113e 0768 a3bd be94 debd 4cc6 953c
000003e0: 6076 9bbd 5ad3 d2bd b345 163e 5c15 05be
000003f0: 11e8 ce3d b8fc f3bc 4e33 0fbd c278 a93d

bias_hh_l0 f4 [256]
-0.06430463 0.07026898 0.07935686 0.05468574 0.11800173 0.044362105 0.027181126 0.119580515
0.025536565 0.09346953 -0.09782923 0.046238057 0.014702011 0.029755393 -0.032219935 -0.09594751
0.015397121 -0.09759411 0.058906857 0.043706395 -0.11123316 -0.056410555 -0.014656479 -0.11041857
-0.09793051 0.06904786 -0.029957281 -0.117840335 0.054237213 0.029588597 -0.12293528 -0.043886796
-0.07830735 -0.1084122 0.05014673 -0.06900258 0.10642517 -0.09013041 0.10201974 -0.09832889
-0.12180903 0.06940274 0.08242178 -0.04611478 -0.12600505 -0.093436666 -0.06661545 -0.056689236
-0.017621886 0.094947554 -0.06552758 -0.022834161 0.030763086 -0.10393698 -0.089357615 0.12438513
0.118658744 0.009721497 0.09220613 0.02977932 0.054532554 -0.023215458 -0.06080465 -0.1292022
0.015530549 0.049658187 0.012828053 -0.11818699 0.055420537 -0.049395487 0.10659948 -0.07715355
0.07233832 0.09592782 -0.11574519 0.06729486 0.014443569 -0.015950339 -0.09262714 -0.064591676
0.026880259 0.09908094 -0.116180904 0.003750676 -0.02627201 -0.12797101 -0.044969805 -0.008590386
-0.13532431 -0.07217332 -0.11729713 -0.12907046 -0.12041225 -0.026323307 0.097626574 0.073065616
-0.054194197 0.04626832 0.048190586 0.0289013 0.056413315 0.107838966 -0.07738128 0.082943685
-0.071551174 -0.068622366 0.0016526574 -0.0032556667 0.06873613 0.00092963205 -0.07524145 0.021718483
-0.04260464 -0.064805016 -0.062658 0.088052675 -0.07234337 0.03321368 0.09468969 -0.07324419
-0.119733386 -0.12264728 -0.008394764 0.05005915 0.097200386 -0.11570477 0.049923815 0.038832873
-0.04300402 0.018662918 0.25843415 0.06769594 -0.028314969 -0.023428798 0.086192854 -0.027925951
-0.03060147 0.05129184 -0.001892945 -0.07861145 -0.05693874 0.008064901 -0.0070024393 0.12952335
-0.027684847 -0.11924432 0.04178089 -0.10002216 0.05182094 -0.07883513 -0.11850902 -0.18033944
0.016995942 0.019077241 -0.03486485 0.08335765 -0.00888969 -0.03814473 -0.10150606 0.03774056
-0.027963625 0.003237575 0.015472221 0.06914468 -0.07402053 -0.04925797 -0.06397826 0.030600455
0.054316834 0.097006276 0.06818911 -0.048887424 0.095831536 -0.09875603 -0.0032779544 -0.11857973
-0.021274814 -0.059948687 0.007819752 -0.045286793 0.03078464 -0.15567112 0.08072165 0.020504897
0.04637482 -0.039536186 0.057638496 0.0002897286 -0.06503645 -0.07271069 -0.07195715 0.020548878
0.06770472 -0.026976136 0.022989023 0.12579373 0.12348655 0.0042012576 0.029621135 -0.011785152
-0.041302625 -0.043990966 0.14484666 0.09823126 -0.0074295737 -0.12408752 0.037079405 0.021994866
0.11745052 -0.09120143 0.122724794 -0.0018821924 -0.0036401392 -0.073848754 -0.052265678 0.086753994
0.003960319 -0.115450144 0.07355133 -0.0036625536 -0.034455966 -0.039084397 -0.08271336 0.03836035
-0.0718341 0.1365342 -0.039416447 -0.06832772 -0.10693337 0.11784814 -0.06309433 -0.06821513
0.059973467 0.07514631 0.031842593 0.043336157 -0.020207202 0.03836129 -0.048575453 0.06437182
0.060180284 0.13902768 0.07631516 0.038321156 -0.036482085 0.06260315 0.0092973085 0.14256155
-0.028504992 -0.032720294 -0.07595719 0.0009373141 0.06822075 0.028316941 -0.06904796 0.069057725
00000000: 25b2 83bd 2fe9 8f3d d985 a23d 28fe 5f3d
00000010: e4aa f13d 0ab5 353d f4aa de3c a1e6 f43d
00000020: 0f32 d13c f46c bf3d b15a c8bd 1e64 3d3d
00000030: b4e0 703c 95c1 f33c 0df9 03bd 2180 c4bd
00000040: 3544 7c3c 6cdf c7bd 5148 713d 7a05 333d
00000050: 36ce e3bd c10e 67bd ba21 70bc 2223 e2bd
00000060: cb8f c8bd f768 8d3d f968 f5bc 4656 f1bd
00000070: d727 5e3d c963 f23c 7ec5 fbbd a4c2 33bd
00000080: 9b5f a0bd 3707 debd a866 4d3d 3a51 8dbd
00000090: 71f5 d93d 4b96 b8bd baef d03d a860 c9bd
000000a0: 0377 f9bd 0623 8e3d c0cc a83d dae2 3cbd
000000b0: 7807 01be b95b bfbd ae6d 88bd f932 68bd
000000c0: c65b 90bc dd73 c23d 5333 86bd b50e bbbc
000000d0: de02 fc3c e9dc d4bd 2001 b7bd a2bd fe3d
000000e0: 5b03 f33d ea46 1f3c 91d6 bc3d c3f3 f33c
000000f0: 875d 5f3d 582e bebc 4c0e 79bd 954d 04be
00000100: d873 7e3c 6266 4b3d c12c 523c 050c f2bd
00000110: a500 633d ec52 4abd d450 da3d ae02 9ebd
00000120: 1d26 943d ce75 c43d d00b edbd e3d1 893d
00000130: b8a4 6c3c 49aa 82bc 4cb3 bdbd a448 84bd
00000140: fd33 dc3c f3ea ca3d 41f0 edbd e7cd 753b
00000150: 6638 d7bc d50a 03be 4232 38bd b1be 0cbc
00000160: 7592 0abe 9bcf 93bd 7a39 f0bd 0c2b 04be
00000170: b39a f6bd faa3 d7bc 71f0 c73d 6da3 953d
00000180: bcfa 5dbd da83 3d3d 7e63 453d 6bc2 ec3c
00000190: a611 673d adda dc3d 147a 9ebd 61de a93d
000001a0: 6c89 92bd e289 8cbd fb9d d83a 065d 55bb
000001b0: 87c5 8c3d 8db2 733a 3018 9abd f6ea b13c
000001c0: 3482 2ebd 7eb8 84bd d652 80bd f654 b43d
000001d0: c328 94bd 110b 083d abec c13d 0d01 96bd
000001e0: c736 f5bd 7f2e fbbd 318a 09bc d30a 4d3d
000001f0: ff10 c73d 9ff6 ecbd ea7c 4c3d 380f 1f3d
00000200: fc24 30bd fae2 983c 7b51 843e 2ba4 8a3d
00000210: cbf4 e7bc c0ed bfbc e185 b03d f7c4 e4bc
00000220: efaf fabc 6417 523d b21c f8ba 0aff a0bd
00000230: 9938 69bd a622 043c b874 e5bb c5a1 043e
00000240: 55cb e2bc 5e36 f4bd 7022 2b3d 6bd8 ccbd
00000250: 3242 543d 5074 a1bd dbb4 f2bd e7aa 38be
00000260: 133b 8b3c e047 9c3c 72ce 0ebd 6ab7 aa3d
00000270: 10a6 11bc a63d 1cbd 69e2 cfbd d895 1a3d
00000280: f913 e5bc 7f2d 543b 337f 7d3c ba9b 8d3d
00000290: 1398 97bd bac2 49bd 0907 83bd cead fa3c
000002a0: 547b 5e3d 3aab c63d bba6 8b3d 2e3e 48bd
000002b0: 5343 c43d 9a40 cabd f3d2 56bb eed9 f2bd
000002c0: 8548 aebc c18c 75bd 6b1e 003c a57e 39bd
000002d0: 1230 fc3c 4068 1fbe 6451 a53d e3f9 a73c
000002e0: 86f3 3d3d b2f0 21bd 5816 6c3d b7e6 9739
000002f0: d531 85bd 58e9 94bd 455e 93bd 1f56 a83c
00000300: c6a8 8a3d 0ffd dcbc 7a53 bc3c 12d0 003e
00000310: 84e6 fc3d b4aa 893b 06a8 f23c 8316 41bc
00000320: f12c 29bd df2f 34bd af52 143e 792d c93d
00000330: c873 f3bb 9921 febd 93e0 173d 942e b43c
00000340: e689 f03d d1c7 babd 2357 fb3d e6b3 f6ba
00000350: 678f 6ebb 043e 97bd 8914 56bd 14ac b13d
00000360: 90c5 813b 2071 ecbd 14a2 963d 7407 70bb
00000370: b321 0dbd f616 20bd 9f65 a9bd be1f 1d3d
00000380: c21d 93bd 9fcf 0b3e 2473 21bd 67ef 8bbd
00000390: e2ff dabd 5e5a f13d 9a37 81bd 60b4 8bbd
000003a0: bda6 753d 4fe6 993d 616d 023d 4181 313d
000003b0: 9389 a5bc ba20 1d3d 0ef7 46bd 5fd5 833d
000003c0: 9a7f 763d 465d 0e3e 1f4b 9c3d a5f6 1c3d
000003d0: 3d6e 15bd 1536 803d bd53 183c a8fb 113e
000003e0: 4d83 e9bc b705 06bd 718f 9bbd 16b6 753a
000003f0: 52b7 8b3d eef8 e73c 0469 8dbd 236e 8d3d

weight_ih_l1 f4 [256, 64]
0.10465767 -0.046442438 -0.10459265 0.06754229 0.063064516 0.047184423 -0.10318413 0.012721973
0.031594332 0.042418905 0.11470234 -0.061888903 -0.04537299 -0.012802709 0.028087363 -0.066179864
-0.030240748 -0.08658879 0.019646436 -0.060141806 -0.008142599 0.01032957 -0.09262034 0.11163719
-0.0034804654 -0.05447069 -0.04560336 -0.05963252 0.07556745 0.06525507 -0.0919248 -0.09157833
-0.090647414 0.0025698247 0.11845356 0.049816463 0.107430205 -0.06751333 -0.0153821325 0.08982479
-0.027516887 0.03686216 0.02512071 0.10891858 0.0509475 -0.040364552 -0.12414374 0.017760605
-0.10450735 -0.060569882 -0.053879436 0.11547036 0.1260461 0.06788445 -0.07919384 -0.012349087
-0.017189197 -0.0011895677 -0.032370884 0.012633271 -0.11599917 -0.101981275 -0.026454777 -0.05704314
-0.075005926 0.06824406 -0.11967746 -0.11537927 -0.050331663 -0.053810474 -0.11078316 0.011630602
0.123333424 -0.094133206 -0.015562712 0.03190703 -0.009194421 0.091611326 -0.10641457 0.016313747
0.011880203 -0.022211028 -0.099533714 0.060282897 0.02508819 -0.063374445 -0.12707162 0.05964102
0.04456503 0.09129898 0.087100655 -0.05146129 -0.11195222 -0.007419777 0.092056595 -0.07282958
0.0894701 -0.11701512 0.08506003 0.105195396 -0.091639966 0.08058453 0.084199734 0.087160826
-0.079435065 0.015726602 -0.088406615 0.0888562 -0.116850145 -0.027303172 -0.09636565 -0.030449422
-0.06620482 -0.06379675 -0.031013785 -0.1203458 0.07647886 0.09482855 0.031922 -0.025869116
0.015734382 0.05848183 0.03852152 -0.028045284 -0.013912319 -0.10634993 0.09939011 -0.05563969
0.020817928 -0.07446206 0.108341746 -0.05694215 0.043010756 -0.09233807 -0.08077932 -0.120921515
-0.08313226 -0.09176945 -0.04967627 0.052915327 -0.054215293 -0.0014725359 0.0941622 0.08889199
-0.055750605 -0.08164249 -0.089403644 -0.079158574 0.11674927 0.057310052 0.059287183 -0.061854657
0.06018414 0.037207775 0.11903328 -0.06952127 -0.10211426 -0.015175547 0.06314484 0.01738746
0.0007301194 0.009705407 -0.036636237 0.054879725 -0.04321636 0.0872798 0.0023085473 -0.024017286
0.01458342 0.0704045 -0.044536028 0.03412945 -0.00983953 -0.06939255 0.09212026 -0.031718843
0.083256565 -0.04368048 0.055499934 0.06948583 0.0023112374 -0.087278515 -0.009449891 0.06773615
0.08181257 -0.08519983 -0.07071854 0.03229677 0.06358486 -0.014190869 -0.08801296 -0.028317763
0.06253601 0.0068023736 0.08518754 0.076844454 -0.031247834 0.024504606 -0.07076914 -0.06314809
-0.046189938 0.019781983 0.031020263 -0.11881422 -0.12507021 0.06873018 0.023476453 -0.07144898
-0.093332425 0.11512607 0.12415508 0.09346502 0.11854711 -0.031266637 0.034139305 0.0468782
0.031117694 0.05317878 0.11571082 0.08073192 0.07420757 -0.031353742 -0.071309716 -0.10153934
0.052109346 0.0611526 0.0379523 -0.07590456 0.094076246 0.031749483 -0.11528882 0.0007947021
-0.030255761 -0.039315786 0.025555609 0.08841782 0.01540635 0.111713156 -0.06852136 0.08139897
0.029392742 -0.09543252 -0.0076976367 0.04799172 -0.11216509 0.119183086 -0.09790228 -0.11028522
0.021506611 -0.059581578 -0.09918443 0.12132306 -0.016952755 0.05844181 -0.016208263 -0.100462385
00000000: c356 d63d 6d3a 3ebd ac34 d6bd 9d53 8a3d
00000010: f827 813d 7444 413d 3352 d3bd d26f 503c
00000020: 0f69 013d 72bf 2d3d 0fe9 ea3d 387f 7dbd
00000030: 07d9 39bd 74c2 51bc 7817 e63c 4f89 87bd
00000040: 72bb f7bc 7755 b1bd 90f1 a03c 4157 76bd
00000050: 8968 05bc 5b3d 293c bcaf bdbd 0aa2 e43d
00000060: 8518 64bb a91c 5fbd 97ca 3abd 3b41 74bd
00000070: 1bc3 9a3d 73a4 853d 1243 bcbd 6b8d bbbd
00000080: 5aa5 b9bd 816a 283b c897 f23d 590c 4c3d
00000090: 5e04 dc3d 6e44 8abd 5705 7cbc 0ff6 b73d
000000a0: 186b e1bc c7fc 163d f2c9 cd3c b410 df3d
000000b0: 53ae 503d 4d55 25bd 133f febd b07e 913c
000000c0: f307 d6bd 2018 78bd afb0 5cbd b97b ec3d
000000d0: 3b12 013e 0107 8b3d 6130 a2bd d353 4abc
000000e0: 5cd0 8cbc 45eb 9bba 5597 04bd c7fb 4e3c
000000f0: f990 edbd 8fdb d0bd b0b7 d8bc 11a6 69bd
00000100: b59c 99bd 8bc3 8b3d 7519 f5bd f74b ecbd
00000110: 9328 4ebd 5f68 5cbd 48e2 e2bd 488e 3e3c
00000120: 3c96 fc3d e9c8 c0bd bffa 7ebc f2b0 023d
00000130: 32a4 16bc b89e bb3d e2ef d9bd 68a4 853c
00000140: 2fa5 423c e7f3 b5bc 55d8 cbbd 33eb 763d
00000150: bf85 cd3c 76ca 81bd 101f 02be 244a 743d
00000160: d289 363d f6fa ba3d d461 b23d 13c9 52bd
00000170: 3547 e5bd 9a21 f3bb 2b88 bc3d ad27 95bd
00000180: 1a3c b73d a0a5 efbd f433 ae3d af70 d73d
00000190: bcad bbbd 8109 a53d e970 ac3d 6081 b23d
000001a0: daae a2bd 13d5 803c 870e b5bd 3dfa b53d
000001b0: 214f efbd e7aa dfbc 5b5b c5bd 1171 f9bc
000001c0: 6596 87bd dfa7 82bd 9f10 febc dc77 f6bd
000001d0: f3a0 9c3d 7935 c23d a5c0 023d 78eb d3bc
000001e0: 64e5 803c a58a 6f3d bec8 1d3d 39bf e5bc
000001f0: 7ff0 63bc fecd d9bd 0b8d cb3d 72e6 63bd
00000200: 5c8a aa3c 917f 98bd 47e2 dd3d 2c3c 69bd
00000210: 0c2c 303d be1b bdbd a16f a5bd b3a5 f7bd
00000220: 3f41 aabd 9ff1 bbbd 5879 4bbd bebd 583d
00000230: db10 5ebd 1b02 c1ba 1dd8 c03d 010d b63d
00000240: bf5a 64bd 2e34 a7bd 4219 b7bd e41d a2bd
00000250: 3e1a ef3d f2bd 6a3d 1ed7 723d 4f5b 7dbd
00000260: a583 763d 2e67 183d b8c7 f33d 2b61 8ebd
00000270: 4821 d1bd dca2 78bc 1552 813d 2670 8e3c
00000280: 7c65 3f3a 6d03 1f3c e10f 16bd 90c9 603d
00000290: a303 31bd c0bf b23d ff4a 173b e6bf c4bc
000002a0: 4cef 6e3c 3c30 903d 696b 36bd 52cb 0b3d
000002b0: fb35 21bc ae1d 8ebd 8ca9 bc3d 9eeb 01bd
000002c0: 6b82 aa3d 4eea 32bd e653 633d 964e 8e3d
000002d0: 2178 173b 14bf b2bd b7d3 1abc 40b9 8a3d
000002e0: 598d a73d 407d aebd e2d4 90bd 9e49 043d
000002f0: c738 823d d280 68bc 2440 b4bd a7fa e7bc
00000300: e112 803d 72e6 de3b ce76 ae3d a060 9d3d
00000310: 75fb ffbc e2bd c83c 69ef 90bd c953 81bd
00000320: a931 3dbd d30d a23c 351e fe3c df54 f3bd
00000330: 6812 00be 69c2 8c3d b151 c03c d853 92bd
00000340: 1225 bfbd 38c7 eb3d 0545 fe3d 976a bf3d
00000350: d4c8 f23d 7211 00bd a8d5 0b3d 5b03 403d
00000360: 89ea fe3c fed1 593d cbf9 ec3d c756 a53d
00000370: 23fa 973d c86c 00bd d40a 92bd dcf3 cfbd
00000380: 9c70 553d 267b 7a3d df73 1b3d da73 9bbd
00000390: 0cab c03d bf0b 023d 8b1c ecbd 8e53 503a
000003a0: eeda f7bc 9709 21bd ff59 d13c 6714 b53d
000003b0: ea6a 7c3c dec9 e43d ed54 8cbd 81b4 a63d
000003c0: 0cc9 f03c 2072 c3bd 753c fcbb f792 443d
000003d0: d0b6 e5bd 4316 f43d fe80 c8bd 38dd e1bd
000003e0: a22e b03c d00b 74bd 3521 cbbd 3978 f83d
000003f0: 81e0 8abc ae60 6f3d 31c7 84bc 39bf cdbd

weight_hh_l1 f4 [256, 64]
0.02257888 -0.057042066 -0.0123012485 -0.12081553 -0.052652854 -0.11626041 -0.009480899 0.013005088
0.09153218 -0.091539524 -0.10853774 -0.05566858 0.030623546 0.10215698 0.058949403 0.08386584
-0.029889613 0.08888673 -0.031650685 -0.1227271 0.06151741 0.029761128 -0.107377805 0.013572337
0.105119035 -0.06423544 -0.083211005 -0.0659209 -0.08050556 0.122798294 0.0057224045 -0.0038874454
0.025714092 0.08618903 0.05154803 0.09275106 0.11733002 -0.102460966 0.010766297 0.08172634
-0.0031605018 -0.01523318 -0.12475085 -0.024843408 0.0382504 -0.044386808 0.050323803 0.07631423
-0.016475951 -0.048282225 0.11851224 0.12123858 -0.11820618 0.004555927 0.030147882 -0.0090839695
0.040628865 0.053852785 0.059325077 -0.07648627 -0.081346355 -0.0652203 -0.009196137 0.042400926
-0.05063926 -0.016543323 -0.011353412 -0.103468366 0.08232887 -0.10224257 -0.009981124 -0.12452375
-0.09173368 -0.098394275 0.052802946 -0.06247474 -0.002729744 -0.044832125 0.12008785 -0.0923265
-0.062671624 -0.063922524 -0.002169109 0.067143306 -0.02762505 -0.009292505 -0.10542859 0.051652137
-0.11031166 0.08586296 -0.08445619 0.096243694 -0.1176212 -0.11831326 0.07968591 -0.077925116
-0.07123235 0.09769036 0.085263126 -0.07776557 -0.078266606 0.09259837 -0.041172627 0.118442185
-0.053691402 0.11800558 0.11688129 -0.019268274 -0.08231546 0.025518171 -0.10077418 0.10902271
0.00094476965 -0.10677507 -0.0257594 -0.0388338 -0.05815585 0.12509148 -0.0862295 -0.039315484
0.07627873 0.07152538 0.11069273 0.057586156 0.0064104646 0.0069454736 0.034406092 0.042902
-0.045337893 0.03362731 0.06579655 -0.07330832 -0.10122661 0.018685933 -0.079019904 0.066491336
-0.07081821 0.09194891 -0.03823565 -0.09761093 -0.0005135623 0.05607338 -0.0015457051 -9.157038e-05
0.05905884 0.031931475 -0.0030243725 -0.01557694 -0.10354232 0.10516047 0.007489868 -0.12405104
0.027045166 -0.008764828 -0.020681031 0.11138856 0.06608273 -0.082964376 0.003265469 -0.08651932
-0.042874124 -0.057150695 -0.027374445 -0.11789478 -0.11216552 -0.033852264 0.06586542 -0.10708409
0.03714 -0.113549516 0.007832271 -0.07794143 0.115591004 0.0531697 -0.08369723 0.112382516
-0.109417096 -0.003987689 -0.04870361 0.09827129 0.028316643 -0.025835656 -0.1142161 -0.05803905
-0.06178412 -0.025555361 0.028803991 -0.032759126 0.07277778 -0.08636216 -0.015191848 0.108555935
-0.043852396 -0.09947759 -0.042429704 -0.08664812 -0.09698167 -0.055370457 0.10333378 -0.041759033
0.004295873 0.053427327 -0.11403513 -0.07260851 -0.09616399 0.082153454 -0.046616144 -0.08183856
-0.06297936 -0.032986756 -0.06517275 0.03892533 0.11178531 -0.06743538 -0.06307999 -0.069823295
-0.029678818 0.1011454 -0.036474634 0.052947078 -0.042459443 -0.07663974 0.06523382 0.10893366
0.056073762 -0.00497346 -0.017613199 -0.048192587 0.019052854 -0.072817005 0.075822234 -0.050798364
-0.10986862 -0.06739516 -0.11014705 -0.028523166 -0.015296077 -0.0164972 0.09830652 0.06024872
-0.09688609 -0.12201438 0.008374223 -0.0032975608 -0.08990881 -0.06305782 0.06772666 -0.119515166
0.09973533 0.06721163 -0.008244761 -0.043198902 0.104991436 -0.07575242 0.117826775 -0.070876986
00000000: 58f7 b83c f1a4 69bd 2d8b 49bc 226e f7bd
00000010: 85aa 57bd f019 eebd c655 1bbc 4b13 553c
00000020: 3975 bb3d 1379 bbbd 0949 debd bd04 64bd
00000030: 3bde fa3c ae37 d13d ee74 713d dbc1 ab3d
00000040: 10db f4bc 3f0a b63d 26a4 01bd 5958 fbbd
00000050: aef9 7b3d 9ccd f33c e5e8 dbbd 825e 5e3c
00000060: a648 d73d df8d 83bd 886a aabd 8901 87bd
00000070: 19e0 a4bd ac7d fb3d 0283 bb3b 83c4 7ebb
00000080: 5ca6 d23c e083 b03d 0724 533d 45f4 bd3d
00000090: b94a f03d 0ed7 d1bd 1f65 303c 2460 a73d
000000a0: 6c20 4fbb 9694 79bc 607d ffbd 6784 cbbc
000000b0: 74ac 1c3d f1ce 35bd 5520 4e3d a34a 9c3d
000000c0: 93f8 86bc 95c3 45bd 8cb6 f23d ef4b f83d
000000d0: 1516 f2bd e349 953b b1f8 f63c eed4 14bc
000000e0: 746a 263d bd94 5c3d dafe 723d d5a4 9cbd
000000f0: eb98 a6bd 3892 85bd 65ab 16bc 98ac 2d3d
00000100: 1d6b 4fbd dd85 87bc a903 3abc 39e7 d3bd
00000110: 0a9c a83d 8d64 d1bd de87 23bc 4f06 ffbd
00000120: dede bbbd f082 c9bd e747 583d 83e5 7fbd
00000130: 81e5 32bb e4a1 37bd 9ef0 f53d ad15 bdbd
00000140: fb59 80bd d0e9 82bd 9c27 0ebb 6e82 893d
00000150: ee4d e2bc 973f 18bc f2ea d7bd 3191 533d
00000160: 14eb e1bd ebd8 af3d 5ef7 acbd 6a1b c53d
00000170: 62e3 f0bd 394e f2bd 5e32 a33d 3497 9fbd
00000180: 44e2 91bd e211 c83d 6f9e ae3d 8e43 9fbd
00000190: 3e4a a0bd 37a4 bd3d a1a4 28bd d191 f23d
000001a0: 84eb 5bbd e9ac f13d 755f ef3d 80d8 9dbc
000001b0: 0295 a8bd 7c0b d13c b162 cebd 4c47 df3d
000001c0: 6baa 773a e3ac dabd 6105 d3bc 3110 1fbd
000001d0: d434 6ebd fb17 003e 1899 b0bd 4609 21bd
000001e0: 0638 9c3d e67b 923d dfb2 e23d 76df 6b3d
000001f0: e00e d23b db96 e33b 67ed 0c3d 02ba 2f3d
00000200: 3ab4 39bd cabc 093d 57c0 863d ac22 96bd
00000210: e64f cfbd 3e13 993c 30d5 a1bd 9c2c 883d
00000220: 2309 91bd b64f bc3d fc9c 1cbd 3de8 c7bd
00000230: 95a0 06ba 33ad 653d 4299 caba 7909 c0b8
00000240: afe7 713d 94ca 023d 8d34 46bb 6c36 7fbc
00000250: ff0d d4bd 5f5e d73d 916d f53b 790e febd
00000260: d38d dd3c 5a9a 0fbc 446b a9bc af1f e43d
00000270: 6256 873d 3ae9 a9bd 7b01 563b 0b31 b1bd
00000280: c79c 2fbd d916 6abd 5f40 e0bc d272 f1bd
00000290: 09b7 e5bd aca8 0abd 73e4 863d e74e dbbd
000002a0: 1d20 183d a68c e8bd ed52 003c c29f 9fbd
000002b0: faba ec3d 79c8 593d 7469 abbd ce28 e63d
000002c0: 1216 e0bd 29ab 82bb 707d 47bd 7542 c93d
000002d0: 4ef8 e73c 4ca5 d3bc 21ea e9bd 5bba 6dbd
000002e0: 5811 7dbd 7a59 d1bc 59f6 eb3c 6f2e 06bd
000002f0: 840c 953d a5de b0bd 3be7 78bc 9352 de3d
00000300: 929e 33bd e8ba cbbd c5ca 2dbd 9274 b1bd
00000310: 539e c6bd 22cc 62bd a9a0 d33d 850b 2bbd
00000320: 65c4 8c3b 9dd6 5a3d 408b e9bd c5b3 94bd
00000330: a0f1 c4bd 1240 a83d 92f0 3ebd fa9a a7bd
00000340: 53fb 80bd 1f1d 07bd 4a79 85bd 2b70 1f3d
00000350: b2ef e43d 8f1b 8abd 1530 81bd 84ff 8ebd
00000360: fe20 f3bc 5225 cf3d 6d66 15bd 09df 583d
00000370: f4e9 2dbd 4cf5 9cbd 4f99 853d 9c18 df3d
00000380: 9aad 653d 68f8 a2bb 8e49 90bc 9765 45bd
00000390: bb14 9c3c 1521 95bd b048 9b3d f211 50bd
000003a0: cd02 e1bd 7906 8abd c794 e1bd 6aa9 e9bc
000003b0: 669c 7abc 2325 87bc ee54 c93d 5dc7 763d
000003c0: 376c c6bd ade2 f9bd 0934 093c e41b 58bb
000003d0: 1c22 b8bd 7524 81bd 46b4 8a3d 5ec4 f4bd
000003e0: 0942 cc3d 40a6 893d 0915 07bc 55f1 30bd
000003f0: c005 d73d 1624 9bbd 2a4f f13d f427 91bd

bias_ih_l1 f4 [256]
-0.033902846 -0.07696399 -0.020462617 0.067955375 0.07721735 0.09455583 0.00747593 0.011026474
-0.06866487 0.11773238 -0.05536107 0.08062386 0.099179626 0.12217057 0.05851616 0.06123193
-0.048625465 0.0720703 0.08252124 -0.05878154 -0.11736311 -0.001848371 0.08176441 -0.110331655
0.07050531 -0.10157976 0.06649998 0.005399712 0.11486787 -0.07243896 0.038071062 0.13413551
-0.06532482 -0.016292758 0.045254238 0.019382738 0.04157321 0.06548108 0.11374471 0.12108839
-0.030696386 0.00935446 -0.12005234 -0.089288495 0.11736555 -0.07382628 -0.07321075 -0.018781094
-0.09556802 -0.0008716157 0.068374485 -0.08004668 -0.031869564 0.06899545 0.08103433 -0.055383805
-0.05724788 0.111179344 0.0759551 -0.08901015 -0.09650091 0.07728587 -0.09990996 -0.009015981
0.033922873 -0.030965764 -0.10291222 0.08412933 0.022811217 -0.048991926 -0.050526667 0.04798183
-0.05854085 -0.09280516 -0.10769556 -0.1144567 -0.002070513 0.033399843 0.09660972 0.05916455
-0.035563435 -0.058208685 0.10526354 0.00030742364 -0.021458909 -0.105946206 0.08312988 -0.021234188
-0.02702995 -0.03849234 0.093049 0.08984721 0.041906014 -0.11946347 -0.0058644125 -0.06766935
0.031328406 0.015619584 0.040080443 -0.04874207 0.0027539656 0.08418775 0.059863526 0.09841064
0.024642456 -0.10111832 0.06604845 -0.03942924 -0.08223697 -0.106859 -0.098726064 -0.11375417
0.017340288 0.008377191 -0.1055925 0.034784473 0.113514684 -0.08250001 0.05444144 0.08218814
0.07419012 0.06439778 0.035553377 -0.0059521007 -0.13073733 -0.019013217 0.04794048 -0.0051622544
0.0475783 0.03664034 0.0093205 0.07692956 0.030283136 0.0074532107 0.019583147 -0.003909995
-0.14553076 0.087347545 -0.04525536 0.014257216 -0.026768144 -0.08470174 0.057559073 -0.07575832
0.013219122 -0.08043136 -0.053243738 -0.034384564 0.0067189443 0.0604464 0.12178005 0.028088879
-0.033306364 -0.033083577 0.12317731 0.031129532 0.07952158 -0.10241472 -2.2216187e-05 0.058053136
0.00032873923 -0.029288208 -0.019058786 0.07362096 0.08460572 -0.06145329 0.050352275 -0.14709857
0.053013213 0.02940703 0.047259845 -0.0016606309 0.014977772 -0.0463831 -0.015991298 -0.039846085
-0.12792386 0.06543461 -0.049815934 0.07542771 -0.1579571 -0.04066903 0.044991795 0.07404136
-0.10027346 0.08226274 -0.0026548682 -0.009640911 0.13739637 0.07151419 0.06438575 0.013924122
-0.09675963 -0.05275604 0.10397379 -0.040135033 0.0732745 0.047440603 0.07164628 -0.043275986
-0.008007694 0.06271695 -0.021515213 0.031328175 -0.057717524 -0.00689663 -0.046641957 0.10102344
-0.08937288 0.04538432 -0.08148343 -0.061832212 0.1154093 -0.016806545 0.038722195 0.043989588
0.10155622 -0.0065924013 -0.012998183 -0.04231135 -0.08341551 -0.007654778 -0.048600737 -0.0012808606
0.037140254 -0.11781322 -0.011723937 -0.1129484 0.06566722 -0.09500576 -0.00047181293 -0.10624567
-0.00046637838 -0.05133209 -0.005337911 -0.058432415 -0.047245037 0.014047652 0.0022752106 0.022724632
-0.034073874 0.045760944 -0.12245182 -0.09398295 0.041382264 0.044209138 0.118221514 0.08783468
-0.08569372 -0.023904527 0.050846156 0.117404625 0.11577724 -0.10323991 -0.046165824 -0.122937925
00000000: b6dd 0abd 4c9f 9dbd 38a1 a7bc 302c 8b3d
00000010: 2124 9e3d 7da6 c13d a5f8 f43b 62a8 343c
00000020: 2ba0 8cbd ad1d f13d 4ac2 62bd 1f1e a53d
00000030: b01e cb3d 9034 fa3d a4ae 6f3d 55ce 7a3d
00000040: 7f2b 47bd 9899 933d e500 a93d e9c4 70bd
00000050: 125c f0bd 0a45 f2ba 1974 a73d 90f5 e1bd
00000060: 1765 903d 0d09 d0bd 2431 883d 11f0 b03b
00000070: d93f eb3d e15a 94bd 67f0 1b3d d25a 093e
00000080: 05c9 85bd 6478 85bc 825c 393d 8cc8 9e3c
00000090: ac48 2a3d f21a 863d fdf2 e83d 31fd f73d
000000a0: fd76 fbbc 7343 193c 00de f5bd e3dc b6bd
000000b0: 595d f03d 3c32 97bd 85ef 95bd cfda 99bc
000000c0: 2bb9 c3bd 247d 64ba ec07 8c3d 84ef a3bd
000000d0: a989 02bd 7d4d 8d3d 54f5 a53d 21da 62bd
000000e0: c17c 6abd ffb1 e33d 598e 9b3d f44a b6bd
000000f0: 45a2 c5bd 0e48 9e3d 989d ccbd c4b7 13bc
00000100: b6f2 0a3d eaab fdbc a4c3 d2bd 004c ac3d
00000110: 97de ba3c c2ab 48bd 0df5 4ebd 9888 443d
00000120: 88c8 6fbd a210 bebd 7d8f dcbd 4668 eabd
00000130: 72b1 07bb 46ce 083d 51db c53d 8756 723d
00000140: f7aa 11bd 3b6c 6ebd 6994 d73d b42d a139
00000150: 98ca afbc 53fa d8bd 0040 aa3d 52f3 adbc
00000160: ea6d ddbc 25aa 1dbd 7990 be3d d001 b83d
00000170: a4a5 2b3d 44a9 f4bd 422a c0bb 3a96 8abd
00000180: 3752 003d 49e9 7f3c 642b 243d c4a5 47bd
00000190: e07b 343b a16a ac3d 7533 753d 858b c93d
000001a0: fade c93c 1f17 cfbd 6944 873d 8e80 21bd
000001b0: db6b a8bd e4d8 dabd e430 cabd f2f7 e8bd
000001c0: 380d 8e3c 7c40 093c e140 d8bd 2a7a 0e3d
000001d0: 637a e83d c4f5 a8bd fdfd 5e3d 4152 a83d
000001e0: fdf0 973d fce2 833d 6ba0 113d d709 c3bb
000001f0: 02e0 05be 9bc1 9bbc 3d5d 443d 2128 a9bb
00000200: 77e1 423d 2e14 163d 03b5 183c 3f8d 9d3d
00000210: 5714 f83c 103a f43b d66c a03c 6a1f 80bb
00000220: 0406 15be 45e3 b23d af5d 39bd 1997 693c
00000230: de48 dbbc 1b78 adbd 10c3 6b3d 2e27 9bbd
00000240: 0495 583c 32b9 a4bd 1b16 5abd d4d6 0cbd
00000250: 972a dc3b a596 773d d267 f93d a61a e63c
00000260: 416c 08bd a582 07bd 6344 fc3d 5c03 ff3c
00000270: 36dc a23d cfbe d1bd e65c bab7 20c9 6d3d
00000280: a25a ac39 d3ed efbc 2c21 9cbc 96c6 963d
00000290: c445 ad3d 72b6 7bbd 303e 4e3d 02a1 16be
000002a0: 6224 593d 03e7 f03c 8a93 413d 87a9 d9ba
000002b0: 5465 753c 35fc 3dbd 2f00 83bc a635 23bd
000002c0: 79fe 02be 9502 863d cb0b 4cbd d879 9a3d
000002d0: 82bf 21be 9294 26bd 5149 383d ffa2 973d
000002e0: 2c5c cdbd 5e79 a83d 4cfd 2dbb e9f4 1dbc
000002f0: a2b1 0c3e 0876 923d addc 833d 0022 643c
00000300: ea29 c6bd b816 58bd 36f0 d43d a264 24bd
00000310: f110 963d 1451 423d 49bb 923d 2942 31bd
00000320: b432 03bc bf71 803d ac40 b0bc f951 003d
00000330: 3669 6cbd 20fd e1bb a30b 3fbd 61e5 ce3d
00000340: 2109 b7bd e9e4 393d c9e0 a6bd c643 7dbd
00000350: b65b ec3d e1ad 89bc 2a9b 1e3d 6d2e 343d
00000360: b5fc cf3d 1205 d8bb 55f6 54bc ab4e 2dbd
00000370: c0d5 aabd efd4 fabb 9111 47bd 8de2 a7ba
00000380: 6120 183d 0f48 f1bd c115 40bc 7e51 e7bd
00000390: 897c 863d 6192 c2bd a95d f7b9 5497 d9bd
000003a0: 3f84 f4b9 9941 52bd a5e9 aebb d456 6fbd
000003b0: 0384 41bd 1f28 663c b31b 153b 0229 ba3c
000003c0: 0c91 0bbd d46f 3b3d 05c8 fabd 227a c0bd
000003d0: 7380 293d a414 353d 1f1e f23d abe2 b33d
000003e0: 3080 afbd 6dd3 c3bc 0f44 503d d671 f03d
000003f0: 9e1c ed3d 726f d3bd 6018 3dbd e1c6 fbbd
