models saved/FCSGD_G_L_DJIA.pth (torch, 351515 bytes, 15 tensors)

weight_ih_l0 f4 [256, 5]
0	0x3d1cc774	0.03827615
1	0xbcb51a22	-0.022107188
2	0xbdbdad0c	-0.09261522
3	0xbd8fa921	-0.07014681
4	0xbdd66e2e	-0.10470234
5	0xbdd888e8	-0.10572988
6	0xbd5303f3	-0.05151744
7	0xbdb2c262	-0.08728482
8	0xbd24f3bf	-0.040271517
9	0x3dd50fd4	0.104034096
10	0xbdc51e92	-0.096249714
11	0xbd7d1e27	-0.061796334
12	0xbda5a8bd	-0.08088825
13	0x3c8852d3	0.016641056
14	0x3cbb082b	0.022831043
15	0x3de461d0	0.11151469
16	0xbc9570e6	-0.01824231
17	0xbcb0032a	-0.021485884
18	0xbda523ea	-0.08063491
19	0x3ddfe0b3	0.1093153
20	0xbda3e34f	-0.0800234
21	0x3deb8f81	0.115019806
22	0x3de9e1d5	0.11420027
23	0x3dc25de4	0.094905645
24	0xbd9f97aa	-0.077925995
25	0xbdec8f10	-0.115507245
26	0xbd1a335e	-0.037646644
27	0xbdcbfdec	-0.09960541
28	0x3c818710	0.015811473
29	0xbd322466	-0.043491744
30	0xbd00e59e	-0.03146898
31	0x3d8e95ad	0.06962142
32	0xbc8a7041	-0.01689923
33	0x3b9fc494	0.004875729
34	0x3df3c67f	0.119030945
35	0x3ccbe264	0.024888225
36	0xbd40790f	-0.04699045
37	0xbda0c990	-0.07850945
38	0xbc86786f	-0.01641485
39	0xbce62697	-0.028094573
40	0xbdf032a2	-0.117284074
41	0x3db77f79	0.0895986
42	0xbdc4ec01	-0.09615327
43	0x3dce54df	0.100747816
44	0xbd6ff062	-0.058578856
45	0x3b1ce3b5	0.0023939435
46	0x3d8bd517	0.06827753
47	0x3a9cd7f3	0.0011966213
48	0x3db7b193	0.089694165
49	0xbd96f5ca	-0.07371099
50	0xbdbf0804	-0.09327701
51	0x3da2fc75	0.079583086
52	0xbdac02d4	-0.08398977
53	0xbd68a1b5	-0.05679484
54	0x3d303910	0.04302317
55	0x3d8dbe08	0.06921011
56	0xbde0adcb	-0.109706484
57	0x3d406c46	0.046978258
58	0x3d800e0e	0.06252681
59	0xbd8df24f	-0.06930982
60	0x3d0a64a7	0.033787396
61	0xbd99f5ed	-0.0751761
62	0xbcd93ab0	-0.026517242
63	0x3c1963b6	0.009362152
64	0xbc6f796f	-0.014616354
65	0x3d309b55	0.043116886
66	0x3d33c335	0.043887336
67	0xbd6dfc1b	-0.058101755
68	0x3d32d585	0.04366066
69	0xbc9b8a75	-0.01898692
70	0xbdc18940	-0.094500065
71	0x3dbab54c	0.09116611
72	0xbdb2a4de	-0.08722852
73	0xbde36099	-0.11102409
74	0x3d2403f9	0.04004285
75	0xbdce9f33	-0.100889586
76	0x3dd57f75	0.10424701
77	0xbc29b3bf	-0.010357796
78	0xbe0071cb	-0.12543409
79	0xbddd58b5	-0.10807935
80	0x3d2e7d83	0.042600166
81	0xbd3e42cf	-0.046450432
82	0x39ccc23d	0.0003905463
83	0x3caca5b2	0.021075103
84	0xbd2d7f64	-0.042357817
85	0x3d7c8cac	0.061657593
86	0xbd88fe11	-0.06689084
87	0x3c799365	0.0152328955
88	0xbd2467ac	-0.04013793
89	0xbde7898b	-0.11305531
90	0xbdc2d2ab	-0.09512838
91	0xbc35981c	-0.011083629
92	0x3d88ed6c	0.0668591
93	0xbdf51ca3	-0.11968353
94	0x3d90082d	0.070328094
95	0xbe03318a	-0.12811866
96	0xbd0af353	-0.03392346
97	0xbdd24f12	-0.10268988
98	0xbcbb7657	-0.022883577
99	0x3d99310b	0.07480057
100	0x3d8c6d79	0.06856818
101	0xbdbb972c	-0.09159693
102	0xbd39160c	-0.04518704
103	0xbc65200f	-0.013984694
104	0x3d7d93ba	0.06190846
105	0xbdaf26ee	-0.08552347
106	0xbdb44bb7	-0.08803504
107	0x3dd59aae	0.104298934
108	0x3d20f8e3	0.039299857
109	0x3dd994c4	0.10624078
110	0xbd778a7f	-0.060434815
111	0x3d8b9e93	0.06817355
112	0x3db238a6	0.08702211
113	0xbd72a9cb	-0.05924396
114	0x3cf0cdc7	0.029394997
115	0xbddf7530	-0.109110236
116	0x3cbd8e63	0.023139184
117	0xbdefade8	-0.11703092
118	0x3cb79674	0.022410609
119	0xbb887815	-0.0041647055
120	0x3db4fff3	0.08837881
121	0x3d9e22dd	0.077214934
122	0x3cb5141a	0.022104312
123	0x3d67ef51	0.056624714
124	0xbd28676d	-0.04111426
125	0x3ca96979	0.020680176
126	0x3ce48e89	0.027899997
127	0xbd1608fd	-0.036629666
128	0xbcbbfb3d	-0.022946948
129	0x3df60557	0.12012737
130	0xbde6eb8e	-0.11275397
131	0xbb568002	-0.0032730107
132	0xbbf26e93	-0.0073984354
133	0x3dd8eeac	0.10592398
134	0xbd2b12b8	-0.0417659
135	0x3d4b7b68	0.049678236
136	0x3db5d562	0.0887859
137	0x3cc2447d	0.023714298
138	0xbcc24332	-0.023713682
139	0x3ddc9828	0.10771209
140	0x3d33f254	0.043932274
141	0xbd8e459b	-0.0694687
142	0xbc31cbc3	-0.010851803
143	0xbb613712	-0.00343651
144	0xbdf2c9a6	-0.11854868
145	0xbd786104	-0.060639396
146	0x3cf6ddec	0.030135117
147	0xbd324c22	-0.043529637
148	0x3de116d3	0.109906815
149	0x3d95497c	0.07289407
150	0xbdc63123	-0.09677341
151	0xbca647ef	-0.020297972
152	0x3c7c5b33	0.015402603
153	0xbd3bd5b3	-0.045858096
154	0xbdacfc04	-0.08446506
155	0xbcb8b36f	-0.022546498
156	0xbd5af0b8	-0.053452224
157	0x3d99ee50	0.075161576
158	0x3c8b87e6	0.017032575
159	0x3d7eda82	0.062220104
160	0x3dded414	0.108802944
161	0xbc7254cf	-0.014790728
162	0x3d4c7f04	0.04992582
163	0xbd6137e2	-0.054984935
164	0xbd846b60	-0.06465793
165	0x3d8275e5	0.06370143
166	0xbd92424e	-0.07141553
167	0x3daa6f1a	0.08321972
168	0x3ce30c93	0.027715957
169	0x3d3d4dd3	0.046216797
170	0xbda4848f	-0.08033096
171	0x3d5913c1	0.052997354
172	0x3dc952dd	0.09830258
173	0x3d88e31b	0.06683942
174	0x3dcc378c	0.09971532
175	0x3da72d20	0.08162904
176	0xbd87bab7	-0.0662741
177	0xbdcc8a9e	-0.09987377
178	0x3dd9730e	0.10617648
179	0x3d638d0e	0.055554442
180	0xbdb89a12	-0.090137616
181	0xbd964986	-0.07338242
182	0xbde3c7f3	-0.11122122
183	0x3d514272	0.051088758
184	0x3d2905d4	0.041265324
185	0x3d12bbf8	0.035823792
186	0xbdf44a11	-0.119281895
187	0x3dcb86a8	0.09937793
188	0x3ca1749c	0.019708924
189	0xbdde5b49	-0.10857255
190	0xbcf69a81	-0.03010297
191	0x3d8d4cc7	0.0689941
192	0xbd594a9c	-0.05304967
193	0x3cbb014c	0.022827767
194	0x3d1e4ca3	0.038647305
195	0xbc161a57	-0.009161553
196	0xbdd21f6d	-0.102599
197	0x3d88ef1f	0.06686234
198	0xbcc62aa7	-0.02419026
199	0x3ddf0082	0.10888769
200	0xbdb21ea2	-0.08697249
201	0xbc8bf885	-0.017086277
202	0x3d24c116	0.040223204
203	0xbde1bc09	-0.11022193
204	0xba856345	-0.0010176679
205	0xbc86dc2a	-0.016462404
206	0x3d5277db	0.051383834
207	0x3d226d10	0.03965479
208	0xbd8c4562	-0.06849171
209	0x3dc92262	0.09821011
210	0x3d3b5046	0.04573085
211	0x3d21f5b1	0.03954095
212	0xbde35028	-0.11099273
213	0x3d0b549a	0.03401623
214	0xbdfdc121	-0.12390352
215	0xbda9e099	-0.08294792
216	0x3d7e7293	0.062120985
217	0xbd8492b9	-0.064732976
218	0x3dd96dd1	0.10616649
219	0x3d957031	0.072967894
220	0xbd190f27	-0.037367966
221	0xbd0b6ff7	-0.034042325
222	0x3c65e3eb	0.014031391
223	0xbcb51254	-0.022103466
224	0x3d82aab0	0.06380212
225	0xbcc15ba4	-0.023603268
226	0x3d6cd445	0.057819624
227	0xbccb4bf6	-0.024816494
228	0x3d4f6db4	0.05064173
229	0xbdbcff07	-0.0922833
230	0xbcdb9440	-0.02680409
231	0x3da49ac7	0.08037334
232	0x3df238d5	0.11827246
233	0xbd6f3fb0	-0.058410347
234	0x3d8a1892	0.06742968
235	0xbca73427	-0.02041061
236	0x3ccec63a	0.025241006
237	0xbd907ec4	-0.070554286
238	0x3dc16304	0.09442714
239	0xbd50d218	-0.05098161
240	0xbdfb0856	-0.12257449
241	0x3d24f83f	0.04027581
242	0x3b526886	0.0032105758
243	0x3d5aadf0	0.053388536
244	0x3d98292b	0.07429727
245	0x3d879401	0.066200264
246	0xbda1a994	-0.078936726
247	0x3d15acaa	0.03654162
248	0xbd0d0c92	-0.034435816
249	0xbd68245b	-0.056675296
250	0x3d6a75e0	0.05724132
251	0xbe00c5c4	-0.12575442
252	0xbcb002db	-0.021485737
253	0xbd6a6913	-0.057229113
254	0xbda9c185	-0.08288864
255	0x3c86c8e6	0.016453218

weight_hh_l0 f4 [256, 64]
0	0xbc71f47e	-0.014767764
1	0x3dd57624	0.10422924
2	0xbdf52e13	-0.119716786
3	0x3d97c473	0.074105166
4	0x3dbbe9e6	0.09175472
5	0x3d8c3b2e	0.06847225
6	0xbdf5c771	-0.12000931
7	0xbd7aa97d	-0.061196793
8	0xbcab3972	-0.020901415
9	0xbddd0fe3	-0.10794046
10	0x3cda60be	0.026657458
11	0x3d43b14b	0.0477765
12	0xbdcb0dc9	-0.09914739
13	0xbb895d33	-0.0041920184
14	0xbdd982c4	-0.10620645
15	0xbd46b947	-0.048516538
16	0x3db5d7a6	0.08879022
17	0x3d93f0b9	0.072236486
18	0xbdf52768	-0.11970407
19	0xbd474409	-0.048648868
20	0x3d77bcee	0.06048291
21	0x3a8807bc	0.0010378282
22	0xbdb5df7c	-0.08880517
23	0xbc5ae079	-0.0133591825
24	0x3da887de	0.082290396
25	0xbcd00761	-0.025394144
26	0x3cd4924f	0.025948672
27	0xbd9da3da	-0.07697268
28	0xbd9e319c	-0.07724306
29	0x3ba48e5e	0.0050218543
30	0xbd804e3b	-0.06264921
31	0x3cf77a3b	0.030209651
32	0xbd19ceb4	-0.037550643
33	0xbd9b19fd	-0.07573316
34	0x3d12d7d9	0.03585038
35	0x3befaf38	0.007314589
36	0xbcea31ea	-0.028588254
37	0x3def4dba	0.11684747
38	0xbcd9e087	-0.02659632
39	0xbdf65035	-0.12027017
40	0x3d4a48e4	0.04938592
41	0x3d39fed1	0.045409027
42	0xbdfe7e27	-0.124264054
43	0x3bfb6a9a	0.00767262
44	0x3dbbd9eb	0.09172424
45	0x3cd546c8	0.026034728
46	0xbd56845b	-0.052372318
47	0xbdc94783	-0.09828093
48	0xbcb3b820	-0.021938384
49	0x3ddc9003	0.107696556
50	0xbd8301a2	-0.06396796
51	0xbdf6703a	-0.12033124
52	0x3d76e7a5	0.060279507
53	0xbdae2b7b	-0.08504387
54	0x3de21b01	0.11040307
55	0x3d1c6508	0.03818229
56	0xbdf5fc1f	-0.12010979
57	0xbcae4b88	-0.02127625
58	0xbdb93bf1	-0.09044636
59	0x3d9192e1	0.07108093
60	0xbd8456a0	-0.06461835
61	0xbd6d5abe	-0.057947867
62	0xbcdfa7aa	-0.027301628
63	0x3cefa4d7	0.029253406
64	0x3d8c517d	0.0685148
65	0x3c8d37b8	0.017238483
66	0xbd0c12af	-0.034197506
67	0x3ccc2c42	0.024923448
68	0xbcdb589b	-0.026775649
69	0x3dbc4b71	0.09194077
70	0xbdc6eae5	-0.09712771
71	0x3d02c157	0.031922664
72	0x3b9d0d8d	0.004792875
73	0xbb29a38b	-0.0025884833
74	0x3d16cc9f	0.036816236
75	0xbd32bdc5	-0.04363801
76	0x3db36b63	0.08760717
77	0xbdd78680	-0.10523701
78	0x3d6d489a	0.057930566
79	0x3bcfc38c	0.0063404497
80	0xbd0a5a56	-0.033777557
81	0x3dc8a966	0.09797935
82	0xbda9a003	-0.08282473
83	0xbd16eb8d	-0.036845732
84	0xbda7e51e	-0.081979975
85	0x3de1efcd	0.110320665
86	0x3c2bcca8	0.010485806
87	0xbd971146	-0.073763415
88	0xbda484ec	-0.08033165
89	0xbd51a87d	-0.051186074
90	0xbdf32f28	-0.11874229
91	0x3d7b6571	0.06137604
92	0x3dee072b	0.11622461
93	0x3d7d6851	0.061867062
94	0x3d53869f	0.051642057
95	0xbdf6b81b	-0.12046834
96	0x3c0aa40d	0.008461964
97	0xbd2075f6	-0.039174996
98	0x3d8f7ccc	0.07006225
99	0xbdcb8340	-0.09937143
100	0x3d18d192	0.037309237
101	0x3dee6d89	0.11641986
102	0x3df4730c	0.11936006
103	0xb8ea467f	-0.000111711204
104	0x3d44788f	0.047966536
105	0x3dcf8f99	0.10134811
106	0xbd156cc9	-0.0364807
107	0x3da77dde	0.08178304
108	0xbdfba2b0	-0.122868896
109	0x3d9c0681	0.07618428
110	0x3dea217f	0.1143217
111	0x3df90e21	0.12160898
112	0x3afb4dba	0.0019172945
113	0x3c87fe76	0.016600829
114	0xbdd72a9c	-0.10506174
115	0xbd621b24	-0.055201665
116	0xbd23c239	-0.039980147
117	0xbdbbc61f	-0.09168648
118	0x3d62da6e	0.055384092
119	0xbd4a3193	-0.049363684
120	0x3d748987	0.05970147
121	0xbd4a3b3f	-0.049372908
122	0x3d311fbc	0.043243155
123	0x3d163935	0.03667565
124	0x3d95caac	0.07314047
125	0x3de37fec	0.111083835
126	0xbd897dd0	-0.0671345
127	0xbda5955e	-0.0808513
128	0xbdfcbe4f	-0.12340986
129	0xbcd0c6ec	-0.025485478
130	0x3dcf779f	0.10130238
131	0x3cf3c304	0.029756077
132	0xbd0fe86f	-0.035133775
133	0xbd4fad85	-0.05070259
134	0xbdf883bc	-0.12134501
135	0x3ddbbc2a	0.10729249
136	0x3de2e091	0.11077989
137	0x3d744a9f	0.059641477
138	0x3dfb491a	0.122698024
139	0xbd97012c	-0.073732704
140	0xbdf77ad4	-0.120839745
141	0xbd5e2656	-0.05423578
142	0x3dd00b84	0.101584464
143	0x3db45900	0.08806038
144	0xbdf21268	-0.11819917
145	0x3d81c937	0.06337207
146	0x3d350656	0.044195496
147	0x3bbb2865	0.0057116025
148	0xbd643f69	-0.055724535
149	0x3ddcbf33	0.10778656
150	0x3cebb302	0.028771881
151	0x3de76551	0.112986214
152	0xbda1d4d3	-0.07901921
153	0xbdf9fd4a	-0.12206514
154	0x3d97669d	0.07392619
155	0xbdaecab4	-0.08534756
156	0xbd650f36	-0.05592271
157	0xbc5f5da0	-0.013633162
158	0xbda955d6	-0.08268325
159	0x3bcc74d6	0.006239514
160	0x3cb236ab	0.021754583
161	0x3c9931b6	0.018700462
162	0x3cf96f2f	0.030448524
163	0x3cfe6124	0.03105218
164	0x3d80ce98	0.06289405
165	0x3d959aff	0.07304954
166	0x3d9f4b73	0.07778063
167	0x3c365c45	0.011130397
168	0x3c837641	0.016047599
169	0x3d8ed775	0.06974689
170	0x3db73bf5	0.08946983
171	0x3d77a6f7	0.060461964
172	0x3de6e541	0.112741955
173	0x3c510ca2	0.01275936
174	0x3d4c0550	0.049809754
175	0x3cbca3a9	0.023027258
176	0x3d5bb7d9	0.053642128
177	0x3d344086	0.044006847
178	0xbde6315f	-0.112398855
179	0x3d902f96	0.07040326
180	0x3d95518c	0.072909445
181	0xbb5a0ef9	-0.0033273085
182	0x3cebcfe1	0.028785648
183	0xbdfd0b77	-0.12355702
184	0xbd4d365c	-0.05010067
185	0xbc809eec	-0.01570078
186	0xbd9e6153	-0.07733407
187	0xbcfe42e2	-0.031037752
188	0x3df0c53f	0.11756372
189	0xbdaf800e	-0.08569346
190	0xbd166a18	-0.036722273
191	0xbdb37457	-0.087624244
192	0xbdc6e5df	-0.09711813
193	0x3cb78c32	0.022405718
194	0x3d6aa97d	0.057290543
195	0x3d83592a	0.06413491
196	0x3dd8e39e	0.105902895
197	0xbd6287f6	-0.055305444
198	0xbd67fe19	-0.05663881
199	0x3dd7a799	0.105300136
200	0xbc6ccb4c	-0.014452767
201	0xbdfb8ad1	-0.122823365
202	0x3da251b3	0.07925739
203	0x3cd19568	0.025583938
204	0xbbb73fb3	-0.0055923103
205	0xbd92ffa6	-0.07177667
206	0x3cec6a54	0.028859295
207	0xbd063cb9	-0.032772753
208	0x3dade0fb	0.08490177
209	0x3df9c2fd	0.12195394
210	0xb910620a	-0.00013769433
211	0x3d4777da	0.048698284
212	0x3bdaa814	0.0066728685
213	0xbc5e75ee	-0.013577921
214	0xbd7be337	-0.061495986
215	0xbbbee819	-0.005826008
216	0xbd239005	-0.03993227
217	0x3d48318b	0.048875373
218	0x3d357191	0.04429776
219	0xbdefe2e6	-0.11713199
220	0x3d9b80d1	0.07592929
221	0x3ccca591	0.024981292
222	0x3d47cab5	0.0487773
223	0x3df2d0e2	0.118562475
224	0x3c87881e	0.016544398
225	0x3d99d032	0.07510413
226	0x3c6156b5	0.013753583
227	0x3cf5aafe	0.029988762
228	0xbdc3287a	-0.09529205
229	0x3cdbeced	0.026846373
230	0x3d5f3de3	0.05450238
231	0xbd4c6706	-0.04990294
232	0x3da78ad6	0.08180778
233	0x3c15ac45	0.009135311
234	0xbc861903	-0.016369348
235	0x3dce404a	0.10070856
236	0xbceaeef6	-0.028678399
237	0x3db69b26	0.08916311
238	0xbdb77acf	-0.08958971
239	0xbd360fec	-0.044448778
240	0x3dbd375f	0.09239077
241	0x3dfac2f2	0.12244214
242	0x3cb8b44a	0.022546906
243	0x3d6278d4	0.055291012
244	0xbc873292	-0.016503606
245	0x3d8690a0	0.06570554
246	0xbd7e2bcd	-0.06205349
247	0x3dc72911	0.0972463
248	0xbdf4d8f3	-0.11955442
249	0xbd37f529	-0.044911537
250	0xbc716867	-0.014734364
251	0xbcd89f22	-0.026443068
252	0xbce5f546	-0.028071057
253	0x3d97c027	0.07409697
254	0xbdeba897	-0.11506765
255	0xbde2c469	-0.110726185

bias_ih_l0 f4 [256]
0	0xbdd448f5	-0.10365478
1	0xbdfa96ce	-0.12235795
2	0xbc870c2c	-0.016485296
3	0x3cd00d6b	0.025397023
4	0x3db48001	0.08813477
5	0x3d3a333d	0.04545902
6	0xbd1d6ca7	-0.038433697
7	0x3c664eee	0.014056904
8	0x3de39965	0.11113242
9	0xbddc4735	-0.10755769
10	0x3d04c925	0.03241839
11	0xbdd32c74	-0.10311213
12	0xbcb2041a	-0.021730471
13	0xbce39fae	-0.027786102
14	0x3d867cb8	0.06566757
15	0x3daf03e8	0.08545667
16	0xbdd82e27	-0.10555678
17	0x3d8b56f4	0.06803694
18	0x3cc5798c	0.02410581
19	0x3dba6ee7	0.09103184
20	0x3cd9c52e	0.02658328
21	0x3db12fd9	0.08651704
22	0xbdbd5d73	-0.0924634
23	0xbd9b8c2f	-0.07595097
24	0x3de3b298	0.111180484
25	0xbd0385b4	-0.03210993
26	0x3d86cf41	0.06582499
27	0xbd76f571	-0.060292665
28	0x3da0e237	0.07855647
29	0x3d0e1d59	0.034695957
30	0xbd929677	-0.07157605
31	0xbd99f01f	-0.075165026
32	0x3df5dac5	0.120046176
33	0xbbbf9913	-0.0058471053
34	0xbdc2cf24	-0.09512165
35	0xbd68939b	-0.056781393
36	0xbd45d57d	-0.0482993
37	0x3d80ed60	0.06295276
38	0xbdec87d6	-0.11549346
39	0x3dee8851	0.11647094
40	0x3de7999b	0.11308595
41	0xbd7c99a7	-0.06166997
42	0xbdebce14	-0.11513916
43	0x3d7b25d1	0.06131536
44	0x3dee53d9	0.116370864
45	0xbddb7b05	-0.107168235
46	0x3cea36ab	0.02859052
47	0xbd083028	-0.03324905
48	0x3ccf2a0f	0.02528861
49	0xbd5a0121	-0.053223733
50	0xbd44b149	-0.048020635
51	0xbd557496	-0.05211314
52	0x3cde95be	0.027171012
53	0xbd53a89d	-0.051674474
54	0xbd822cc7	-0.06356197
55	0xbd25d080	-0.040482044
56	0xbcd04722	-0.025424544
57	0x3da8201e	0.08209251
58	0x3dc5b08c	0.09652814
59	0xbc365eb5	-0.011130978
60	0x3d899727	0.06718283
61	0x3d9714bd	0.073770024
62	0x3db961df	0.090518706
63	0x3d3ae880	0.045631886
64	0x3d2ebfa9	0.04266325
65	0x3c1ee770	0.009698734
66	0x3dc52112	0.09625448
67	0xbd15cf87	-0.036574867
68	0xbdc7ba6a	-0.097523525
69	0x3d3240f3	0.04351897
70	0xbd3fafb1	-0.04679841
71	0x3c4bccf5	0.012439002
72	0x3d0973af	0.03355759
73	0xbc3004a4	-0.010743294
74	0xbc188834	-0.009309817
75	0xbc85ef5a	-0.016349483
76	0xbde63321	-0.11240221
77	0xbc8355bd	-0.016032094
78	0x3cc4ba17	0.024014516
79	0x3d5ce6f6	0.0539312
80	0x3dbb5b47	0.09148269
81	0x3de3eecb	0.111295305
82	0x3db39b8a	0.08769901
83	0xbd94ca5d	-0.0726516
84	0x3d84bdac	0.064814895
85	0xbde6f69e	-0.11277507
86	0xbdba829b	-0.09106942
87	0x3d86499f	0.06557011
88	0x3db755f0	0.08951938
89	0xbc187c2b	-0.009306948
90	0x3dde9739	0.10868687
91	0xbd8d2b68	-0.06893045
92	0x3d81ecaa	0.06343968
93	0xbd98c063	-0.0745857
94	0x3d9860b3	0.07440319
95	0xbbbbfc79	-0.005736884
96	0xbccff7c8	-0.025386706
97	0x3d87bfde	0.06628393
98	0x3d9be824	0.07612637
99	0x3d55acaf	0.052166637
100	0x3d92c9ad	0.07167373
101	0x3dde0c98	0.10842246
102	0x3d38b554	0.045094803
103	0x3dee9704	0.11649898
104	0x3c3e1979	0.011602753
105	0xbde5a4ee	-0.112130985
106	0x3d196140	0.03744626
107	0xbde94e4b	-0.11391886
108	0x3cb352cf	0.021890072
109	0x3dbd880c	0.092544645
110	0x3dae1bfb	0.085014306
111	0xbd90226f	-0.07037818
112	0x3de4bfce	0.11169396
113	0x3ceb0502	0.028688911
114	0x3ccebec3	0.025237447
115	0x3def4fd3	0.11685147
116	0x3d8bef76	0.06832783
117	0xbd04d8e6	-0.032433413
118	0xbde24187	-0.110476546
119	0x3df33a15	0.11876313
120	0xbda3fdab	-0.08007368
121	0xbd5496ad	-0.051901508
122	0x3db7e05d	0.08978341
123	0x3d25fb8e	0.040523104
124	0xbde28b7b	-0.1106176
125	0x3dd097f3	0.10185232
126	0x3d9e61e1	0.07733513
127	0xbce317e6	-0.027721357
128	0xbb23a2e1	-0.002496891
129	0xbda7c2fe	-0.08191489
130	0x3ced649e	0.028978642
131	0xbc9e06b2	-0.019290302
132	0x3dc34627	0.09534865
133	0xbc594ce0	-0.013262957
134	0x3da124f1	0.07868374
135	0x3e02b830	0.12765574
136	0x3d3893fc	0.045063004
137	0x3d0fd988	0.035119563
138	0x3d1ec77d	0.038764466
139	0x3d1c6516	0.03818234
140	0x3d80dac5	0.06291727
141	0xbca78826	-0.020450663
142	0x3c02ffa1	0.007995517
143	0xbd13b62d	-0.03606241
144	0xbdae61e1	-0.08514763
145	0x3d6a87d4	0.057258442
146	0xbdbfa6ef	-0.09358012
147	0x3dbe0a10	0.09279263
148	0x3d998294	0.07495609
149	0xbdd00bb3	-0.101584814
150	0xbd8f1da0	-0.069880724
151	0x3db02dd2	0.086024895
152	0x3deefade	0.11668943
153	0x3d225b23	0.039637696
154	0x3df2ab50	0.118490815
155	0xbd086742	-0.0333016
156	0x3cec1bee	0.028821912
157	0xbb97d12e	-0.0046330905
158	0x3d9b93d2	0.07596554
159	0x3d7c5696	0.061606012
160	0x3dc068c1	0.0939498
161	0xbcd9540b	-0.026529333
162	0x3d2c7a2e	0.042108707
163	0xbd7ce144	-0.061738268
164	0xbd8ddf65	-0.06927375
165	0x3db42d6d	0.08797727
166	0xbd113837	-0.035454
167	0xbdd1688f	-0.10225021
168	0xbd67e959	-0.056619022
169	0x3decdcbe	0.11565541
170	0x3db80d72	0.089869395
171	0x3be96e60	0.0071237534
172	0xbc2137cc	-0.009839963
173	0xbaeb2cd9	-0.0017942443
174	0xbd14e0e4	-0.036347285
175	0x3dc328e2	0.09529282
176	0xbdd9eb2b	-0.10640558
177	0x3d018e39	0.031629775
178	0xbde8dc8b	-0.1137019
179	0x3cc1b28a	0.023644704
180	0xbcc0c35b	-0.023530653
181	0x3dc4d575	0.09611026
182	0x3d347aad	0.044062305
183	0x3db9022f	0.090336196
184	0xbc968385	-0.01837326
185	0x3c61427c	0.013748761
186	0xbd1e2b43	-0.038615476
187	0xbd91a712	-0.07111944
188	0x3c906fa3	0.017631358
189	0x3bf30924	0.007416861
190	0x3da668bf	0.081254475
191	0x3c59d2ae	0.013294859
192	0xbda19f18	-0.07891673
193	0x3b16b1ee	0.0022994238
194	0xbd3af961	-0.045647983
195	0x3da6b1ec	0.08139405
196	0xbd3ffd6a	-0.046872534
197	0x3d18bf65	0.037291903
198	0x3df6e0ea	0.12054618
199	0xbd73248f	-0.059361037
200	0x3dd60ed1	0.10452045
201	0xbc4ebc84	-0.012618188
202	0xbd755f88	-0.05990556
203	0x3df3b2ca	0.11899336
204	0x3dbb09e7	0.09132748
205	0x3dee723d	0.11642883
206	0x3d8e3cfa	0.06945224
207	0xbd8c4cf5	-0.06850616
208	0xbded3457	-0.11582249
209	0x3de6f0f4	0.11276427
210	0xbdb6c553	-0.08924355
211	0xbd8ddff9	-0.06927485
212	0xbded952c	-0.11600718
213	0x3db3499a	0.08754273
214	0x3d8fb85b	0.07017585
215	0xbdd6bb3d	-0.104849316
216	0x3d8369da	0.06416674
217	0xbdb7f1a5	-0.08981637
218	0xbde6e93f	-0.11274957
219	0xbd89f97a	-0.06737037
220	0xbcd25919	-0.02567725
221	0x3d43cb77	0.04780146
222	0xbd3a3cb2	-0.04546804
223	0x3c0a97c9	0.00845904
224	0x3cf1f729	0.0295368
225	0x3d192222	0.037386067
226	0x3dbf3de8	0.093379796
227	0x3dae8584	0.0852156
228	0xbd6a9f85	-0.057281036
229	0x3de0e3b3	0.1098093
230	0x3d423f97	0.047423925
231	0x3e00d4fa	0.12581244
232	0x3ddf27c1	0.10896254
233	0x3de95acd	0.11394272
234	0x3d5bab3e	0.053630106
235	0x3d067f76	0.0328364
236	0xbd95e730	-0.07319486
237	0xbdd49914	-0.1038076
238	0x3d96c1bd	0.073611714
239	0x3dfa8328	0.12232047
240	0x3da076bd	0.078351475
241	0x3d502906	0.050820373
242	0x3dd5b2a6	0.10434465
243	0x3dcc3a1c	0.09972021
244	0xbce953ff	-0.028482435
245	0x3d223eda	0.03961072
246	0xbda3aabe	-0.07991551
247	0x3b82636a	0.0039791362
248	0xbdc3bfc0	-0.09558058
249	0x3dd60cfc	0.10451695
250	0xbcd87bce	-0.026426222
251	0x3c8dbf84	0.017303236
252	0xbcb925cc	-0.02260103
253	0xbdde3ea1	-0.10851789
254	0x3d35c51f	0.044377442
255	0xbda30209	-0.079593726

bias_hh_l0 f4 [256]
0	0xbca2440f	-0.019807843
1	0x3de793f9	0.113075204
2	0x3d27964c	0.04091482
3	0x3dff2762	0.124586836
4	0xbda8a3df	-0.08234381
5	0xbce5c119	-0.028046178
6	0xbd833f0b	-0.06408509
7	0xbda886db	-0.08228847
8	0xbd7a4eca	-0.061110295
9	0x3d00c175	0.031434495
10	0x3d135fdc	0.03598009
11	0x3d8a8bd1	0.06764949
12	0xbd2e31fe	-0.042528145
13	0xb9f65326	-0.00046982727
14	0x3db0b420	0.08628106
15	0x3d085897	0.03328761
16	0xbdba2152	-0.090883866
17	0xbcce9671	-0.02521822
18	0xbde82ae9	-0.113363095
19	0xbc9c0985	-0.019047508
20	0x3da71b67	0.081595235
21	0x3e015227	0.12628995
22	0x3ddaea3e	0.106892094
23	0x3dba634e	0.09100972
24	0xbdee1240	-0.11624575
25	0x3d64823d	0.055788267
26	0xbd608c3a	-0.05482123
27	0xbdc0d5b3	-0.0941576
28	0xbd00b3af	-0.03142136
29	0xbdadd43d	-0.08487747
30	0xbddb80fa	-0.1071796
31	0x3dd49c72	0.10381402
32	0xbde3f5dc	-0.11130878
33	0xbd532367	-0.051547434
34	0xbd0a36df	-0.033743735
35	0x3dd16587	0.10224443
36	0x3dfd1776	0.123579904
37	0x3e0779a7	0.1323
38	0x3ca4e4e4	0.020128675
39	0xbd905788	-0.07047945
40	0x3a4dc843	0.0007849971
41	0x3df71a51	0.12065566
42	0x3ca0bcd0	0.019621283
43	0xbc850886	-0.016239416
44	0xbdd337da	-0.10313387
45	0xbcc37cf6	-0.023863297
46	0x3cb7363e	0.022364732
47	0xbd0402c1	-0.03222919
48	0xbc9cfe2f	-0.019164173
49	0xbdb5d0de	-0.08877729
50	0x3cd405c8	0.025881663
51	0x3d4e7669	0.050405893
52	0x3dfd7a2d	0.12376819
53	0xbd98d252	-0.074619904
54	0x3d6df8ec	0.05809872
55	0x3d521a61	0.051294688
56	0x3dd0ca08	0.101947844
57	0xbd1d028b	-0.038332503
58	0xbdb6b658	-0.08921498
59	0x3c0e56bd	0.008687672
60	0xbdd116bb	-0.102094136
61	0xbdd11836	-0.10209696
62	0xbdc3457e	-0.09534739
63	0xbd17de41	-0.037077192
64	0xbcca8f3e	-0.024726506
65	0xbdf4c8c7	-0.11952358
66	0x3d8269ac	0.063678116
67	0xb9da2c56	-0.00041613233
68	0xbd8379f7	-0.06419747
69	0x3dcd3a8e	0.10020934
70	0x3d8eabaf	0.0696634
71	0xbcaf0dca	-0.02136888
72	0xbc044dd3	-0.008075195
73	0x3dcddb3d	0.10051582
74	0xbb4a622b	-0.0030881267
75	0xbdc1d396	-0.09464185
76	0x3dec08fc	0.11525151
77	0x3daa042e	0.083015785
78	0xbd16b032	-0.036789127
79	0x3db658e3	0.089036725
80	0x3d546217	0.05185136
81	0x3d796b60	0.060893416
82	0x3d422455	0.04739793
83	0x3d4e1670	0.050314367
84	0x3d8a708b	0.06759747
85	0x3d74fec0	0.05981326
86	0xbde80bce	-0.113303766
87	0x3cf39993	0.029736316
88	0xbdc99c99	-0.09844322
89	0xbda41bff	-0.08013152
90	0xbdc484f9	-0.09595675
91	0x3da840e3	0.08215501
92	0x3d025744	0.031821504
93	0x3b7c9de2	0.0038546254
94	0xbd9590a6	-0.0730298
95	0xbc8c67f8	-0.01713942
96	0xbdbf9a21	-0.0935557
97	0xbde2aba6	-0.110678956
98	0x3dfbb2df	0.12289976
99	0xbdaf5892	-0.08561815
100	0x3d720a1e	0.05909168
101	0x3e0ae146	0.13562497
102	0x3dd1ec05	0.10250095
103	0xbc613edd	-0.013747898
104	0xbd4ca041	-0.049957518
105	0xbd583a91	-0.05279023
106	0xbd9a326f	-0.07529151
107	0x3d91109c	0.07083246
108	0x3d238c65	0.039928813
109	0xbdde50f9	-0.10855288
110	0xbd43d32d	-0.047808815
111	0xbd82ef9d	-0.06393359
112	0x3dcf5119	0.1012289
113	0x3d87cdfd	0.06631086
114	0x3db69b16	0.08916299
115	0x3e005abb	0.12534611
116	0x3d7084c4	0.058720365
117	0xb8c0f041	-9.200024e-05
118	0xbd61a8b1	-0.055092517
119	0x3d6dbefa	0.058043458
120	0xbd8e7bfb	-0.06957241
121	0xbc879bae	-0.016553726
122	0x3deced45	0.11568693
123	0x3dcf707f	0.10128879
124	0xbd58a77b	-0.052894097
125	0xbcbcb599	-0.023035811
126	0xbd3272da	-0.043566562
127	0xbdf4b6f5	-0.11948959
128	0xbd804e62	-0.0626495
129	0x3cc6bad9	0.024259018
130	0x3c86861f	0.016421376
131	0xbc140a95	-0.009035726
132	0xbd8645f1	-0.06556309
133	0x3d66acd0	0.05631715
134	0xbe0053e0	-0.12531996
135	0xbcc41437	-0.02393542
136	0xbd0972e6	-0.03355684
137	0x3c3de3ed	0.011589986
138	0xbd0426b1	-0.03226346
139	0xbdc3c773	-0.09559526
140	0xbd201839	-0.0390856
141	0xbce6cab5	-0.02817283
142	0x3bfd4011	0.0077285846
143	0xbd1a24f9	-0.037632916
144	0x3dfc6f3c	0.12325904
145	0x3cea8b03	0.02863074
146	0xbdab0543	-0.08350613
147	0x3d76c114	0.060242727
148	0x3d6077df	0.054801818
149	0x3d9f551f	0.077799074
150	0x3dc10854	0.094254166
151	0x3d1c3624	0.03813757
152	0xba88de9e	-0.0010442322
153	0xbdfcad30	-0.123377204
154	0xbcf9fa26	-0.030514788
155	0xbddc9fe3	-0.107726835
156	0x3de40587	0.11133867
157	0xbd0a08de	-0.033699863
158	0xbcf6a575	-0.030108193
159	0x3d5ce33a	0.053927638
160	0x3d37a804	0.044837967
161	0x3df0c5ba	0.11756463
162	0x3dbf89fb	0.093524896
163	0xbd332094	-0.04373224
164	0xbdc3f438	-0.095680654
165	0x3b3f4e02	0.0029190783
166	0xbdbb9378	-0.09158987
167	0xbdf4589a	-0.11930962
168	0x3db94e72	0.090481654
169	0x3b55b716	0.0032610348
170	0xbc17d77f	-0.009267687
171	0xb9f420f0	-0.00046563847
172	0x3d6535a8	0.055959374
173	0xbe00d1ea	-0.12580076
174	0xbda46dc6	-0.0802875
175	0xbda194bf	-0.07889699
176	0xbd65d255	-0.05610879
177	0xbd05e1ab	-0.032685917
178	0xbd44ea2d	-0.04807489
179	0xbcc03693	-0.023463523
180	0xbdbb2660	-0.09138179
181	0xbdb260b1	-0.08709849
182	0x3e0047ff	0.12527464
183	0xbd2851aa	-0.041093506
184	0x3dff0985	0.124529876
185	0x3d292ab4	0.04130049
186	0xbd93e1ca	-0.072208
187	0x3d047d40	0.03234601
188	0xbdc80e65	-0.097683705
189	0x3de6380e	0.1124116
190	0x3d4440f7	0.047913518
191	0xbc264a3d	-0.010149536
192	0xbd8e27e7	-0.069412045
193	0x3de1f69d	0.11033366
194	0x3da6ad36	0.08138506
195	0x3d6155d8	0.055013508
196	0xbd860d57	-0.06545513
197	0x3d339e28	0.043852
198	0xbd9fc7d2	-0.078017846
199	0x3dac882a	0.08424409
200	0x3dad1060	0.08450389
201	0x3d42c807	0.047554042
202	0x3ccdcad6	0.025121134
203	0x3dbab8ba	0.09117265
204	0x3da63360	0.08115268
205	0x3d73eefb	0.05955408
206	0x3c0b564e	0.008504463
207	0x3d8e022b	0.06934007
208	0xbdad8fb6	-0.08474676
209	0x3b754c5f	0.0037429554
210	0x3d0f738a	0.035022296
211	0xbbf5bb17	-0.0074991095
212	0x3cd748f7	0.02627991
213	0x3dbd0e3e	0.09231232
214	0x3dd36392	0.10321726
215	0x3cac8683	0.021060234
216	0xbd6da661	-0.05802
217	0x3defe2b3	0.11713161
218	0x3df3f3d5	0.11911742
219	0x3df53f5d	0.11974976
220	0xbd435b07	-0.047694232
221	0x3da92f99	0.08261032
222	0xbdac86bb	-0.08424135
223	0x3db398fe	0.08769415
224	0xbbd35e62	-0.0064504603
225	0x3de785b0	0.11304796
226	0x3d8c428d	0.06848631
227	0x3d38e55d	0.045140613
228	0x3d5b3b4f	0.053523358
229	0xbc83ca06	-0.016087543
230	0x3dc3adda	0.09554644
231	0x3d591a24	0.053003445
232	0x3dd4860a	0.103771284
233	0x3d2213bf	0.039569613
234	0xbddb88d7	-0.107194595
235	0x3da0a701	0.078443535
236	0x3d3afb3f	0.045649763
237	0xbb9c07f8	-0.004761692
238	0xbd548bdf	-0.051891204
239	0xbcac638b	-0.02104356
240	0xbdea1128	-0.114290535
241	0xbdacb04f	-0.08432066
242	0x3b0792d5	0.0020686884
243	0x3db9daaf	0.09074914
244	0xbd6a167f	-0.05715036
245	0xbdc7a2a2	-0.097478166
246	0xbd72b07d	-0.059250344
247	0xbda61c4e	-0.081108674
248	0xbd7b86fe	-0.061408035
249	0x3df8135b	0.12113067
250	0xbd150769	-0.03638402
251	0xbdf1f581	-0.11814404
252	0xbd98aff2	-0.07455434
253	0x3d57a334	0.052645877
254	0xbce2abae	-0.027669754
255	0xbd80c9eb	-0.06288513

weight_ih_l1 f4 [256, 64]
0	0xbcd1d6f8	-0.0256152
1	0x3dac3b3c	0.084097356
2	0x3bc3cd4e	0.005975402
3	0xbd258ae8	-0.040415674
4	0x3d22caac	0.039744064
5	0xbca14383	-0.019685512
6	0xbdc8ea61	-0.09810329
7	0x3bf2e93b	0.007413057
8	0xbd2cb44b	-0.04216413
9	0xbd043188	-0.0322738
10	0x3ac7b2e3	0.0015235808
11	0xbb108980	-0.0022054613
12	0x3c558377	0.013031832
13	0xbdbbc8c8	-0.09169155
14	0xbc305db8	-0.010764532
15	0xbc942181	-0.018082382
16	0x3df03015	0.11727921
17	0x3dc8381b	0.09776326
18	0x3d14696e	0.036233358
19	0xbdcfe3aa	-0.10150845
20	0x3d18d07e	0.03730821
21	0xbd96f6f7	-0.073713236
22	0x3cd71a22	0.026257578
23	0x3d9eecb7	0.077599935
24	0xbcee4181	-0.02908397
25	0xbcbf55ad	-0.023356283
26	0x3d98917a	0.074496225
27	0xbdc07707	-0.09397703
28	0xbd2339c7	-0.039850023
29	0x3be812c4	0.007082315
30	0x3d204415	0.039127428
31	0xbdc19997	-0.09453123
32	0xbced711e	-0.028984603
33	0x3dc4b4cf	0.09604799
34	0xbd891a3e	-0.066944584
35	0x3c7fbb5f	0.015608638
36	0x3dbe715d	0.09298966
37	0x3d58e362	0.052951224
38	0x3d91054f	0.07081091
39	0x3ddbc1b8	0.10730308
40	0x3d4b0250	0.049562752
41	0x3db03aff	0.086050026
42	0xbd7de2df	-0.06198394
43	0xbdfc1069	-0.123078175
44	0x3dae8af4	0.08522597
45	0x3d54a956	0.051919304
46	0xbded15ad	-0.115764
47	0x3c48a8d7	0.012247286
48	0xbd9ea59f	-0.077464335
49	0xbd9359a7	-0.07194834
50	0x3dd12b6d	0.10213361
51	0xbd81b055	-0.06332461
52	0xbdc9ef85	-0.09860138
53	0x3caf0e5d	0.021369154
54	0x3d96d654	0.073650986
55	0x3c920bcd	0.017827893
56	0xbde1e88d	-0.11030684
57	0xbdef5767	-0.116865925
58	0x3d1a128e	0.03761535
59	0x3d91c689	0.07117946
60	0xbdae0ca8	-0.08498508
61	0xbdc3e2ba	-0.09564729
62	0x3d4ae015	0.049530108
63	0x3dc843c7	0.097785525
64	0x3da50c66	0.080590054
65	0xbd1eb3c4	-0.038745657
66	0xbdf68398	-0.12036818
67	0xbbba34b7	-0.0056825536
68	0xbd676583	-0.056493293
69	0x3df7113b	0.12063833
70	0xbd96f86b	-0.07371601
71	0xbda2fe03	-0.07958605
72	0x3cc928ec	0.024555646
73	0xbdae1ade	-0.08501218
74	0x3dabc34c	0.08386859
75	0xbcff5f71	-0.03117344
76	0xbaba5279	-0.0014215253
77	0x3d9aced2	0.07558979
78	0xbdf00bc7	-0.11720996
79	0x3d7ec357	0.06219801
80	0xbde205c4	-0.11036256
81	0x3c3055b4	0.010762621
82	0xbd4dbe39	-0.05023024
83	0x3d292c89	0.041302238
84	0xbdc589ba	-0.0964541
85	0x3db8cff5	0.0902404
86	0xbd1ef379	-0.038806412
87	0xbd980d3b	-0.074243985
88	0xbdf7ff99	-0.12109298
89	0x3dbe2352	0.092840806
90	0xba40d20e	-0.00073555193
91	0xbd57a9c5	-0.05265214
92	0xbc35d6f9	-0.011098617
93	0x3dd10c19	0.102073856
94	0xbd2800be	-0.041016333
95	0xbd9605d2	-0.07325329
96	0x3c758d56	0.01498731
97	0x3dbb47de	0.09144567
98	0xbd6a43c0	-0.057193518
99	0xbd7c09bb	-0.061532717
100	0x3d906c8d	0.070519544
101	0xbcb653df	-0.02225679
102	0x3dda1cc9	0.106500216
103	0xbdb0fdd4	-0.08642164
104	0x3d2a3e40	0.041563272
105	0x3b4a0ea9	0.0030831492
106	0x3dd5d05a	0.104401305
107	0x3c779aa4	0.015112553
108	0xbdb797c5	-0.089644946
109	0x3dd96e73	0.1061677
110	0xbd6e6722	-0.058203824
111	0xbd26834b	-0.040652554
112	0xba87ede1	-0.0010370576
113	0xbcff5c95	-0.031172076
114	0x3c673a6f	0.014113053
115	0x3dae72cf	0.08517992
116	0xbdbf81f2	-0.09350957
117	0xbdb1dcda	-0.08684702
118	0x3dd1fc64	0.10253218
119	0x3cc5fcbe	0.024168368
120	0xbd912739	-0.07087559
121	0xbde428a8	-0.11140567
122	0x3d9c1bac	0.076224655
123	0xbd663281	-0.056200508
124	0xbd5c8f8f	-0.053847846
125	0x3d88752d	0.066629745
126	0xbd983594	-0.07432094
127	0x3d3447f2	0.044013925
128	0x3d16628c	0.036715075
129	0x3d2381e1	0.039918784
130	0x3d1a74d2	0.037709065
131	0x3de18097	0.11010855
132	0xbd2f2a49	-0.042764936
133	0xbd95a4ca	-0.07306822
134	0x3d490727	0.049079087
135	0x3dec7b07	0.11546903
136	0xbdb28575	-0.08716861
137	0xbd8be9ef	-0.06831729
138	0xbd9af25a	-0.07565756
139	0xbdfa99fb	-0.12236401
140	0xbd947954	-0.07249704
141	0x3d2ef4a0	0.04271376
142	0xbdaf3bce	-0.08556329
143	0xbd4ba79d	-0.049720395
144	0x3d94ed9f	0.07271885
145	0xbdeb52f9	-0.11490435
146	0xbd361745	-0.044455785
147	0x3dc36fb6	0.095427915
148	0xbd67e6d1	-0.056616608
149	0xbd75ae74	-0.059980825
150	0x3dab6177	0.08368199
151	0x3d95a397	0.07306593
152	0xbdf09e4c	-0.11748943
153	0xbd7bbd10	-0.0614596
154	0x3dcfda5e	0.10149072
155	0xbc43a211	-0.011940495
156	0x3de3ce47	0.11123329
157	0xbd93b862	-0.072129026
158	0xbbd9ed29	-0.006650586
159	0x3c7f9913	0.015600461
160	0xbd316926	-0.043313168
161	0x3d70302f	0.0586397
162	0xbdb2be2a	-0.08727677
163	0x3d4a3ff5	0.0493774
164	0x3d7924fa	0.06082628
165	0xbd960344	-0.073248416
166	0x3d183080	0.03715563
167	0xbcefc030	-0.029266447
168	0xbddb0c65	-0.106957234
169	0x3df49ce3	0.11943986
170	0xbd6366f1	-0.055518094
171	0xbd0e5062	-0.034744628
172	0x3d8cf544	0.06882718
173	0x3def8f09	0.11697204
174	0x3d52ee9f	0.051497098
175	0xbd6c8e61	-0.05775297
176	0x3d79ad53	0.06095631
177	0x3dfba592	0.122874394
178	0x3db167fc	0.086624116
179	0x3c59a09c	0.013282921
180	0x3da1f9ce	0.079089746
181	0xbde467e0	-0.11152625
182	0x3d428776	0.047492467
183	0x3d8dc2e7	0.0692194
184	0x3dfef782	0.12449552
185	0xbc400f7d	-0.011722443
186	0x3dcfbc3a	0.10143323
187	0xbd65f646	-0.056143068
188	0xbca88a2c	-0.020573698
189	0x3d61a808	0.055091888
190	0x3de3c173	0.11120882
191	0x3cbe4e0b	0.023230573
192	0x3cc8b7bf	0.02450168
193	0x3dcbe173	0.099551104
194	0x3d016c4b	0.031597417
195	0xbc37ccb2	-0.011218237
196	0x3dd45284	0.10367301
197	0xbdcb4c29	-0.09926636
198	0xbb83db37	-0.004023935
199	0x3ab0b61b	0.0013482006
200	0xbd66042d	-0.056156326
201	0xbdb259aa	-0.08708508
202	0xbd1c007a	-0.038086392
203	0xbd87294e	-0.06599675
204	0x3b360cb2	0.0027778563
205	0xbcc753c6	-0.024331938
206	0x3ce450f8	0.02787064
207	0xbcc57864	-0.024105258
208	0xbdb6c865	-0.08924941
209	0xbd19011f	-0.037354585
210	0xbd933137	-0.07187121
211	0xbdd01f71	-0.10162247
212	0x3b26326b	0.0025359641
213	0xbdfa5bc6	-0.12224536
214	0xbd2fd49c	-0.04292737
215	0x3df72b1b	0.120687686
216	0x3da74053	0.08166566
217	0xbddf7961	-0.10911823
218	0x3d9f7d53	0.077875756
219	0x3cee5369	0.029092507
220	0xbc434300	-0.0119178295
221	0x3d2a052b	0.041508835
222	0x3d6bdd67	0.057584193
223	0xbddc8742	-0.10767986
224	0x3d620954	0.055184677
225	0xbdbff7e8	-0.09373456
226	0x3da76e8f	0.08175384
227	0xbd43c3de	-0.047794215
228	0xbd59404e	-0.05303984
229	0xbd200cf7	-0.039074864
230	0xbdfdf258	-0.12399739
231	0xbc1caf02	-0.0095632095
232	0xbd0b845b	-0.03406177
233	0x3d563b38	0.05230257
234	0x3d8686e2	0.065686956
235	0x3d40caf8	0.047068566
236	0x3cf7f655	0.030268827
237	0x3da5c3d9	0.080939956
238	0x3d92f76e	0.071761
239	0x3d4e2217	0.05032548
240	0x3beb382c	0.007178327
241	0x3b38a14f	0.002817232
242	0xbde01f2b	-0.10943445
243	0xbda27b9e	-0.07933734
244	0x3db47dd1	0.0881306
245	0xbd149357	-0.036273327
246	0x3d635e47	0.05550983
247	0xbdf65d09	-0.12029464
248	0x3de8c634	0.11365929
249	0xbdf33edd	-0.118772246
250	0x3dc70dea	0.09719451
251	0xbcafef98	-0.021476552
252	0x3d324a2a	0.04352776
253	0xbd769925	-0.060204644
254	0xbcbfd1c4	-0.023415454
255	0x3d2b278f	0.041785773

weight_hh_l1 f4 [256, 64]
0	0xbd7263bd	-0.05917715
1	0x3d66f8eb	0.05638973
2	0x3c9c09e6	0.019047689
3	0x3c54161f	0.012944727
4	0x3d9c271b	0.07624646
5	0xbd6ff005	-0.05857851
6	0x3dbf1922	0.093309656
7	0x3ae52200	0.0017481446
8	0x3df6ff97	0.12060469
9	0xbb886876	-0.0041628433
10	0x3de816f2	0.113325015
11	0xbdaf9454	-0.08573213
12	0xbc94ac26	-0.018148493
13	0xbddc7568	-0.10764581
14	0xbdf9eb60	-0.12203097
15	0x3d7e6a6b	0.062113207
16	0x3d2877b3	0.04112978
17	0x3dad1591	0.08451379
18	0x3d1d9753	0.038474392
19	0xbd3933b3	-0.04521532
20	0xbd880579	-0.06641669
21	0x3d312406	0.043247245
22	0x3df0e827	0.117630295
23	0xbbda03d5	-0.006653289
24	0xbae5f1ec	-0.0017543412
25	0xbd2a8030	-0.041626155
26	0x3d9d6c3a	0.07686658
27	0x3de41ce6	0.111383244
28	0xbd890f9c	-0.066924304
29	0xbd8f51b4	-0.069980055
30	0xbd4dd30d	-0.0502501
31	0x3be04c0a	0.006845002
32	0x3db44845	0.08802847
33	0x3d35c4bf	0.044377085
34	0xbdcf1718	-0.10111827
35	0xbbd2096f	-0.006409816
36	0xbddcba6f	-0.10777747
37	0xb99600ea	-0.0002861091
38	0xbd46e997	-0.048562612
39	0xbdfc9886	-0.12333779
40	0xbd8606f7	-0.06544297
41	0xbad245f7	-0.001604258
42	0xbd9968b2	-0.07490672
43	0xbca2877b	-0.019839993
44	0x3d8d338a	0.06894596
45	0x3da3e382	0.08002378
46	0xbd268670	-0.040655553
47	0x3d79f42c	0.061023876
48	0x3d97ca14	0.0741159
49	0x3dac5734	0.0841507
50	0x3d1ca2f1	0.03824133
51	0xbd52d799	-0.05147514
52	0x3dde47d4	0.10853544
53	0x3dd77480	0.105202675
54	0x3dceb580	0.10093212
55	0x3dbb725b	0.09152671
56	0x3d5482bb	0.051882487
57	0x3d45d0c9	0.048294816
58	0xbc11439c	-0.008866217
59	0x3dcce941	0.10005427
60	0x3b6da5f0	0.0036262237
61	0xbd3e306d	-0.0464329
62	0x3dc45da5	0.09588174
63	0x3dc0022e	0.09375416
64	0x3ca07394	0.019586362
65	0xbd6d76c2	-0.057974584
66	0x3d8f7ce6	0.07006244
67	0xbcd5226e	-0.026017394
68	0xbd956f2f	-0.07296597
69	0xbdd56753	-0.10420098
70	0x3d8926ac	0.06696829
71	0xbdd7f405	-0.1054459
72	0xbbec0409	-0.0072026295
73	0x3defd2df	0.11710142
74	0xbde319fd	-0.11088941
75	0x3cc12b48	0.023580208
76	0x3c9a2256	0.0188152
77	0xbd0c9590	-0.03432232
78	0xbdf4390a	-0.11924942
79	0xbd4ab968	-0.049493223
80	0x3de983ca	0.1140209
81	0x3d9d4773	0.076796435
82	0xbda2af67	-0.079436116
83	0xbab75252	-0.0013986325
84	0x3dca1da7	0.09868937
85	0xbde1dc96	-0.110284016
86	0xbd908dad	-0.070582725
87	0x3dca52a0	0.09879041
88	0xbc98da65	-0.018658826
89	0xbd928942	-0.07155086
90	0x3d15f69f	0.03661215
91	0xbbd90a6a	-0.006623556
92	0xbd7d4d98	-0.061841577
93	0x3df3a2f3	0.118963145
94	0x3ddcf294	0.107884556
95	0xbbc63fc8	-0.006050084
96	0xbd2d69c1	-0.042337183
97	0x3d14e5a4	0.036351815
98	0x3ba69090	0.005083151
99	0x3dd573f0	0.10422504
100	0xbcf95589	-0.030436294
101	0x3c187a58	0.009306513
102	0x3d162312	0.03665454
103	0x3da425bc	0.0801501
104	0xbdaade7b	-0.08343216
105	0xbdcabda2	-0.09899451
106	0x3c5b6987	0.013391859
107	0xbda742c0	-0.081670284
108	0x3dfa3f98	0.12219161
109	0xbd1291a5	-0.03578343
110	0x3de23779	0.11045737
111	0xbd1cb468	-0.038257986
112	0xbdd6bae7	-0.104848675
113	0xbdf32db3	-0.11873951
114	0x3dfaf3c8	0.12253529
115	0x3d2f6134	0.04281731
116	0x3d84600b	0.06463631
117	0xbcf176fa	-0.029475678
118	0xbcf2cb2e	-0.0296379
119	0x3df3be98	0.11901587
120	0xbd9cc8b0	-0.076554656
121	0xbd31bab8	-0.04339096
122	0x3b183538	0.002322508
123	0x3def9a68	0.116993725
124	0x3d3b2301	0.04568768
125	0xbc8967b1	-0.016773077
126	0xbdd0d0b0	-0.10196054
127	0x3cd70478	0.026247248
128	0xbc72f17a	-0.01482808
129	0xbd440d9b	-0.047864538
130	0xbcce050d	-0.025148893
131	0x3b5ad875	0.0033393179
132	0x3c073806	0.008253103
133	0xbda7fafd	-0.08202169
134	0xbde174fb	-0.110086404
135	0x3dd5796e	0.104235515
136	0x3ce9abee	0.028524365
137	0x3d50ed85	0.051007766
138	0xbd94c8c5	-0.07264856
139	0xbce83f4f	-0.0283505
140	0x3dde69d4	0.10860029
141	0xbda73819	-0.08164997
142	0x3db61ad9	0.088918395
143	0xbd41e716	-0.04733952
144	0xbddb0279	-0.10693831
145	0xbd52f46f	-0.05150264
146	0x3cd3dfbc	0.02586352
147	0xbd690067	-0.05688515
148	0xbd12bf13	-0.035826754
149	0x3daed240	0.08536196
150	0xbdf9a96d	-0.121905185
151	0x3d0079b9	0.031366084
152	0x3db70514	0.089365155
153	0xbb57031f	-0.0032808257
154	0xbd7b7c5b	-0.06139789
155	0xbc73840a	-0.014863024
156	0xbd9aa56f	-0.07551085
157	0xbca180d5	-0.019714752
158	0x3dc2c0b0	0.095094085
159	0x3cce1f91	0.025161536
160	0x3c63f844	0.013914172
161	0xbcb4af27	-0.022056175
162	0xbd8a6690	-0.067578435
163	0x3cd5fa29	0.026120262
164	0xbdc05194	-0.0939056
165	0x3ce907af	0.028446047
166	0x3d6769f4	0.05649753
167	0x3da7e51e	0.081979975
168	0x3cce38ed	0.025173629
169	0x3dcd3339	0.100195356
170	0xbc2d6b16	-0.010584613
171	0x3bb768ac	0.0055971947
172	0xbdf785d6	-0.12086074
173	0x3d2f5857	0.042808857
174	0x3db7af43	0.089689754
175	0xbca6c84d	-0.020359183
176	0xbd036df6	-0.03208729
177	0x3df476f4	0.11936751
178	0x3ae5b5a6	0.0017525449
179	0x3dc3dbc4	0.09563401
180	0x3c394c0d	0.011309636
181	0xbdfcfc81	-0.12352849
182	0xbdba78ac	-0.091050476
183	0xbd43e7d7	-0.04782852
184	0x3cd44017	0.025909467
185	0xbda87a70	-0.08226478
186	0x3d40b61d	0.047048677
187	0x3cc12518	0.023577258
188	0xbcac1ba3	-0.021009272
189	0x3d91ba91	0.07115663
190	0x3d0f7d5d	0.035031665
191	0x3dc182d9	0.09448785
192	0x3dc7222f	0.09723317
193	0x3df35622	0.11881663
194	0xbde3120d	-0.11087427
195	0x3d848b3b	0.064718686
196	0xbda67dfd	-0.08129499
197	0xbcd93f98	-0.026519582
198	0xbdde9961	-0.108690985
199	0xbd408cb8	-0.0470092
200	0x3d938ba3	0.07204368
201	0xbdcc0ba5	-0.099631585
202	0xbdb9eeff	-0.09078788
203	0xbd94bee2	-0.072629705
204	0xbcb17294	-0.02166108
205	0xbdae51c0	-0.08511686
206	0xbd2b8b91	-0.041881148
207	0x3db2a7aa	0.08723386
208	0x3dfb721f	0.12277626
209	0x3df21fa7	0.118224435
210	0xbdc4c6f2	-0.09608258
211	0xbdb23a9c	-0.08702585
212	0xbcf6a498	-0.030107781
213	0xbc6ae742	-0.014337363
214	0xbd41ee78	-0.047346562
215	0xbdf5c5f2	-0.12000646
216	0xbd19f4ad	-0.037586857
217	0x3d5cf73d	0.053946722
218	0x3d4084f7	0.047001805
219	0x3da9a408	0.082832396
220	0x3da8574f	0.08219778
221	0x3db489d5	0.08815352
222	0x3dda1d9c	0.10650179
223	0x3ccdfff0	0.025146455
224	0xbd8bb8ea	-0.06822379
225	0x3d8763f4	0.066108614
226	0x3d1b0151	0.037843052
227	0xbdffab90	-0.12483895
228	0x3db5a59e	0.088694796
229	0x3d783084	0.060593143
230	0x3e001bfc	0.12510675
231	0x3d8f651e	0.070017084
232	0xbdc84db5	-0.097804464
233	0x3c60916d	0.013706547
234	0x3c95b71c	0.01827579
235	0xbdcf0bea	-0.10109694
236	0xbdd1ef14	-0.10250679
237	0xbdd870ad	-0.10568366
238	0xbd375bae	-0.044765167
239	0x3cbcf79a	0.023067284
240	0xbd2a0625	-0.041509766
241	0x3db412cf	0.0879265
242	0x3d3095b0	0.043111503
243	0xbd449b43	-0.04799963
244	0x3d57902f	0.05262774
245	0xbd3ee618	-0.046606153
246	0xbc22e190	-0.009941474
247	0x3d5f9a04	0.05459024
248	0xbdc58d15	-0.0964605
249	0xbd966bee	-0.07344805
250	0xbd86850e	-0.06568347
251	0x3d3ab24a	0.045580186
252	0x3df26c8a	0.118371084
253	0x3df4cb8d	0.11952887
254	0xbd8ad7a2	-0.0677941
255	0x3d938216	0.07202546

bias_ih_l1 f4 [256]
0	0xbd811f22	-0.06304766
1	0xbc5e1b3b	-0.013556297
2	0xbdf50410	-0.119636655
3	0xbdacb590	-0.08433068
4	0x3c4374e5	0.011929725
5	0x3d99e0f1	0.07513607
6	0xbd24aafe	-0.040202133
7	0x3db8d12b	0.090242706
8	0xbdc0443c	-0.09388015
9	0x3ce3efa3	0.027824229
10	0x3d914236	0.07092707
11	0x3c83b4e2	0.016077463
12	0xbd10d452	-0.035358734
13	0xbcabbf60	-0.020965278
14	0x3d10b2c4	0.035326734
15	0xbd1d943f	-0.038471457
16	0x3df5b7c3	0.119979404
17	0x3d2e1351	0.04249889
18	0x3dfee9e7	0.12446957
19	0x3de2ca19	0.11073703
20	0xbdb2c836	-0.087295935
21	0xbda6da28	-0.08147079
22	0x3cb8d709	0.022563474
23	0xbd88fb5d	-0.06688569
24	0xbcede39d	-0.029039199
25	0x3d7891c5	0.06068589
26	0x3db1aa99	0.08675117
27	0x3db826a0	0.08991742
28	0x3cd6b84a	0.026210923
29	0x3de86f72	0.113493815
30	0xbd73081b	-0.0593339
31	0xbddca29c	-0.10773203
32	0xbdd33e84	-0.10314658
33	0xbdce16dd	-0.100629546
34	0x3c95062c	0.01819142
35	0xbd045d04	-0.03231527
36	0x3db2434e	0.087042436
37	0x3d0c26cf	0.0342167
38	0x3d883a7f	0.06651782
39	0xbc117453	-0.0088778315
40	0xbcf67222	-0.03008372
41	0xbd42113f	-0.04737973
42	0x3dc296a8	0.09501392
43	0x3d8a7955	0.067614235
44	0xbb4f3298	-0.003161585
45	0x3d7adc1e	0.061245076
46	0x3cd4b4ae	0.025965061
47	0xbd90d41c	-0.07071707
48	0xbc7d6b88	-0.015467532
49	0x3c06737f	0.008206247
50	0xbd7ebefa	-0.06219385
51	0xbd154ff8	-0.036453217
52	0x3dc14881	0.09437657
53	0x3dcd44c3	0.10022881
54	0x3de602db	0.112310134
55	0xbd13378d	-0.03594165
56	0x3dcbecc4	0.09957269
57	0x3b300791	0.0026859979
58	0xbdf008cc	-0.11720428
59	0xbdafa23d	-0.08575866
60	0xbd852fdc	-0.06503269
61	0x3daa3141	0.08310176
62	0xbd23b5e8	-0.0399684
63	0xbd9b52dd	-0.07584164
64	0x3cdec0a9	0.027191477
65	0xbde6536e	-0.11246382
66	0xbdaf32e1	-0.08554626
67	0xbc9a40db	-0.018829754
68	0xbd4fa70c	-0.050696418
69	0xbd433878	-0.047661275
70	0xbd09f1c4	-0.03367783
71	0x3d24af14	0.04020603
72	0x3d0d3de6	0.03448286
73	0x3db7bc38	0.08971447
74	0x3b301ef3	0.0026873916
75	0x3ddae0f1	0.106874354
76	0xbd10bf62	-0.035338767
77	0xbda1cf29	-0.07900841
78	0x3cd44236	0.025910478
79	0x3d8a2b45	0.06746534
80	0x3d8f8f5a	0.07009764
81	0x3d47e29b	0.048800092
82	0xbc9009b5	-0.017582754
83	0x3d197a00	0.037469864
84	0x3cc402eb	0.023927173
85	0x3d81899c	0.06325075
86	0x3ce91bdc	0.028455667
87	0x3dd377d9	0.103255935
88	0xbdd8718f	-0.105685346
89	0x3dceadf8	0.10091776
90	0xbc9d74bd	-0.019220704
91	0xbd651c3d	-0.055935133
92	0xbd424d46	-0.047436975
93	0x3e036261	0.12830497
94	0xbd8fd743	-0.0702348
95	0x3d332bcf	0.04374295
96	0x3cbb15d3	0.022837555
97	0x3d1e3951	0.03862888
98	0xbd802012	-0.06256117
99	0x3db5397d	0.08848856
100	0x3dd1be93	0.10241427
101	0xbb42e6da	-0.002973965
102	0x3dc4dc18	0.09612292
103	0xbde5b713	-0.11216559
104	0xbde3f8c1	-0.111314304
105	0xbc1c2d0b	-0.009532223
106	0x3dd4c6bc	0.10389468
107	0xbda21261	-0.07913662
108	0x3cbe1f9f	0.023208437
109	0x3d6c7be8	0.057735354
110	0x3dcf1753	0.101118706
111	0x3d89a0c0	0.06720114
112	0x3d5882c8	0.052859098
113	0x3ca47627	0.02007587
114	0xbdbacdbf	-0.09121274
115	0xbc3111de	-0.0108074825
116	0xbde9cfed	-0.11416612
117	0x3cc9cd79	0.02463411
118	0x3d5ff841	0.054680113
119	0xbafd33f8	-0.0019317856
120	0xbd70cf33	-0.05879135
121	0x3def6dc7	0.1169086
122	0xbd94ffbc	-0.0727534
123	0x3dc312fa	0.09525104
124	0x3df5d224	0.12002972
125	0x3ce95fcb	0.02848806
126	0x3d4234e7	0.047413733
127	0xbd9c65c1	-0.076365955
128	0xbd885b29	-0.066580124
129	0xbb359998	-0.0027709957
130	0xbdd5f346	-0.10446791
131	0x3daa716f	0.08322417
132	0x3c3790b8	0.011203937
133	0xbbbd46a4	-0.0057762433
134	0x3d41eafe	0.047343247
135	0xba0d98a6	-0.00054014695
136	0xbd0bbca0	-0.034115434
137	0xbd692bc3	-0.0569265
138	0x3dbe487c	0.09291169
139	0xbda2e6ea	-0.079541996
140	0x3d683790	0.056693614
141	0xbd74ce56	-0.05976709
142	0xbdb9942b	-0.09061464
143	0x3db8293b	0.08992239
144	0x3d6a87d8	0.057258457
145	0x3dbc4df6	0.09194557
146	0xbcb128d4	-0.021625914
147	0x3dabfcc7	0.08397823
148	0x3d32517e	0.04353475
149	0x3dc23301	0.094823845
150	0xbcfe3765	-0.031032274
151	0x3de5ac6c	0.112145275
152	0x3d632ab0	0.05546063
153	0x3da8b0ef	0.082368724
154	0xbaf9125e	-0.0019002666
155	0xbd9d91aa	-0.07693799
156	0xbda5d189	-0.08096606
157	0x3d70cd33	0.058789443
158	0x3d16ad15	0.036786158
159	0xbdfe14ae	-0.12406288
160	0xbdbbc61a	-0.09168644
161	0xbdb607f4	-0.08888236
162	0xbd7f0205	-0.062257785
163	0xbcf20df9	-0.029547678
164	0xbca7637b	-0.020433178
165	0x3db3fc89	0.08788402
166	0x3db4254f	0.087961785
167	0xbdcb04b6	-0.09913008
168	0xbcf94af3	-0.030431246
169	0x3d50628f	0.050875243
170	0x3d121c4d	0.03567152
171	0x3cb89746	0.02253307
172	0xbdab3d1d	-0.08361266
173	0xbddfeacf	-0.10933458
174	0xbbf3ebdd	-0.0074438886
175	0x3c93cba2	0.018041436
176	0x3d86422a	0.065555885
177	0xbbee6cfb	-0.007276175
178	0x3d6fd255	0.058550198
179	0xbd374276	-0.044741116
180	0x3d816734	0.063185126
181	0xbd4fd74d	-0.050742436
182	0x3d32118b	0.04347376
183	0xbd305b79	-0.043055985
184	0x3d096a59	0.033548687
185	0xbab2a247	-0.0013628685
186	0xba95229d	-0.0011378113
187	0x3d23e680	0.040014744
188	0x3d18539d	0.037189115
189	0x3b215b96	0.002462124
190	0xbdc3ac88	-0.09554392
191	0xbda096dd	-0.07841275
192	0xbdd98519	-0.106210895
193	0xbd3a57f7	-0.045494046
194	0x3d809702	0.062788025
195	0xbbc0365e	-0.005865856
196	0xbdcc2c32	-0.09969367
197	0x3dc09456	0.09403293
198	0x3c4254ff	0.011861085
199	0x3dce0531	0.10059584
200	0xbd2ad14b	-0.041703504
201	0x3da2e34c	0.0795351
202	0x3d2d4d5a	0.042310096
203	0xbd9bbe91	-0.07604707
204	0x3ce9925a	0.028512169
205	0x3de63922	0.11241366
206	0x3d67c6ad	0.056585956
207	0x3bd6ed74	0.0065590683
208	0x3c49a012	0.01230623
209	0xbd63ec43	-0.05564524
210	0xbd85fb5f	-0.06542086
211	0xbca10e58	-0.01966016
212	0x3d8a9706	0.06767087
213	0xbdc3c386	-0.095587775
214	0x3d23904a	0.039932527
215	0x3d8534eb	0.06504234
216	0x3d0dfa7b	0.034662705
217	0x3da52fa0	0.080657244
218	0x3d36bbaf	0.044612583
219	0xb9e3931a	-0.00043406413
220	0x3d87aae9	0.066243954
221	0x3d054fa9	0.032546673
222	0x3d6ae0ed	0.057343412
223	0xbda354fc	-0.07975194
224	0xbcb16b7d	-0.0216577
225	0xbb6abff0	-0.003581997
226	0x3dc75825	0.09733609
227	0xbcf23396	-0.029565614
228	0xbd74e355	-0.059787113
229	0x3ccfac27	0.025350643
230	0x3d9e9fd5	0.07745329
231	0xbdf698a8	-0.120408356
232	0x3d0c786a	0.034294523
233	0x3dc1ffbd	0.09472606
234	0xbc820708	-0.015872493
235	0xbdd26594	-0.10273281
236	0xbdd79161	-0.10525776
237	0xbca139af	-0.019680826
238	0xbcb17da4	-0.021666355
239	0x3c14fbe3	0.009093258
240	0x3d6c5ac2	0.05770374
241	0x3e010ad8	0.12601793
242	0xbda0b10b	-0.07846268
243	0x3c8c19a4	0.01710207
244	0xbd5b8cf7	-0.05360123
245	0x3c9a76d8	0.018855497
246	0x3de50e9b	0.111844264
247	0xbd8711e5	-0.0659521
248	0x3dca7f06	0.09887509
249	0xbdcc5b94	-0.09978405
250	0xbc605e85	-0.01369441
251	0xbd27c37b	-0.04095791
252	0x3d280999	0.041024778
253	0xbde5c202	-0.11218645
254	0x3d15b250	0.036547005
255	0xbcd1500e	-0.025550868
