models saved/SGD_DJIA.pth (torch, 351259 bytes, 15 tensors)

weight_ih_l0 f4 [256, 5]
-0.1152781 0.123919666 0.09627062 0.010397346 0.09598789 0.08868241 -0.116285846 0.12361423
0.05468902 0.09897946 0.12503679 0.053966854 0.1061288 0.057625093 -0.09040498 0.04529029
0.12398761 0.02307516 0.026930647 0.093067944 -0.105765216 0.10300703 0.026534338 0.08903168
-0.09500812 0.01640604 0.099520124 -0.077602915 -0.094703466 0.031173993 0.07440256 -0.08953752
-0.07151391 -0.069408305 -0.11383103 -0.06843059 0.034162913 -0.049491182 -0.079184115 -0.035464674
-0.056931555 -0.11897546 0.018603629 0.023694426 -0.0876515 0.11998866 0.07577105 -0.069754414
-0.007876304 -0.013872728 -0.11423972 0.076675326 -0.0034568692 -0.04330317 0.07923016 -0.089581884
0.021794025 -0.061538562 0.11069213 0.09003112 -0.01990024 0.082932055 -0.05396613 0.020994106
-0.037118837 -0.0222932 0.11262266 -0.00071271526 -0.07862897 -0.0023536645 0.10387183 0.021786181
-0.05801593 0.052054327 0.0059519135 -0.006643444 -0.07497256 -0.11029528 -0.12282998 -0.042591095
-0.06594223 0.1212714 0.07635019 0.03321371 0.10818368 0.122514285 0.044495627 0.080421336
-0.03168713 0.10116269 0.09627677 0.0981414 0.047973413 0.017496355 -0.015097136 0.10875279
0.0041613113 0.06651042 -0.09305052 -0.055154413 -0.010313091 0.033557504 -0.026160916 -0.040525515
0.028232396 0.062965214 0.017292913 0.00503215 -0.10386475 0.08554346 -0.006085804 0.015694272
0.036051027 0.028843438 -0.07453029 0.11526957 -0.087982975 -0.11807291 -0.06344018 0.123670496
-0.060435638 0.116146766 -0.04537766 0.06458573 0.09598372 -0.03246732 -0.105566844 0.051254686
0.082127236 0.093380384 0.030085718 -0.10371746 0.08794467 0.1213219 0.008411819 0.048394047
0.11418342 -0.028248644 -0.06355068 -0.115988314 0.04486046 0.060372207 0.016003842 0.06688731
0.12134449 -0.09736081 0.07053226 -0.09663712 -0.07614282 0.042469848 -0.104540125 0.11736392
0.08202753 0.09796515 -0.11270684 -0.10227593 -0.057675414 -0.11201002 0.06901219 0.092257336
-0.11771352 0.0092142215 -0.099079296 -0.08603359 -0.06706115 0.033615667 0.06704411 0.048428494
0.10845382 -0.082006834 0.06231653 0.099928044 -0.07073482 0.07470347 0.01923887 -0.046418052
0.08037632 -0.089953244 0.025699152 0.11664749 -0.119160816 -0.117835164 -0.041734833 0.01541978
-0.06042673 -0.05079596 -0.049939334 -0.01994187 0.08322509 -0.12144374 -0.10973143 0.055213615
-0.10144757 0.08829213 0.040208824 0.119104624 -0.103463486 -0.06831351 -0.0555245 0.021848343
-0.06706554 0.020971054 -0.044250257 -0.09385781 -0.00969266 0.019415887 0.08221248 -0.11918317
0.014084395 -0.0706775 -0.11948144 -0.089919806 -0.08932238 0.11737237 0.053500656 -0.012552112
0.0045706253 -0.044890206 -0.029369561 -0.07044023 0.036386356 0.08050053 0.10102098 0.079720885
-0.03981873 0.104178526 0.0060745534 0.013345799 -0.06090887 0.07765459 -0.012845542 -0.022754531
-0.054059915 0.06761766 0.07504159 0.054672018 0.06627719 -0.051509965 0.030681325 -0.09918028
0.0788081 -0.10838521 -0.04478929 -0.11154795 0.029757898 0.07835317 0.018458078 0.11750518
0.10387205 -0.082468055 -0.04084215 0.093944326 0.06520162 -0.02448724 0.06034025 0.0994924
00000000: ed16 ecbd 98c9 fd3d 8829 c53d a159 2a3c
00000010: 4d95 c43d 209f b53d 4627 eebd 7529 fd3d
00000020: 9801 603d beb5 ca3d a509 003e 590c 5d3d
00000030: 0e5a d93d 4a08 6c3d 3f26 b9bd 5082 393d
00000040: 37ed fd3d 1e08 bd3c a99d dc3c 689a be3d
00000050: 6f9b d8bd 5af5 d23d 8a5e d93c 3e56 b63d
00000060: 9e93 c2bd f665 863c 35d1 cb3d 47ee 9ebd
00000070: e4f3 c1bd 9a60 ff3c 5f60 983d 735f b7bd
00000080: e375 92bd f125 8ebd 3e20 e9bd 5625 8cbd
00000090: 69ee 0b3d 44b7 4abd 482b a2bd 6843 11bd
000000a0: 1031 69bd 68a9 f3bd a366 983c d01a c23c
000000b0: a182 b3bd 9dbc f53d da2d 9b3d 67db 8ebd
000000c0: 9d0b 01bc 704a 63bc 84f6 e9bd f407 9d3d
000000d0: a48c 62bb aa5e 31bd 6c43 a23d b576 b7bd
000000e0: 6289 b23c dc0f 7cbd 8eb2 e23d 3c62 b83d
000000f0: d405 a3bc 48d8 a93d 970b 5dbd d5fb ab3c
00000100: ec09 18bd 3ba0 b6bc b6a6 e63d 83d5 3aba
00000110: 3a08 a1bd f03f 1abb c1ba d43d ef78 b23c
00000120: 1da2 6dbd eb36 553d 4508 c33b 3fb1 d9bb
00000130: 378b 99bd 7ee2 e1bd 498e fbbd 0074 2ebd
00000140: b80c 87bd 245d f83d 7d5d 9c3d 190b 083d
00000150: 688f dd3d c5e8 fa3d 0c41 363d f1b3 a43d
00000160: 5dca 01bd 622e cf3d c12c c53d 5cfe c83d
00000170: c57f 443d 8454 8f3c fa59 77bc c8b9 de3d
00000180: 9c5b 883b 9d36 883d 4591 bebd 98e9 61bd
00000190: 3df8 28bc 9873 093d 6b4f d6bc 15fe 25bd
000001a0: a047 e73c e8f3 803d dea9 8d3c bce4 a43b
000001b0: 0bb7 d4bd 6931 af3d 6d6b c7bb 4691 803c
000001c0: 3eaa 133d 1349 ec3c 56a3 98bd 7412 ec3d
000001d0: 6b30 b4bd 36d0 f1bd edec 81bd f546 fd3d
000001e0: 5c8b 77bd 5bde ed3d eddd 39bd 8645 843d
000001f0: 1d93 c43d 74fc 04bd 6e33 d8bd 6ff0 513d
00000200: 5332 a83d 373e bf3d 5376 f63c d269 d4bd
00000210: 561c b43d 9e77 f83d bad1 093c d638 463d
00000220: ffd8 e93d b369 e7bc dc26 82bd 488b edbd
00000230: 9abf 373d d948 773d 7d1a 833c 37fc 883d
00000240: 7683 f83d 1b65 c7bd 3873 903d afe9 c5bd
00000250: c4f0 9bbd ddf4 2d3d 2219 d6bd 7f5c f03d
00000260: 0dfe a73d f4a1 c83d d8d2 e6bd 0b76 d1bd
00000270: 0e3d 6cbd 8265 e5bd 4356 8d3d 6af1 bc3d
00000280: c913 f1bd 3ff7 163c 16ea cabd 6132 b0bd
00000290: 5b57 89bd 95b0 093d 6c4e 893d f55c 463d
000002a0: 091d de3d 33f3 a7bd 9e3f 7f3d 13a7 cc3d
000002b0: 6bdd 90bd 22fe 983d d69a 9d3c db20 3ebd
000002c0: 579c a43d 6839 b8bd 0787 d23c e1e4 ee3d
000002d0: 960a f4bd 9053 f1bd 25f2 2abd 3fa3 7c3c
000002e0: 0582 77bd 6d0f 50bd 308d 4cbd 225d a3bc
000002f0: ea71 aa3d 7fb7 f8bd dfba e0bd ac27 623d
00000300: bec3 cfbd 81d2 b43d 02b2 243d 20ed f33d
00000310: aae4 d3bd f4e7 8bbd a86d 63bd 4cfb b23c
00000320: a859 89bd 7dcb ab3c c23f 35bd 8638 c0bd
00000330: f6cd 1ebc 110e 9f3c 045f a83d 4e16 f4bd
00000340: 3cc2 663c 5dbf 90bd afb2 f4bd e027 b8bd
00000350: a7ee b6bd ed60 f03d 8123 5b3d 60a7 4dbc
00000360: 2fc5 953b cbde 37bd 6f98 f0bc f842 90bd
00000370: dc09 153d 76dd a43d 16e4 ce3d b444 a33d
00000380: f718 23bd 8d5b d53d 0c0d c73b 57a8 5a3c
00000390: 947b 79bd 5f09 9f3d 1c76 52bc b667 babc
000003a0: ee6d 5dbd 217b 8a3d 68af 993d c4ef 5f3d
000003b0: 56bc 873d 1dfc 52bd 6757 fb3c 081f cbbd
000003c0: 2466 a13d 11f9 ddbd f974 37bd 4073 e4bd
000003d0: d6c6 f33c a077 a03d 6535 973c 8ea6 f03d
000003e0: dfba d43d 03e5 a8bd 194a 27bd e265 c03d
000003f0: 6d88 853d 7799 c8bc 5727 773d acc2 cb3d

weight_hh_l0 f4 [256, 64]
0.117678344 0.10570792 0.04750703 0.038806938 -0.09023742 0.022937631 -0.04665757 -0.11384726
0.037050426 0.04276608 -0.059138138 0.068983816 0.06789449 -0.057950605 -0.10030493 0.037469383
0.042002406 -0.060660303 -0.08118666 0.061290246 0.109996855 -0.07762302 0.084812865 -0.009772193
-0.1118492 0.10297544 0.026891021 0.047545154 0.118477955 0.10090908 -0.09027704 -0.105417766
0.017772643 0.07569814 -0.01958086 0.040783826 0.008409741 -0.11089976 0.070582904 0.110112555
-0.11254079 -0.026138261 0.055257414 -0.09258784 0.068966724 0.033634976 -0.046715006 -0.083365925
0.08703532 -0.051175173 0.12153673 -0.10097937 0.09461929 0.00933404 0.004968209 0.11053679
0.07838853 -0.09956109 -0.12288639 -0.01433481 0.108923584 -0.112975255 0.031348564 0.12269516
-0.10018873 -0.035675906 -0.09785076 -0.08686934 0.016970212 0.03243822 0.12319524 -0.0033131002
0.0078046876 -0.1180403 0.10537601 -0.0750538 0.0124616 -0.09391729 -0.12141283 -0.09343718
-0.05077637 0.07479315 -0.0055045187 -0.056855377 0.009716779 -0.0015140087 0.09155504 0.08588017
-0.09452744 -0.11184959 -0.062012143 -0.122778654 -0.0117327245 -0.116695404 0.061551724 0.07010587
-0.037716463 -0.020010285 0.018230222 0.05912868 0.11288883 -0.1123255 0.09628608 0.017788354
-0.041247845 -0.012032106 -0.08210309 0.046988852 -0.04734228 0.09280605 -0.06976246 0.032954555
0.07815483 -0.04528377 0.12054675 -0.055707887 0.020754762 0.07213508 -0.12199732 -0.040656887
0.111596085 0.07835383 -0.051464073 0.025942156 -0.107693866 0.12353845 -0.07857192 -0.1125599
-0.011439904 -0.06370943 0.076612316 0.081713274 0.045462314 -0.035265688 0.08273656 0.07789153
0.054300506 0.11563068 0.025185652 0.11617437 0.088899635 0.050940625 -0.009187155 0.09204226
0.03793344 -0.0059164423 -0.021150019 -0.030976051 0.03835065 0.0065145027 -0.118590556 0.0072139404
0.10182371 0.006795667 0.04960096 -0.013361706 0.027913284 0.0058258167 0.029009078 0.12407864
0.05328791 0.10767329 -0.093758464 0.029557971 0.018151952 0.07919324 -0.07157894 0.0891526
-0.0123057 0.040075902 -0.0439799 0.12133425 0.06639423 0.015073015 -0.10244014 -0.03233582
0.067973524 0.12131335 0.03600346 0.101143874 0.09652782 0.023835186 -0.019734979 0.05807318
0.10006037 -0.024860227 -0.02396856 -0.08461785 -0.09351533 0.08715692 -0.107796974 -0.10051595
0.11608875 0.053207133 0.0629544 -0.10895718 -0.08128642 -0.008695739 -0.024617612 -0.10178957
-0.06070109 0.10881951 -0.041955553 0.086289294 0.054446124 0.0966074 0.02874293 -0.004461224
0.09348112 0.0818221 0.113392405 -0.008503462 0.00729477 -0.050742883 0.032789424 0.0020891777
-0.11305244 -0.057165664 0.12192048 -0.07191741 -0.092380606 -0.017454494 0.10613136 -0.048112404
-0.06978105 0.090307266 -0.08859875 0.055090144 -0.08142574 -0.014871559 -0.078608155 0.09406493
0.0031739664 0.06453372 -0.07232225 -0.0076181837 -0.11893245 -0.037797205 -0.12349949 -0.056426868
0.04568753 0.08759372 0.009784649 -0.109007664 -0.02404301 0.015249275 0.070061944 0.07310872
-0.008429662 0.016311007 -0.10865724 -0.030463861 0.09935166 -0.0648613 -0.12135115 -0.04088675
00000000: 5801 f13d 657d d83d bb96 423d 06f4 1e3d
00000010: 65ce b8bd b3e7 bb3c 021c 3fbd c128 e9bd
00000020: 30c2 173d 7c2b 2f3d d53a 72bd 6347 8d3d
00000030: 440c 8b3d 9d5d 6dbd ac6c cdbd 7f79 193d
00000040: b70a 2c3d f076 78bd 3145 a6bd 7b0b 7b3d
00000050: 0846 e13d d1f8 9ebd 5eb2 ad3d 8c1b 20bc
00000060: 3211 e5bd cae4 d23d 8f4a dc3c b5be 423d
00000070: 92a4 f23d 6ba9 ce3d 2be3 b8bd 45e5 d7bd
00000080: ef97 913c a007 9b3d 0a68 a0bc f10c 273d
00000090: 03c9 093c 6a1f e3bd c58d 903d b182 e13d
000000a0: c97b e6bd e81f d6bc 9955 623d b29e bdbd
000000b0: 6d3e 8d3d d4c4 093d 3c58 3fbd c1bb aabd
000000c0: 933f b23d 0f9d 51bd 40e8 f83d 46ce cebd
000000d0: c2c7 c13d cded 183c 5ccc a23b 1d61 e23d
000000e0: 2a8a a03d afe6 cbbd dcab fbbd 8ddc 6abc
000000f0: 5413 df3d 925f e7bd 5a67 003d 9a47 fb3d
00000100: c02f cdbd e620 12bd fb65 c8bd 8de8 b1bd
00000110: 1d05 8b3c f0dd 043d c94d fc3d 9920 59bb
00000120: 77be ff3b 1dbf f1bd 61cf d73d cfb5 99bd
00000130: bd2b 4c3c b557 c0bd 4aa7 f8bd fe5b bfbd
00000140: e2fa 4fbd 272d 993d 405f b4bb 2fe1 68bd
00000150: 2033 1f3c b471 c6ba 3581 bb3d f1e1 af3d
00000160: 9a97 c1bd 6611 e5bd 7200 7ebd 6073 fbbd
00000170: 9d3a 40bc 00fe eebd a91d 7c3d ab93 8f3d
00000180: 947c 1abd 9cec a3bc 8c57 953c ea30 723d
00000190: 4232 e73d e90a e6bd a331 c53d e2b8 913c
000001a0: 80f3 28bd 4f22 45bc aa25 a8bd 6277 403d
000001b0: fbe9 41bd 1911 be3d 9fdf 8ebd 5bfb 063d
000001c0: a40f a03d 797b 39bd 37e1 f63d f42d 64bd
000001d0: e405 aa3c 8fbb 933d bbd9 f9bd d687 26bd
000001e0: 7d8c e43d f977 a03d fecb 52bd a584 d43c
000001f0: 9a8e dcbd ba01 fd3d 51ea a0bd ce85 e6bd
00000200: 6f6e 3bbc 177a 82bd ebe6 9c3d 4a59 a73d
00000210: b136 3a3d c172 10bd c971 a93d 9885 9f3d
00000220: 356a 5e3d c7cf ec3d 2452 ce3c d4ec ed3d
00000230: 0311 b63d 1ea7 503d b985 16bc a780 bc3d
00000240: 1860 1b3d b7de c1bb ce42 adbc 7dc1 fdbc
00000250: 9215 1d3d 9c77 d53b 9bdf f2bd eb62 ec3b
00000260: f388 d03d 30ae de3b 602a 4b3d 0feb 5abc
00000270: 66aa e43c 7ee6 be3b 72a4 ed3c f11c fe3d
00000280: 6c44 5a3d d083 dc3d 7004 c0bd 8f23 f23c
00000290: 67b3 943c 1130 a23d fb97 92bd a395 b63d
000002a0: d99d 49bc a126 243d 4524 34bd 177e f83d
000002b0: b3f9 873d cff4 763c 23cc d1bd 9172 04bd
000002c0: b435 8b3d 2273 f83d 5d78 133d 8524 cf3d
000002d0: 61b0 c53d 0242 c33c 40ab a1bc 25de 6d3d
000002e0: 74ec cc3d ada7 cbbc b759 c4bc 204c adbd
000002f0: f784 bfbd 547f b23d a9c4 dcbd 4edb cdbd
00000300: f0bf ed3d b9ef 593d 3dee 803d f124 dfbd
00000310: 7f79 a6bd 9378 0ebc e0aa c9bc 0d77 d0bd
00000320: b5a1 78bd c3dc de3d 96d9 2bbd 71b8 b03d
00000330: e602 5f3d 1ada c53d 4b76 eb3c 762f 92bb
00000340: 0873 bf3d 5892 a73d 473a e83d 1b52 0bbc
00000350: f708 ef3b c5d7 4fbd 344e 063d 96ea 083b
00000360: 0a88 e7bd 8b26 6abd 72b1 f93d 6f49 93bd
00000370: 0b32 bdbd bafc 8ebc 665b d93d 8311 45bd
00000380: 5ee9 8ebd 04f3 b83d 4373 b5bd 34a6 613d
00000390: 8ac2 a6bd d7a7 73bc 50fd a0bd 1da5 c03d
000003a0: 5202 503b 412a 843d b01d 94bd f5a1 f9bb
000003b0: db92 f3bd 3ed1 1abd 4ded fcbd dc1f 67bd
000003c0: d922 3b3d 5664 b33d cb4f 203c 693f dfbd
000003d0: d9f5 c4bc 18d8 793c a37c 8f3d 06ba 953d
000003e0: 911c 0abc a99e 853c b087 debd 598f f9bc
000003f0: e278 cb3d 00d6 84bd f486 f8bd dd78 27bd

bias_ih_l0 f4 [256]
0.051998638 0.09846233 -0.0688323 0.031357028 0.01012871 0.07740072 0.12450399 -0.057565942
-0.121683724 -0.056198638 -0.07331996 0.010780416 -0.07776933 -0.0059833643 0.07567409 -0.0447566
-0.034466486 0.090079494 -0.08931245 -0.047170933 0.0886577 0.08552643 0.07707202 -0.03641356
-0.019308811 0.05317297 -0.03757421 0.083813995 -0.023435226 0.022062555 0.0019087762 -0.11271378
0.08070541 -0.0150585165 -0.054217644 0.12579845 0.018000454 -0.08318643 0.05591795 -0.117807195
0.006155922 -0.08577226 -0.04896151 0.12118143 0.09515601 0.072631635 -0.075749084 -0.012876826
-0.0296335 0.09940695 0.11167305 -0.040181223 0.11572286 -0.0010226493 0.106642194 -0.09302125
-0.039149225 -0.11432267 0.023023248 -0.039226953 0.13478556 0.045004394 0.048909284 -0.08001063
-0.017252866 -0.06468785 0.04876756 0.058127783 -0.09367451 -0.0017246855 -0.046341516 0.10082843
-0.06720866 -0.004254852 0.009087135 -0.051379025 -0.07478992 -0.106238306 -0.10587981 0.08101619
-0.081691965 0.06966295 0.10839232 -0.10066521 0.11776006 -0.08068367 -0.11118251 -0.09140308
0.124188915 -0.121768154 -0.03548708 -0.10058013 0.054694746 -0.070362456 -0.12233893 -0.062932
-0.04506164 0.06843724 -0.100453086 -0.05571836 0.06109447 -0.03435609 -0.05668572 0.022782205
0.038463518 0.09594553 -0.10016981 -0.04851927 0.120107286 -0.0117163705 0.05171118 0.03000186
-0.091570854 0.08640895 -0.080275916 -0.103378125 0.08471973 -0.03512969 0.039590094 0.015124684
-0.052335426 0.10787828 -0.08292296 0.11125766 -0.0019693263 0.09948132 0.057472926 0.010089825
0.00010170795 -0.11429005 -0.050875906 0.0066757253 0.034433115 0.084124774 0.013881335 0.058777336
-0.10823772 0.009752079 0.044219226 0.060794897 -0.029600289 -0.030205423 -0.07413432 0.054232724
0.08011968 -0.037123837 0.08591487 -0.07922734 0.062226694 -0.017177451 -0.08723871 -0.04223395
-0.003597881 0.063536145 0.10549679 -0.078083694 -0.00048590812 0.04364336 0.024752025 0.026935222
0.09946532 -0.024161149 0.06574942 -0.06921039 0.105849534 0.0016583144 0.08285359 0.038695365
0.011209435 -0.1329106 -0.1111758 0.09863465 -0.012192665 0.12207087 0.065522924 -0.010767138
-0.064219 -0.06090901 0.09298713 0.09409196 -0.07528266 0.06415926 0.10231758 0.003687275
-0.038304422 0.10330367 -0.06074254 -0.04751966 0.041290533 -0.027115444 -1.1873489e-05 0.031888954
-0.07170672 0.02739025 0.113443926 -0.03503784 -0.015070351 0.0010506032 0.018773705 0.11945967
-0.0651351 -0.11357245 0.090991914 0.0352874 0.0829822 -0.033338424 0.12065647 -0.08868845
-0.021162873 0.022435013 -0.075926125 0.09026322 -0.0045229066 -0.024077998 0.05971497 0.106115825
-0.045348663 0.0064754733 -0.0085299425 0.062686615 -0.06452253 -0.022829682 -0.11762019 0.02482424
0.0028747136 -0.056994162 -0.030386599 0.094108775 0.08180499 0.05101341 0.10438668 0.09891673
0.027650146 -0.09691691 0.041478425 0.103218146 0.015594408 -0.0043605007 -0.094669566 0.03643874
-0.12363843 0.09127824 -0.089860655 0.0835555 -0.053308543 0.10747005 0.019121932 -0.0031461124
-0.07697912 -0.023202341 -0.0332966 -0.08150977 0.12394956 -0.02082037 -0.0021472005 0.040794857
00000000: 86fc 543d 9ea6 c93d f3f7 8cbd 3a70 003d
00000010: e4f2 253c 4584 9e3d f3fb fe3d 44ca 6bbd
00000020: 5135 f9bd 8b30 66bd c628 96bd 58a0 303c
00000030: 8745 9fbd 1910 c4bb 04fb 9a3d b252 37bd
00000040: bb2c 0dbd 997b b83d 72e9 b6bd 4f36 41bd
00000050: 2b92 b53d 7b28 af3d efd7 9d3d 6326 15bd
00000060: 832d 9ebc e6cb 593d 6ae7 19bd aca6 ab3d
00000070: 3bfb bfbc 88bc b43c e72f fa3a 7bd6 e6bd
00000080: e148 a53d ffb7 76bc 5213 5ebd 4fd1 003e
00000090: b075 933c a65d aabd 380a 653d e644 f1bd
000000a0: 9eb7 c93b 5ea9 afbd dd8b 48bd f82d f83d
000000b0: 27e1 c23d e5bf 943d 5622 9bbd 53f9 52bc
000000c0: f4c1 f2bc df95 cb3d d7b4 e43d 1195 24bd
000000d0: 1b00 ed3d 6b0a 86ba 3967 da3d ed81 bebd
000000e0: f05a 20bd 0122 eabd 409b bc3c 71ac 20bd
000000f0: 3a05 0a3e 8756 383d 1a55 483d 9ddc a3bd
00000100: e255 8dbc 107b 84bd 7ec0 473d 6617 6e3d
00000110: 6cd8 bfbd d80e e2ba 9ad0 3dbd 237f ce3d
00000120: b2a4 89bd 496c 8bbb 35e2 143c d072 52bd
00000130: 752b 99bd 7893 d9bd 84d7 d8bd d1eb a53d
00000140: 1e4e a7bd 73ab 8e3d cbfc dd3d 9029 cebd
00000150: 302c f13d 7b3d a5bd a8b3 e3bd 8a31 bbbd
00000160: c256 fe3d 9561 f9bd e75a 11bd f5fc cdbd
00000170: 9907 603d 311a 90bd d58c fabd 7ee2 80bd
00000180: 8e92 38bd d328 8c3d 59ba cdbd ef38 64bd
00000190: 323e 7a3d f9b8 0cbd 492f 68bd bfa1 ba3c
000001a0: ec8b 1d3d 177f c43d d425 cdbd 24bc 46bd
000001b0: cffa f53d 05f6 3fbc 1acf 533d 76c6 f53c
000001c0: 8089 bbbd 2df7 b03d b367 a4bd e9b7 d3bd
000001d0: 8a81 ad3d 26e4 0fbd 3929 223d 86cd 773c
000001e0: ac5d 56bd 4aef dc3d 83d3 a9bd 0edb e33d
000001f0: d00f 01bb ddbc cb3d bb68 6b3d cb4f 253c
00000200: 0a4c d538 e710 eabd 4163 50bd 0bc0 da3b
00000210: bd09 0d3d 9c49 ac3d 8a6e 633c 81c0 703d
00000220: bdab ddbd 2fc7 1f3c 381f 353d 1204 793d
00000230: 4e7c f2bc 5d71 f7bc bcd3 97bd 2223 5e3d
00000240: c915 a43d 2a0f 18bd 23f4 af3d f241 a2bd
00000250: 6be1 7e3d bab7 8cbc 35aa b2bd 82fd 2cbd
00000260: 6dca 6bbb 3d1f 823d b30e d83d 58ea 9fbd
00000270: 7cc1 feb9 61c3 323d c2c4 ca3c 41a7 dc3c
00000280: 79b4 cb3d 9aed c5bc a2a7 863d 2dbe 8dbd
00000290: a4c7 d83d cc5b d93a 25af a93d 087f 1e3d
000002a0: c7a7 373c b719 08be 23b0 e3bd f700 ca3d
000002b0: bec3 47bc 4b00 fa3d e230 863d a668 30bc
000002c0: 4085 83bd ba7b 79bd 0970 be3d 49b3 c03d
000002d0: cc2d 9abd ee65 833d e18b d13d 36a6 713b
000002e0: 19e5 1cbd e090 d33d 2bcd 78bd faa3 42bd
000002f0: 4320 293d 3521 debc 3f34 47b7 fe9d 023d
00000300: f9da 92bd 8461 e03c 4a55 e83d d783 0fbd
00000310: a2e9 76bc 65b4 893a 50cb 993c 45a7 f43d
00000320: 8d65 85bd ac98 e8bd f859 ba3d 8589 103d
00000330: 92f2 a93d df8d 08bd bd1a f73d 4aa2 b5bd
00000340: c35d adbc a2c9 b73c 287f 9bbd ecdb b83d
00000350: e434 94bb 393f c5bc af97 743d 4153 d93d
00000360: 85bf 39bd 3530 d43b 2cc1 0bbc d761 803d
00000370: 6324 84bd 5005 bbbc dbe2 f0bd 345c cb3c
00000380: b165 3c3b b672 69bd 51ed f8bc 1abc c03d
00000390: 6089 a73d 70f3 503d afc8 d53d db94 ca3d
000003a0: 8f82 e23c 5f7c c6bd 48e5 293d 0964 d33d
000003b0: b07f 7f3c 88e2 8ebb 1ee2 c1bd ca40 153d
000003c0: 2536 fdbd 16f0 ba3d dd08 b8bd 251f ab3d
000003d0: 0f5a 5abd 4219 dc3d 99a5 9c3c 022f 4ebb
000003e0: 3ba7 9dbd d612 bebc 0462 08bd 98ee a6bd
000003f0: 44d9 fd3d 7b8f aabc 0cb8 0cbb 8218 273d

bias_hh_l0 f4 [256]
0.041477136 0.056694716 -0.056023005 -0.038359948 -0.06487732 0.08860413 -0.09298984 0.009081565
0.06507293 -0.07170469 0.09537952 -0.06635898 -0.011583901 0.013365256 0.05954812 0.025585093
0.045392934 -0.11079701 0.09663445 0.043408994 -0.076946475 0.12976196 0.058770988 0.09355271
-0.020500636 0.036060445 -0.11977293 -0.037359904 0.05803291 -0.023743913 -0.09542661 -0.1126804
0.10022541 -0.057825074 0.025076112 -0.103019014 0.03201813 0.011186172 0.11102396 0.062313072
-0.11619329 0.117442936 -0.111720696 0.006427923 -0.04486034 -0.07408691 0.012848467 -0.09861572
0.025184311 0.020618955 0.015021035 0.012245646 0.0006894823 -0.08969368 0.12097164 0.0913971
0.020253707 -0.1014475 0.022052616 0.11031055 -0.039526563 -0.029746624 -0.123699576 0.007680905
-0.033438925 -0.10293719 0.079033315 0.10030682 -0.07611346 -0.04827008 -0.10742616 0.11644811
0.10118581 0.112949476 0.018772194 0.098880224 0.042621106 -0.0115381805 0.0072173215 0.044266272
-0.023637 0.0030480307 -0.03884272 0.0920634 -0.06881207 -0.040405974 -0.016270123 -0.026913041
0.12181476 -0.01243792 -0.044478353 0.017761568 -0.06279872 -0.0020025813 0.05550834 -0.05337474
0.12303203 -0.032395624 -0.11704082 0.086532176 -0.016873349 0.05766971 0.07770411 -0.021238955
0.0040418636 -0.017794844 -0.09562895 0.102473155 0.05950626 0.056699988 0.108381905 -0.06707324
0.08738169 0.12339228 0.113317125 -0.032407112 -0.11949246 0.031254232 0.079775505 -0.069063656
-0.07112577 -0.10374656 0.07039576 0.023762938 0.0033891206 0.03686757 -0.011032532 0.10060112
-0.032471236 0.08459277 0.086713366 -0.012787083 0.060729478 0.10864444 0.09973021 0.04485202
-0.07026004 0.097528234 0.088702336 -0.11780942 -0.008025002 0.0778876 0.013050739 -0.016601777
0.0045360196 0.11587572 -0.00071328506 -0.08977413 0.042025547 0.049864046 -0.040411264 -0.09882015
-0.10392823 -0.05441195 0.10935233 -0.08865215 -0.06465572 -0.063671514 -0.061183635 0.06692618
0.03147789 -0.09085253 -0.12071723 0.097664185 -0.09138666 -0.054980855 0.063039355 -0.024224697
0.024669908 -0.024539739 0.043145556 0.014438992 0.048831146 0.10961915 0.101003215 0.033354275
0.11598432 -0.116639644 -0.09833828 0.058153715 0.059069686 -0.11322181 0.12209781 0.054813694
0.07139972 0.06018207 -0.03134467 0.044673555 -0.05854893 -0.11407976 -0.09990727 0.08399346
-0.09113293 0.062113646 -0.077143475 -0.07734316 0.024624329 -0.09799644 0.081397794 -0.051875427
0.016099583 -0.03334809 -0.03677496 -0.07729086 -0.013556747 -0.1054575 0.093587 -0.09621692
0.035967343 -0.076303355 -0.09850159 -0.018130401 0.004501656 0.020783065 -0.057235662 0.04638428
-0.063132964 -0.04713241 -0.074452996 0.11339206 0.09940676 -0.08666474 -0.10452107 0.11696272
0.092087865 -0.11610178 -0.056639962 0.024823805 -0.052096643 0.009437278 0.075934745 -0.10321922
-0.11055321 0.057399504 -0.098750934 0.0784535 -0.016085142 -0.09327169 -0.12329264 -0.023714868
-0.09293463 0.10173644 -0.09597931 -0.084669344 -0.061580054 0.07719754 0.028815525 0.07510139
0.058788005 -0.081787065 -0.08814655 -0.1071122 0.015223022 0.05302792 -0.11963838 -0.080513254
00000000: eee3 293d b838 683d 6178 65bd 521f 1dbd
00000010: 66de 84bd 1576 b53d 7571 bebd d8ca 143c
00000020: f544 853d e9d9 92bd 5656 c33d 38e7 87bd
00000030: 67ca 3dbc f2f9 5a3c bbe8 733d d497 d13c
00000040: f1ed 393d 8be9 e2bd 48e8 c53d a1cd 313d
00000050: 1d96 9dbd 52e0 043e d9b9 703d 9098 bf3d
00000060: f3f0 a7bc 1eb4 133d 834b f5bd b306 19bd
00000070: ebb3 6d3d 9882 c2bc 076f c3bd fbc4 e6bd
00000080: fb42 cd3d fcd9 6cbd 6b6c cd3c a2fb d2bd
00000090: 7125 033d 3546 373c 8860 e33d fe3b 7f3d
000000a0: bff6 edbd ec85 f03d d2cd e4bd 54a1 d23b
000000b0: 7abf 37bd e1ba 97bd 6082 523c 0af7 c9bd
000000c0: 544f ce3c 15e9 a83c ca1a 763c f6a1 483c
000000d0: 60be 343a 52b1 b7bd fbbf f73d 672e bb3d
000000e0: 1aeb a53c b5c3 cfbd b0a7 b43c 7fea e13d
000000f0: 9be6 21bd 31af f3bc 3456 fdbd 1ab0 fb3b
00000100: 41f7 08bd bcd0 d2bd 38dc a13d a96d cd3d
00000110: 60e1 9bbd d9b6 45bd 3f02 dcbd 597c ee3d
00000120: 823a cf3d 0e52 e73d 25c8 993c b781 ca3d
00000130: 7893 2e3d a30a 3dbc 487f ec3b 8d50 353d
00000140: 62a2 c1bc 78c1 473b 8b19 1fbd bc8b bc3d
00000150: 58ed 8cbd bc80 25bd ec48 85bc bd78 dcbc
00000160: 047a f93d 6bc8 4bbc ef2e 36bd b580 913c
00000170: 9e9c 80bd bd3d 03bb b75c 633d 799f 5abd
00000180: 38f8 fb3d 46b1 04bd 19b3 efbd c837 b13d
00000190: fa39 8abc 1337 6c3d 5523 9f3d 51fd adbc
000001a0: 9c71 843b 7ec6 91bc 1cd9 c3bd 72dd d13d
000001b0: d6bc 733d 3f3e 683d 55f7 dd3d b25d 89bd
000001c0: 2cf5 b23d 17b5 fc3d cf12 e83d 52bd 04bd
000001d0: 76b8 f4bd 7004 003d 5761 a33d 3f71 8dbd
000001e0: 63aa 91bd 1479 d4bd a72b 903d 7eaa c23c
000001f0: 021c 5e3b 7302 173d cbc1 34bc f607 ce3d
00000200: 8f00 05bd f93e ad3d c796 b13d ea80 51bc
00000210: 79bf 783d fa80 de3d 5a3f cc3d c0b6 373d
00000220: 7fe4 8fbd e2bc c73d 92a9 b53d 1146 f1bd
00000230: 4c7b 03bc 8983 9f3d c4d2 553c 7300 88bc
00000240: e4a2 943b 4050 ed3d c0fb 3aba 80db b7bd
00000250: fb22 2c3d 3e3e 4c3d 4886 25bd 3862 cabd
00000260: 53d8 d4bd 11df 5ebd 1df4 df3d 428f b5bd
00000270: 386a 84bd 3666 82bd b19b 7abd 9810 893d
00000280: f6ee 003d e410 babd 983a f7bd 2904 c83d
00000290: ee28 bbbd 9b33 61bd c71a 813d df72 c6bc
000002a0: 8c18 ca3c 9007 c9bc 65b9 303d 8691 6c3c
000002b0: 2b03 483d 0180 e03d c6da ce3d 7e9e 083d
000002c0: 3089 ed3d c4e0 eebd 9565 c9bd 9732 6e3d
000002d0: 0ef3 713d d6e0 e7bd 6b0e fa3d 5384 603d
000002e0: 043a 923d 7981 763d 4563 00bd 9efb 363d
000002f0: 01d1 6fbd a6a2 e9bd 2f9c ccbd c304 ac3d
00000300: e7a3 babd e16a 7e3d 66fd 9dbd 1766 9ebd
00000310: f6b8 c93c 5cb2 c8bd e3b3 a63d 547b 54bd
00000320: 46e3 833c 0298 08bd 57a1 16bd ac4a 9ebd
00000330: 1e1d 5ebc 1afa d7bd 8baa bf3d 600d c5bd
00000340: 7e52 133d ef44 9cbd 34bb c9bd 3586 94bc
00000350: a182 933b 3f41 aa3c f16f 6abd 71fd 3d3d
00000360: db4b 81bd ea0d 41bd d07a 98bd 193a e83d
00000370: c595 cb3d 497d b1bd 250f d6bd 278a ef3d
00000380: 9098 bc3d c5c6 edbd 4eff 67bd 4b5b cb3c
00000390: 4a63 55bd d09e 1a3c ad83 9b3d 9964 d3bd
000003a0: b969 e2bd be1b 6b3d ee3d cabd 3bac a03d
000003b0: fdc4 83bc 3a05 bfbd da80 fcbd af45 c2bc
000003c0: 8354 bebd 325b d03d cd90 c4bd 1f67 adbd
000003d0: 5e3b 7cbd be19 9e3d 890e ec3c c2ce 993d
000003e0: b1cb 703d fa7f a7bd 2e86 b4bd a45d dbbd
000003f0: fb69 793c ce33 593d f804 f5bd 22e4 a4bd

weight_ih_l1 f4 [256, 64]
-0.08812364 0.08541033 -0.028772939 -0.09527625 0.10409418 0.09051187 0.09337779 0.058372166
-0.051361114 0.040588044 -0.07071801 -0.052936822 0.02370166 0.028406441 -0.09815383 0.10415881
-0.005474356 -0.018730273 -0.08293293 -0.056440506 -0.015114311 0.0070188385 0.07809093 0.036193226
-0.022831295 -0.02041321 0.11249221 0.030460892 0.03185326 -0.045257177 0.033406127 0.0799557
0.102026515 -0.0073692272 0.025387451 0.016045352 -0.056554217 -0.112536155 0.035025336 -0.10794178
0.106963016 0.08207611 -0.09205259 -0.069385886 0.1034736 -0.039570272 -0.022832567 -0.039624866
-0.116782025 -0.06617063 0.034486238 0.025077298 0.09491432 0.017609296 0.019487644 0.04811736
0.022457413 0.12021879 -0.068717554 0.039450377 0.049020812 0.08646394 -0.11064469 -0.064514585
-0.09517116 0.016800618 -0.069376186 -0.111904435 0.07378039 0.057148032 0.030486101 0.12396282
0.10437777 0.018862952 -0.08202031 -0.09711254 -0.08406388 0.05676323 0.09742161 -0.024638046
0.019130453 -0.060047794 0.111927 0.030753067 0.087604575 -0.04972529 -0.04912498 0.056979172
-0.004135362 -0.051722866 -0.04065264 0.08961795 -0.046724934 0.017231096 0.07506841 -0.021275932
-0.018986063 0.030942658 0.11156641 -0.05811739 -0.069267325 -0.02896709 -0.120902844 -0.07970288
-0.073394254 0.038693115 -0.01353214 0.05536414 -0.02913946 -0.09702322 -0.04020781 -0.06132098
-0.1056616 0.11543601 -0.043500237 -0.04387015 0.09598122 0.11630328 -0.017458854 0.007943317
0.079365775 -0.011704663 0.12246085 -0.092893325 -0.008605749 -0.0062947175 0.1021943 0.03492578
0.030052625 -0.01907952 -0.09805961 0.102271065 0.087111495 0.0011630752 0.0152858235 -0.032557376
-0.033708192 0.103993 0.010137903 0.11845388 -0.014322443 -0.11888418 -0.12353804 0.099400856
0.087953486 -0.06365281 -0.08234854 -0.10903759 -0.11141574 -0.09014958 0.117586486 -0.063564725
0.05139305 -0.04219972 -0.017227342 -0.021432111 -0.12179913 -0.06698253 -0.10365294 -0.025489988
-0.105647065 0.07639223 0.08992986 0.019517755 -0.08246449 -0.03992219 0.12461644 -0.073593825
0.088350415 0.02326039 -0.00523312 0.12097776 0.09599192 0.046273183 -0.102982745 0.016343743
-0.09348238 -0.030938338 -0.046950545 -0.1073958 0.050589666 -0.097983524 -0.033932507 -0.030467313
0.022214776 0.033099122 -0.11172033 -0.059655935 -0.003916952 0.049172565 -0.088485435 0.09000312
0.124222845 0.07952337 -0.0011673892 -0.0353434 -0.0065254406 -0.041076276 -0.0120353475 0.1190278
0.11806128 0.048866596 0.04227353 0.076192014 0.080249585 0.02345335 0.118451506 0.024454845
-0.022145437 0.06757595 -0.019219397 0.022888593 0.007263814 0.00072323583 -0.055693775 0.0875935
0.01913168 0.09958172 -0.10009086 -0.09138013 -0.09266226 -0.035118353 -0.023875382 -0.06501747
-0.11880548 -0.013736981 -0.11283342 -0.041009083 -0.029724287 -0.020300115 -0.122073285 0.08157667
0.010228423 0.11519947 0.0787498 -0.03633611 0.036552195 0.084644616 0.065117866 -0.039418537
-0.118975416 0.03259835 0.030407205 -0.121100426 -0.05959864 -0.020050379 0.10824949 -0.08491628
0.11755172 0.09156303 0.120038465 0.0055168224 0.00042435637 0.05172785 -0.1137087 0.02834636
00000000: 2b7a b4bd 9ceb ae3d 3ab5 ebbc 3220 c3bd
00000010: 542f d53d 4a5e b93d db3c bf3d a717 6f3d
00000020: 0860 52bd a63f 263d 9bd4 90bd 48d4 58bd
00000030: fc29 c23c a0b4 e83c e004 c9bd 3751 d53d
00000040: 3a62 b3bb 3b70 99bc bdd8 a9bd 292e 67bd
00000050: 04a2 77bc 49fe e53b 23ee 9f3d 593f 143d
00000060: b208 bbbc 9b39 a7bc 5162 e63d 1f89 f93c
00000070: 9078 023d 975f 39bd ddd4 083d d0bf a33d
00000080: 47f3 d03d 8f79 f1bb 58f9 cf3c 8b71 833c
00000090: 65a5 67bd 5b79 e6bd ba76 0f3d 9410 ddbd
000000a0: 6d0f db3d 8517 a83d 1186 bcbd 301a 8ebd
000000b0: f7e9 d33d 7014 22bd 5d0b bbbc af4d 22bd
000000c0: 6a2b efbd 7884 87bd 7141 0d3d e86e cd3c
000000d0: 7062 c23d 5f41 903c 8da4 9f3c b516 453d
000000e0: 9cf8 b73c 4535 f63d cabb 8cbd b896 213d
000000f0: 0cca 483d 0214 b13d af99 e2bd 3920 84bd
00000100: 19e9 c2bd 73a1 893c 1a15 8ebd 272e e5bd
00000110: 2c1a 973d 0e14 6a3d fdbd f93c 38e0 fd3d
00000120: 03c4 d53d 7a86 9a3c 44fa a7bd f0e2 c6bd
00000130: af29 acbd 9080 683d fb84 c73d bad5 c9bc
00000140: 78b7 9c3c adf4 75bd fc39 e53d dbed fb3c
00000150: 076a b33d bfac 4bbd 4637 49bd fe62 693d
00000160: ee81 87bb 5bdb 53bd 6283 26bd 9e89 b73d
00000170: a562 3fbd 3a28 8d3c 77bd 993d dd4a aebc
00000180: a988 9bbc 757b fd3c ee7c e43d 800c 6ebd
00000190: 07dc 8dbd 644c edbc e99b f7bd 433b a3bd
000001a0: ba4f 96bd ac7c 1e3d e9b5 5dbc 82c5 623d
000001b0: e0b5 eebc 1cb4 c6bd f2b0 24bd b52b 7bbd
000001c0: 1c65 d8bd b769 ec3d 4e2d 32bd 30b1 33bd
000001d0: cd91 c43d 6a30 ee3d df05 8fbc b024 023c
000001e0: 868a a23d eac4 3fbc c1cc fa3d db3e bebd
000001f0: 21ff 0cbc eb43 cebb 3f4b d13d 560e 0f3d
00000200: ec30 f63c a74c 9cbc 7ad3 c8bd 7e73 d13d
00000210: 8367 b23d 5472 983a 6471 7a3c e25a 05bd
00000220: 9a11 0abd 48fa d43d 7219 263c f397 f23d
00000230: aea8 6abc 8d79 f3bd 8301 fdbd ad92 cb3d
00000240: f520 b43d 685c 82bd 5aa6 a8bd 1a4f dfbd
00000250: ef2d e4bd 58a0 b8bd 2fd1 f03d 392e 82bd
00000260: 8581 523d 9dd9 2cbd 5b20 8dbc 6592 afbc
00000270: d371 f9bd 232e 89bd fe47 d4bd 61d0 d0bc
00000280: 7d5d d8bd 8873 9c3d 252d b83d b3e3 9f3c
00000290: 24e3 a8bd 7385 23bd e736 ff3d 5cb8 96bd
000002a0: 10f1 b43d 938c be3c 987a abbb 30c3 f73d
000002b0: 6997 c43d f388 3d3d 9ee8 d2bd 50e3 853c
000002c0: b173 bfbd 6672 fdbc 374f 40bd 54f2 dbbd
000002d0: 1c37 4f3d 96ab c8bd d0fc 0abd 9696 f9bc
000002e0: c3fb b53c f292 073d a1cd e4bd c859 74bd
000002f0: c659 80bb 2c69 493d da37 b5bd 8e53 b83d
00000300: 8c68 fe3d 26dd a23d 1503 99ba 3ec4 10bd
00000310: 5dd3 d5bb 993f 28bd e82f 45bc d9c4 f33d
00000320: 1dca f13d 5728 483d 0227 2d3d 8f0a 9c3d
00000330: e559 a43d 3d21 c03c b496 f23d 8755 c83c
00000340: 596a b5bc 4265 8a3d ff71 9dbc dc80 bb3c
00000350: 4a05 ee3b 8997 3d3a 281f 64bd 3964 b33d
00000360: 0aba 9c3c 80f1 cb3d 70fc ccbd 8125 bbbd
00000370: b6c5 bdbd 43d8 0fbd 4e96 c3bc e127 85bd
00000380: 4a50 f3bd 1311 61bc 3515 e7bd 24f9 27bd
00000390: 5980 f3bc 6d4c a6bc 8f01 fabd ab11 a73d
000003a0: 1e95 273c b3ed eb3d 9347 a13d 2cd5 14bd
000003b0: c1b7 153d 285a ad3d 845c 853d 5575 21bd
000003c0: 62a9 f3bd d985 053d 8818 f93c 8003 f8bd
000003d0: b41d 74bd b140 a4bc e9b1 dd3d 96e8 adbd
000003e0: f5be f03d 6685 bb3d bad6 f53d 76c6 b43b
000003f0: 267c de39 95e0 533d 1be0 e8bd a036 e83c

weight_hh_l1 f4 [256, 64]
-0.01084012 0.029580098 0.051227998 -0.06254627 -0.044479042 0.090791695 -0.103298895 -0.0760552
0.031323697 0.0054205284 -0.05309411 -0.09635157 0.08433093 0.10511161 -0.08908719 0.10196445
0.037746385 -0.12173022 -0.02915252 0.058849793 -0.06566802 0.046311345 0.12090166 0.060457245
0.037891828 -0.03204811 0.09078051 0.034061663 0.03102792 0.11859973 0.053473737 0.09648329
-0.09447594 -0.05250196 -0.020781722 0.11230063 -0.08064013 0.012462376 -0.11655863 0.061930757
-0.053492405 0.06962087 -0.020582503 -0.109553404 -0.066244036 0.123061284 0.065548465 -0.08557714
-0.09791822 0.09795471 0.039620195 -0.050024256 -0.054059017 0.08099733 0.06619341 -0.04261147
0.07027671 0.004889327 -0.059249677 -0.07449393 0.059303723 -0.025455577 -0.12088839 0.029888015
0.035694145 0.016796935 0.0069118775 -0.024271647 -0.072294325 0.114962764 0.062688634 0.012534755
0.12190152 0.01924834 0.0035437013 -0.09816686 -0.009895031 -0.009458773 -0.020983782 0.028323563
-0.10669045 0.012520658 -0.028868778 -0.07141951 -0.059856307 -0.11387283 -0.050339565 0.07907131
-0.09612683 0.123908006 -0.10394755 -0.09258598 -0.044598773 -0.03666385 -0.09027956 -0.10355342
-0.058183588 -0.06494978 -0.07420338 -0.05393651 0.10221318 0.007693524 0.023227429 -0.118072666
0.01421267 -0.068721585 -0.033447474 -0.10213172 0.022054093 0.096853055 -0.043905918 0.07482722
0.10125217 0.109282985 0.005013348 -0.05241011 -0.013455576 -0.12126509 0.016771741 -0.06795042
-0.06695694 0.05866393 0.012293475 -0.031546947 -0.023413386 0.107609525 -0.09680956 0.11458563
-0.11667053 0.020037191 0.10298497 -0.03655782 0.025026686 -0.0074150315 -0.10993152 -0.03259063
0.04736492 -0.08392174 -0.022741927 -0.110675715 0.01607016 0.06117209 -0.12445706 0.11040035
-0.023954762 0.012703765 0.027314756 0.0406501 -0.087227054 0.010903068 0.09000518 0.11785091
0.11106473 -0.06790143 -0.06977769 0.0440711 -0.12286801 0.09794005 -0.10305885 -0.009207218
-0.09088978 -0.06160693 -0.08174126 0.052375313 0.043583084 0.08675928 -0.034204986 -0.047917247
-0.03276093 0.008585743 0.0575893 0.06444892 -0.054312166 0.09310977 0.015423373 0.0050593223
0.08431244 0.09345117 0.11877173 0.048565004 0.094400615 -0.018384716 0.10145372 0.10224688
-0.015309564 -0.11688623 -0.0560519 -0.06939051 0.095935345 0.088467665 0.112165034 -0.115975335
0.08454305 0.06309764 0.01697109 -0.08406375 0.0317922 -0.09206614 -0.11834534 -0.056588113
-0.06305028 0.056936532 0.07253405 0.109472916 0.1213374 -0.06133757 -0.053253736 0.070547625
0.0560578 0.072795436 0.08653877 -0.028953623 0.046747692 0.1007842 -0.043935258 0.03336349
0.034763023 -0.06658897 -0.012914828 -0.060621817 0.10244543 -0.024128562 0.09117773 -0.08765647
0.08631659 0.02721873 -0.013397177 -0.06264652 -0.11150429 0.09290987 0.05365581 -0.0034506135
-0.017119518 -0.017763915 0.09650784 -0.027175251 -0.09263644 -0.054271296 0.008944014 0.076228276
-0.123543665 -0.03755432 0.025672616 0.0832189 0.06717362 -0.06681707 -0.031669706 -0.07053509
0.10434686 -0.07401168 -0.020166466 0.06020054 0.046457104 -0.020355089 -0.044729576 0.05776288
00000000: c29a 31bc f651 f23c 73d4 513d 4218 80bd
00000010: a82f 36bd fff0 b93d 5f8e d3bd d4c2 9bbd
00000020: 474d 003d b09e b13b 3679 59bd f953 c5bd
00000030: b2b5 ac3d c144 d73d 5873 b6bd bdd2 d03d
00000040: f49b 1a3d b24d f9bd 44d1 eebc 7b0c 713d
00000050: f47c 86bd f7b0 3d3d 4a9b f73d 04a2 773d
00000060: 7634 1b3d e144 03bd 22eb b93d 3e84 0b3d
00000070: 442e fe3c 6ae4 f23d 4707 5b3d 0899 c53d
00000080: 9a7c c1bd 4c0c 57bd 6e3e aabc dffd e53d
00000090: a726 a5bd fe2e 4c3c 4ab6 eebd 1bab 7d3d
000000a0: da1a 5bbd 6395 8e3d a39c a8bc 895d e0bd
000000b0: f4aa 87bd 8e07 fc3d 463e 863d 1143 afbd
000000c0: 5989 c8bd 7b9c c83d c948 223d 3ce6 4cbd
000000d0: fd6c 5dbd eee1 a53d 6990 873d 5d89 2ebd
000000e0: 3ced 8f3d a636 a03b caaf 72bd 4690 98bd
000000f0: 76e8 723d 3788 d0bc 5594 f7bd b6d7 f43c
00000100: 0634 123d ba99 893c 087d e23b 55d5 c6bc
00000110: 0c0f 94bd 9971 eb3d e662 803d 935e 4d3c
00000120: 81a7 f93d b2ae 9d3c 713d 683b b50b c9bd
00000130: c51e 22bc f8f8 1abc 2ee6 abbc d106 e83c
00000140: 8680 dabd 7223 4d3c 377e ecbc 6444 92bd
00000150: e32b 75bd 2936 e9bd dc30 4ebd 24f0 a13d
00000160: 25de c4bd 7bc3 fd3d 74e2 d4bd b89d bdbd
00000170: 34ad 36bd d52c 16bd 7de4 b8bd d113 d4bd
00000180: ea51 6ebd 6404 85bd f1f7 97bd 88ec 5cbd
00000190: 2555 d13d f519 fc3b 7347 be3c 15d0 f1bd
000001a0: 42dc 683c e7bd 8cbd 3800 09bd 6f2a d1bd
000001b0: c9aa b43c e55a c63d b1d6 33bd 033f 993d
000001c0: 4c5d cf3d c2cf df3d 0347 a43b fcab 56bd
000001d0: c774 5cbc d559 f8bd e464 893c 9729 8bbd
000001e0: b820 89bd 9749 703d 926a 493c 5f37 01bd
000001f0: 6ecd bfbc 6262 dc3d 1744 c6bd dfab ea3d
00000200: f5f0 eebd 0925 a43c c9e9 d23d a7bd 15bd
00000210: c404 cd3c cbf9 f2bb c723 e1bd c17d 05bd
00000220: b801 423d 29df abbd 474d babc f3a9 e2bd
00000230: 91a5 833c 968f 7a3d 58e3 febd 9419 e23d
00000240: c73c c4bc 7423 503c 32c3 df3c b880 263d
00000250: 19a4 b2bd c8a2 323c a354 b83d d15b f13d
00000260: e875 e33d e80f 8bbd 9be7 8ebd e683 343d
00000270: 39a2 fbbd cb94 c83d 8510 d3bd dfd9 16bc
00000280: 6c24 babd 8c57 7cbd f667 a7bd 7f87 563d
00000290: 2d84 323d d9ae b13d 871a 0cbd e044 44bd
000002a0: 5330 06bd 37ab 0c3c c2e2 6b3d ccfd 833d
000002b0: 6f76 5ebd 56b0 be3d 51b2 7c3c acc8 a53b
000002c0: 00ac ac3d 5463 bf3d 983e f33d 19ec 463d
000002d0: 1c55 c13d 8b9b 96bc f8c6 cf3d d066 d13d
000002e0: f7d4 7abc 0c62 efbd ad96 65bd 9d1c 8ebd
000002f0: c079 c43d 892e b53d c8b6 e53d 7a84 edbd
00000300: e824 ad3d 5639 813d f506 8b3c 9e29 acbd
00000310: 8a38 023d 2c8d bcbd 0b5f f2bd f0c8 67bd
00000320: 8120 81bd 4836 693d bb8c 943d 5633 e03d
00000330: be7f f83d 1b3d 7bbd 9720 5abd 467b 903d
00000340: dd9c 653d c615 953d 3d3b b13d 2630 edbc
00000350: 827a 3f3d f267 ce3d 75f5 33bd 28a8 083d
00000360: ac63 0e3d cc5f 88bd b798 53bc 954e 78bd
00000370: e9ce d13d 43a9 c5bc 64bb ba3d 3c85 b3bd
00000380: c1c6 b03d d0f9 de3c d57f 5bbc d24c 80bd
00000390: 5c5c e4bd 8847 be3d 32c6 5b3d b023 62bb
000003a0: 3b3e 8cbc a185 91bc e7a5 c53d a29e debc
000003b0: 2db8 bdbd 944b 5ebd ea89 123c 921d 9c3d
000003c0: 7604 fdbd 8fd2 19bd 614f d23c ac6e aa3d
000003d0: 5392 893d 63d7 88bd 18b8 01bd b474 90bd
000003e0: ceb3 d53d 7093 97bd 2534 a5bc d794 763d
000003f0: ce49 3e3d b7bf a6bc 5c36 37bd c598 6c3d

bias_ih_l1 f4 [256]
-0.08935568 0.01406884 0.088586845 0.074499935 0.045708705 -0.03211865 0.04522001 -0.10703332
-0.07886874 0.11775379 0.06849683 0.12024776 -0.00961869 0.090920135 0.011230957 -0.03266681
-0.10021897 0.09782988 0.07139541 0.08199646 0.018162614 0.096644685 0.12440434 -0.07867876
0.020126645 0.11791157 -0.11419949 -0.015211827 -0.06941665 -0.102727346 -0.09442762 -0.0713518
-0.063657396 -0.05262931 0.13727011 0.020752393 -0.04814705 -0.10134325 -0.038503457 -0.10463062
0.017312665 -0.10464818 0.08080711 0.0036496436 -0.106423184 -0.04581176 0.06306574 -0.0027303156
0.008091907 -0.1153833 -0.08532891 0.11638683 0.060501873 0.064406596 -0.093544185 0.022118911
0.11107185 0.026255645 0.06113703 -0.01671226 0.09845693 -0.046804342 -0.009376709 0.0789666
-0.03700454 -0.11639588 0.040764075 0.12508291 -0.11155647 -0.029225642 0.035108436 0.09697385
0.12299738 -0.08586454 0.050802477 -0.085097246 -0.090715125 0.0052642105 0.010163553 0.018024208
-0.06281908 0.009062653 0.092051916 -0.04966359 0.08777215 -0.009300418 0.05011412 0.06727478
0.07161494 -0.0972662 0.027053988 0.0017771627 -0.11881861 -0.04916578 -0.03326903 -0.0031765446
-0.104660854 0.029464861 0.05097223 0.06320524 -0.023079472 -0.100610495 0.059592396 -0.06584888
0.013682003 0.043210816 0.11055943 0.08520679 -0.09824806 0.044944756 -0.053404793 -0.014927099
0.08124415 0.014123423 0.055784505 0.058409385 0.0057184114 0.0762931 -0.00037170673 -0.06597226
-0.026612848 0.08212894 -0.09182259 0.08130179 0.006322433 -0.025639942 -0.020429926 -0.0039122235
-0.076229386 0.01946409 0.00249647 0.08091428 0.03797452 -0.093967855 -0.012053592 -0.01755185
-0.12685335 0.026142295 -0.080581784 0.08380372 -0.058769517 0.088491514 -0.07811317 0.08369459
-0.06481749 0.09996977 -0.0135841835 -0.044981286 -0.050852112 -0.08755082 -0.112127736 -0.06432533
0.037327908 0.03474624 -0.029190963 0.0664034 0.006546368 -0.020600047 0.11079982 0.08499729
0.08001875 -0.012422416 0.0639431 0.1034268 0.040343363 0.013381104 -0.01943622 0.030541372
0.08841593 0.025691977 -0.07326468 0.0269744 0.053785216 0.062039416 -0.07795255 0.013669674
0.054283734 -0.0085534835 -0.014710102 0.11351341 0.040576354 -0.058547124 -0.10083128 -0.109043814
-0.07867416 0.07938866 -0.1144307 0.037410557 0.06414037 -0.10806224 -0.09211852 -0.050995484
-0.042522658 0.072041154 -0.116203964 0.0034948052 -0.054888792 -0.035167966 0.022254309 -0.07318551
-0.07696909 -0.09905372 0.0812729 0.10692791 -0.027979892 0.048007052 0.1036224 0.12033455
0.113249086 0.03260098 0.11590161 0.047102284 0.10370232 -0.016314361 0.081657924 -0.10005973
0.056177866 -0.04407145 -0.08580486 0.10389274 0.10160444 -0.08062217 -0.090159714 -0.03514433
0.016132494 -0.111622386 0.016389804 -0.088835545 0.05520875 0.09726849 0.08644485 -0.09443903
0.08086662 0.082551695 0.10815064 -0.0017103099 -0.041742094 0.027199304 0.08094816 0.04652126
-0.05429933 0.06928392 -0.09766393 -0.04157356 0.122402936 -0.02295931 -0.110799044 -0.05492759
-0.081682414 0.0634323 0.03286272 -0.114821285 -0.056449212 -0.02229036 0.0014518747 0.08725196
00000000: 1c00 b7bd fe80 663c 056d b53d 6c93 983d
00000010: 0d39 3b3d d88e 03bd 9e38 393d 4934 dbbd
00000020: ef85 a1bd e628 f13d 1148 8c3d 7544 f63d
00000030: b697 1dbc 5634 ba3d 0c02 383c a2cd 05bd
00000040: 9a3f cdbd 085b c83d c237 923d c3ed a73d
00000050: c3c9 943c a6ed c53d b4c7 fe3d 5422 a1bd
00000060: a2e0 a43c 9f7b f13d 6ce1 e9bd 073b 79bc
00000070: 512a 8ebd b762 d2bd 4563 c1bd e420 92bd
00000080: cf5e 82bd d591 57bd 8990 0c3e ec00 aa3c
00000090: d735 45bd 0d8d cfbd cdb5 1dbd 9448 d6bd
000000a0: 4ad3 8d3c c951 d6bd 337e a53d dc2e 6f3b
000000b0: 66f4 d9bd 1da5 3bbd 9c28 813d 18ef 32bb
000000c0: eb93 043c 144e ecbd ecc0 aebd 385c ee3d
000000d0: d0d0 773d 9be7 833d 1894 bfbd b832 b53c
000000e0: a379 e33d 1416 d73c d36a 7a3d 26e8 88bc
000000f0: c9a3 c93d e9b5 3fbd c5a0 19bc 3eb9 a13d
00000100: 1392 17bd f760 eebd 3bf8 263d bc15 003e
00000110: b877 e4bd 9d6a efbc ddcd 0f3d 3a9a c63d
00000120: 0de6 fb3d bfd9 afbd 4216 503d 7747 aebd
00000130: dac8 b9bd 667f ac3b 0885 263c 81a7 933c
00000140: 4aa7 80bd 867b 143c b785 bc3d 0c6c 4bbd
00000150: e3c1 b33d c860 18bc 7744 4d3d 5cc7 893d
00000160: dbaa 923d 8033 c7bd 53a0 dd3c afef e83a
00000170: 2c57 f3bd 0f62 49bd 1b45 08bd 932d 50bb
00000180: 6e58 d6bd 4b60 f13c 42c8 503d c071 813d
00000190: 2911 bdbc e00c cebd 2817 743d c7db 86bd
000001a0: 7b2a 603c d3fd 303d fc6c e23d e680 ae3d
000001b0: 4736 c9bd fe17 383d fcbe 5abd cb90 74bc
000001c0: 5563 a63d ee65 673c 4b7e 643d ae3e 6f3d
000001d0: 8361 bb3b 8f3f 9c3d a2e1 c2b9 771c 87bd
000001e0: 3003 dabc 3833 a83d 7b0d bcbd 8e81 a63d
000001f0: 692c cf3b db0a d2bc a95c a7bc 1c32 80bb
00000200: 271e 9cbd 2873 9f3c d19b 233b 63b6 a53d
00000210: 2c8b 1b3d 3872 c0bd 6e7c 45bc e6c8 8fbc
00000220: d8e5 01be 5e28 d63c 1008 a5bd 49a1 ab3d
00000230: 4eb8 70bd 0a3b b53d ccf9 9fbd 1268 ab3d
00000240: 08bf 84bd f3bc cc3d 3290 5ebc 4c3e 38bd
00000250: 4e4a 50bd d84d b3bd 3aa3 e5bd 00bd 83bd
00000260: 26e5 183d 1352 0e3d e321 efbc 81fe 873d
00000270: ea82 d63b 6ec1 a8bc 04eb e23d 0f13 ae3d
00000280: dfe0 a33d 6487 4bbc 9af4 823d 6ed1 d33d
00000290: 153f 253d 6b3c 5b3c b538 9fbc e631 fa3c
000002a0: 6913 b53d fb77 d23c cb0b 96bd 6bf9 dc3c
000002b0: e34d 5c3d 0b1d 7e3d 96a5 9fbd c5f6 5f3c
000002c0: 9f58 5e3d e923 0cbc a402 71bc b879 e83d
000002d0: 6433 263d 1ccf 6fbd a180 cebd 5d52 dfbd
000002e0: eb1f a1bd 8696 a23d a55a eabd d03b 193d
000002f0: 075c 833d bc4f ddbd a2a8 bcbd a4e0 50bd
00000300: 3d2c 2ebd 508a 933d 58fc edbd 1a09 653b
00000310: 12d3 60bd 490c 10bd ab4e b63c 49e2 95bd
00000320: f8a1 9dbd addc cabd 6872 a63d 05fd da3d
00000330: 1636 e5bc 0ba3 443d fb37 d43d f671 f63d
00000340: 23ef e73d 9b88 053d d35d ed3d 53ee 403d
00000350: e261 d43d b2a5 85bc 453c a73d 1eec ccbd
00000360: c31a 663d 4484 34bd 75ba afbd b8c5 d43d
00000370: fd15 d03d 3c1d a5bd a8a5 b8bd 80f3 0fbd
00000380: 4b28 843c 479a e4bd e943 863c 69ef b5bd
00000390: 9222 623d b434 c73d ff09 b13d 4069 c1bd
000003a0: 669d a53d dd10 a93d 157e dd3d 7a2c e0ba
000003b0: c2f9 2abd 13d1 de3c 26c8 a53d 148d 3e3d
000003c0: f968 5ebd bae4 8d3d 0704 c8bd 0a49 2abd
000003d0: 64ae fa3d 2a15 bcbc 9cea e2bd c1fb 60bd
000003e0: 1c49 a7bd cbe8 813d 0f9b 063d 6c27 ebbd
000003f0: 4a37 67bd 469a b6bc d54c be3a 28b1 b23d
