models saved/SGD_ETTh1.pth (torch, 353371 bytes, 15 tensors)

weight_ih_l0 f4 [256, 7]
000000 66 eb 0a bc 1e 3b 22 bd f1 cb c1 3d 47 3b 32 bd
       -0.008478975 -0.03960716 0.09462727 -0.043513563
000010 26 12 1d 3d cd df bb 3b 10 6a f1 3c f5 82 ba 3d
       0.038347386 0.0057334662 0.02946952 0.09107009
000020 ec 6c 87 3d d9 cf d1 3d 33 a2 9e 3c 4c fd 36 bd
       0.06612572 0.10244722 0.019364452 -0.044675156
000030 91 ef f6 3c a7 f2 87 bd c1 24 dd 3d 5f 83 ed 3b
       0.030143531 -0.06638079 0.10798026 0.0072483267
000040 e1 d7 f7 3c 0c 86 93 3d 46 5f a8 3d 5f fe 5f 3d
       0.030254306 0.07203302 0.08221297 0.054685947
000050 e4 41 af bd 7a 95 90 3d 04 2f 4c 3c 99 29 bf 3c
       -0.085574895 0.070597604 0.012462381 0.023335265
000060 e7 38 ce 3c ce 63 b2 3d bc 6a c2 bd e9 30 4a bd
       0.025173618 0.087104425 -0.09493014 -0.04936305
000070 19 9c e1 3d 46 b2 f5 3b 28 9e b1 bd 7c 80 30 bd
       0.110161014 0.0074980585 -0.08672744 -0.043091282
000080 ae db 20 bb 06 da 59 3d 2c 23 db bd 42 50 e2 bd
       -0.0024545002 0.05318644 -0.10700068 -0.11050464
000090 d6 77 2b bd 4b 9d 09 bd 6e 83 26 bd cb 37 9e 3d
       -0.04186233 -0.033597272 -0.040652685 0.077254854
0000a0 75 36 1f 3d 7f 33 ba 3d ad 6c 0c 3d 01 dc 84 3d
       0.038870294 0.09091853 0.03428333 0.06487275
0000b0 8c fe eb bc be fb 3b 3d 20 8f 94 3d e3 8c 42 bd
       -0.0288079 0.045894377 0.072538614 -0.04749764
0000c0 d7 dc cb 3d 82 69 85 bd 31 bf 39 bd 9a a2 85 3d
       0.09954231 -0.06514265 -0.04534835 0.065251544
0000d0 71 6f b5 bd 79 15 00 bd ac 9b f1 3d 69 23 18 bd
       -0.088591464 -0.031270478 0.1179727 -0.037143145
0000e0 54 59 67 bd 2c 52 b8 3d 9a 5b cb bd b4 f5 2c 3d
       -0.056481674 0.09000048 -0.09929581 0.04222651
0000f0 3c d4 a9 3d 6a cc 88 3d fb 28 ea 3c 38 2c cb bc
       0.082924336 0.06679614 0.028583994 -0.024801359
000100 8e 67 d3 bd 38 4d f0 bd c7 d8 8c bd aa e9 a3 3d
       -0.10322486 -0.11733478 -0.068772845 0.08003552
000110 17 41 58 bd 74 bd e7 3d 6e 3c a3 bc 04 d3 1a bd
       -0.05279645 0.11315432 -0.019926276 -0.037798896
000120 59 5c 2d bb de 27 38 bd 29 b4 dc 3d cd 2c 47 bd
       -0.0026452749 -0.044959895 0.1077655 -0.04862671
000130 75 f4 d0 3c 74 92 91 3d fd a6 b8 bd ca b0 23 bb
       0.025507191 0.07108012 -0.090162255 -0.00249772
000140 78 9d 97 bd 48 cd ff bd 12 c4 9e bb 9b 84 cb bc
       -0.07403082 -0.12490326 -0.0048451507 -0.024843505
000150 4d 3a 3e 3d 0a 75 e9 3c 98 55 b0 bc de c8 12 bd
       0.04644232 0.028498191 -0.02152519 -0.035836093
000160 0e 52 f8 bd df ec d7 bd c8 24 91 3d 6d b4 de 3c
       -0.12125026 -0.105432265 0.070870936 0.027185643
000170 51 b9 c8 bd 4d 6f 98 bc d4 67 a9 3d c6 24 c0 bd
       -0.09800971 -0.01860776 0.08271757 -0.09382014
000180 43 ec 00 3e d6 a3 b4 bd 17 7a eb bb 39 44 b1 3d
       0.12590127 -0.08820312 -0.007186185 0.086555906
000190 2b c9 0c 3d 39 b1 c8 bd ca ef 1d 3d d4 ef 80 bd
       0.034371536 -0.097994275 0.03855876 -0.062957436
0001a0 65 f3 9a 3d f3 24 d0 3d f2 d2 ad 3d 51 cb df bd
       0.07565955 0.101632975 0.084875 -0.109274514
0001b0 bf 1b a0 bd 2b c0 b7 bd 55 9b e6 bd 6e 9a db 3d
       -0.07817792 -0.089722 -0.11260096 0.107228145
0001c0 58 d8 57 3d 24 96 76 bc 94 78 2a bd 68 1c 89 3d
       0.052696556 -0.015050445 -0.0416189 0.06694871
0001d0 cb 51 e2 3c 96 aa df 3d 2b 94 9b 3d 2c 47 79 bc
       0.027626893 0.109212086 0.0759662 -0.015214723
0001e0 75 57 1a 3c 51 c3 93 bc 9a 26 8a 3d b6 9c e6 3d
       0.009420265 -0.01803747 0.06745644 0.11260359
0001f0 48 1c 31 bc ee 01 94 bc 44 e7 6e bd 99 53 e9 bd
       -0.010809965 -0.018067326 -0.05832602 -0.11392898
000200 9c 47 81 3d c2 b8 89 bb be 49 81 3d eb 18 bc 3d
       0.063124865 -0.004202933 0.06312893 0.0918444
000210 9a d8 ab bd bc a0 c9 bc 12 f4 ba bc fc f5 89 bb
       -0.08390923 -0.024612777 -0.02282146 -0.004210232
000220 d1 34 ed 3d 54 65 0b 3d 91 8f f8 3d ba f7 0f 3d
       0.115823396 0.03403218 0.12136758 0.03514836
000230 9d 26 c9 bd 15 3f e3 bd a6 26 33 3d 7f c7 b7 bd
       -0.09821818 -0.11096016 0.04373803 -0.08973598
000240 d7 e7 43 bd 01 10 a1 bd b8 73 e1 3d 01 8c d9 3d
       -0.04782852 -0.07864381 0.110084 0.10622407
000250 55 c2 e8 bd b8 61 ca bd b9 cc a7 3d a2 68 8d bc
       -0.11365191 -0.098819196 0.081933446 -0.017261807
000260 8b 57 61 3d 13 29 35 bd 34 db 14 3d 98 ec 0e bd
       0.055015128 -0.044228625 0.03634186 -0.034893602
000270 1f 94 4a bd 5c 48 28 bd c6 41 3d 3c 2c 48 3e bd
       -0.049457666 -0.041084632 0.011551326 -0.046455547
000280 6d e8 55 bd 34 aa 66 bc d3 43 17 3c 6e ad ca bd
       -0.05222361 -0.0140786655 0.009232479 -0.0989636
000290 35 9c f8 3d c5 42 ac 3d 1c b7 b6 bd 8d 8f 21 3d
       0.12139169 0.08411173 -0.08921644 0.03944354
0002a0 d2 fb 52 3d da ca b9 3c e7 26 a5 3d ce 1b 98 3c
       0.051509686 0.022679735 0.08064061 0.018567946
0002b0 33 ad d9 3d 4f bd 94 3d ec 09 64 3d 08 dd d2 3d
       0.10628738 0.0726267 0.055673525 0.102960646
0002c0 b6 42 73 3d 5d 98 fd 3d f0 92 21 3d 13 c1 9b 3c
       0.059389792 0.123825766 0.03944677 0.019012963
0002d0 cf cd c2 3c b4 a9 dc 3b df e7 d9 3d db 09 94 3d
       0.023779778 0.0067340974 0.10639929 0.07228442
0002e0 49 df c1 bd fe a6 c7 bd ce e4 93 bd 30 02 06 bd
       -0.094664164 -0.09748648 -0.072213754 -0.03271693
0002f0 c3 01 15 bd fc 8c 3c 3c f0 12 65 3a c6 b0 87 bd
       -0.036378633 0.011508223 0.00087384786 -0.06625514
000300 4d 69 a4 bd aa 31 1f bc ac 81 49 3c 09 8c 17 bd
       -0.08027897 -0.009716431 0.012298983 -0.036998782
000310 52 e4 46 3c 4b f8 40 3b 00 b3 e1 3c 03 22 89 3d
       0.012139397 0.002944487 0.027551174 0.0669594
000320 0e c2 87 3d 64 7f 7d bd 69 c8 d8 3d 0d d6 f7 3c
       0.0662881 -0.061889067 0.105851 0.030253435
000330 8e 93 f8 bd 9b aa 5f bd b9 9d 55 bd ea 8f 47 bd
       -0.12137519 -0.05460606 -0.05215237 -0.04872123
000340 34 98 d3 3d a7 35 d7 3d 29 fe 87 3d e9 13 f2 bc
       0.10331765 0.1050828 0.06640274 -0.02955051
000350 66 09 c3 bb ab b2 9d 3d f7 62 8e 3d 0b b8 4a bd
       -0.005952048 0.07700094 0.0695247 -0.049491923
000360 3b f7 fd 3d c4 ba fb 3b 64 29 f2 3d 8c 24 c0 3d
       0.12400671 0.0076821763 0.11824301 0.09381971
000370 1f 16 fa bd ef c9 8e bd 62 e3 9e 3d 25 8f e2 3d
       -0.122112505 -0.069721095 0.077582136 0.11062459
000380 1a 9d a2 3c 8c 1c 83 3d 7d 47 65 3d 6e 78 b5 bd
       0.019850302 0.06401929 0.05597638 -0.08860861
000390 a1 f6 4f 3d ca b8 a0 3c 2f 0f 42 bc 08 7f ec bd
       0.050772313 0.019619364 -0.01184444 -0.11547667
0003a0 f6 12 12 3d 8e ce c8 3d 91 19 5e 3b 3e b3 5d bc
       0.035662614 0.09805022 0.003388975 -0.013531504
0003b0 73 b8 66 bc 99 74 2c 3d 6d 11 ed 3d 79 ad ad 3c
       -0.014082062 0.042103384 0.11575589 0.021200882
0003c0 25 0b a4 bd 1d 7e 3e 3c 88 12 fb bd 76 6d 69 3d
       -0.08009938 0.011626747 -0.12259394 0.056989156
0003d0 b0 38 84 bc 27 10 43 bd 30 10 9d bd 49 f8 db 3d
       -0.016140312 -0.047622826 -0.07669103 0.10740716
0003e0 86 c0 00 be 4c 7d fa bd 51 3c a9 bc 5f 5f f4 3c
       -0.12573442 -0.1223093 -0.020658644 0.029830633
0003f0 8c 5d d7 3d 11 5f 88 bd 16 60 b2 3d 60 fe cc 3d
       0.105158895 -0.066587575 0.08709733 0.10009456

weight_hh_l0 f4 [256, 64]
000000 78 fd 51 bc 9d 3c 66 bd 58 14 ea 3d 2b bd ac 3d
       -0.012816779 -0.05621015 0.114296615 0.084345184
000010 23 c2 b1 3d e7 11 e5 bd e8 42 ee 3c 65 14 db bd
       0.08679607 -0.11185055 0.029084638 -0.10697249
000020 62 a8 c6 3c c3 ef a2 bd 47 4d e3 3b da ad a6 3c
       0.024250213 -0.07955887 0.0069367024 0.02034657
000030 78 b9 e2 3c a5 03 ac 3c 6c d0 f6 3d c4 e6 e6 bd
       0.027676329 0.020997832 0.12051472 -0.11274484
000040 3d 3a ec 3d 5c 0a ed 3d ed e8 31 3d d1 37 5a bd
       0.115345456 0.115742415 0.043435026 -0.053275887
000050 aa d9 66 bd 6b e4 59 bc 77 a4 5d bd df 40 a8 bd
       -0.056359924 -0.013299088 -0.054111924 -0.08215498
000060 2f 48 bc 3d c4 93 46 bb 7a 16 60 3d 49 b0 70 bc
       0.091934554 -0.0030300478 0.054708935 -0.014690467
000070 14 10 b8 bd a5 4a e5 bd d7 7e d4 3d 77 5e ee bc
       -0.08987442 -0.11195878 0.10375755 -0.029097779
000080 90 69 b1 3c 03 54 de bc fe ae ec 3d 40 30 d6 bd
       0.021656781 -0.02713967 0.115568146 -0.10458422
000090 60 e9 e4 3d b3 a3 ef bc bf 58 52 bd 28 89 f9 bd
       0.11177325 -0.029252863 -0.051354166 -0.121843636
0000a0 3c a1 6e bc bd d9 03 3d e0 f8 c7 bd 32 15 8c 3d
       -0.014564808 0.032190073 -0.09764266 0.0683998
0000b0 af 1a 8a 3d e8 e0 c7 bd 0e b5 34 3d 9c 5b 84 3d
       0.06743371 -0.09759694 0.04411798 0.064627856
0000c0 97 f8 b3 3a 48 c8 c8 3c fa 3f b7 bc 97 56 96 3c
       0.0013730702 0.024509564 -0.022369374 0.018351836
0000d0 5b 2f 25 3c 60 33 54 3d 73 46 52 bd a1 f7 bf 3b
       0.010082091 0.051806808 -0.051336717 0.005858377
0000e0 82 5a fc 3d 1c 71 e6 bd 5a c0 ab 3d 1c 46 c5 3d
       0.123219505 -0.11252043 0.083862975 0.09632513
0000f0 42 c2 21 bd 60 af 52 bd 84 d7 09 bb 0c cb 08 bb
       -0.0394919 -0.051436782 -0.0021032998 -0.0020872978
000100 c5 8f d5 bd e4 d1 b8 bd 20 9b e3 bd d0 41 04 bd
       -0.104278125 -0.090244085 -0.11113572 -0.032289326
000110 53 be cf bd 75 f4 c2 ba 01 6b f9 bd 6c 16 b0 3c
       -0.10143723 -0.0014873879 -0.121786125 0.021495067
000120 38 2b b3 bc 21 22 1a bd ca 47 3c bc 64 01 e2 bc
       -0.021871194 -0.037630204 -0.011491725 -0.027588554
000130 62 ff 4c 3d 1b 2c a7 bd 3c 0f a4 bd 3b b0 3e bd
       0.05004824 -0.08162709 -0.08010718 -0.046554785
000140 ff ba af bc 36 2f 4a 3d 36 d6 70 bd 48 b9 c6 3d
       -0.021451471 0.04936143 -0.058798037 0.09703308
000150 73 60 90 3d 16 12 6e 3d d8 47 e9 3d c5 d0 88 b8
       0.07049646 0.058122717 0.11390656 -6.523872e-05
000160 95 e7 86 3d f7 55 c8 3d 77 86 b2 3d 74 20 2d 3d
       0.065871395 0.097820215 0.087170534 0.042267278
000170 c9 9a 13 3c 9c fd d4 3d 64 36 af bd 2a 28 a2 3d
       0.009009072 0.10399935 -0.08555296 0.07917817
000180 ac d0 a1 3d cd dc 70 3d e6 a0 ec bb b6 d8 e0 ba
       0.07901129 0.058804322 -0.007221329 -0.0017154429
000190 94 15 43 3d 63 3d 9a bd 39 81 e6 bd 46 1c 4b 3d
       0.047628 -0.0753124 -0.11255116 0.04958751
0001a0 46 0b 71 bb 7d e2 cc 3c fd 00 fc 3d 4b 57 65 bb
       -0.00367804 0.025010342 0.12304876 -0.0034994658
0001b0 fb 55 ea bb 1f b0 b9 bd 4d 34 b6 bd 48 00 43 3d
       -0.007151363 -0.090667956 -0.08896694 0.04760769
0001c0 83 11 98 3d 56 64 5a 3d 86 9c b0 bd 9a 5d bc 3d
       0.07425215 0.053318344 -0.086236045 0.091975406
0001d0 08 d2 ee 3d 49 76 f6 bc 03 68 e6 bc 03 7d 76 3d
       0.11661154 -0.0300857 -0.028125769 0.060177814
0001e0 11 b5 18 bc 34 d4 fb 3d f0 85 9b bd dd 97 0e 3d
       -0.009320513 0.12296334 -0.07593906 0.034812797
0001f0 a1 9f a1 bd 4b 7a d5 3d a7 2b 5e bd 2b 42 d6 3c
       -0.07891775 0.10423716 -0.05424085 0.026154598
000200 b8 c9 83 bd 12 18 37 bd ef 5f e3 bc a7 a3 44 bd
       -0.06434959 -0.04470069 -0.027755706 -0.048007634
000210 60 c5 36 3d f1 70 cf 3c 11 07 7d 39 9c 92 b8 bd
       0.044621825 0.02532241 0.00024130593 -0.090123385
000220 11 c5 69 bd 9e 4d c5 3c 87 01 67 bc c0 60 dd bc
       -0.057072703 0.024084862 -0.014099485 -0.027023673
000230 26 68 87 bd 0d 07 cc 3d d8 e3 68 3d e3 48 f8 3b
       -0.066116616 0.09962282 0.056857914 0.007577048
000240 fa c5 fb 3d 65 75 39 bd 46 fb 43 bd c2 17 e3 3d
       0.122936204 -0.04527797 -0.047847055 0.11088516
000250 9c 6b b2 bd 14 76 9b bd c7 24 ba bd 46 0b 60 bd
       -0.08711931 -0.07590881 -0.09089046 -0.05469825
000260 66 ce 77 3d ef a7 cf bd 78 41 85 3c 2f 95 ba 3c
       0.06049957 -0.10139453 0.01626657 0.022776214
000270 f4 83 95 39 1c 8a bd 3d bb 08 d3 3d 83 dd 97 3d
       0.00028517807 0.09254858 0.103043996 0.07415297
000280 71 f9 ad 3d 21 51 ca bc 01 15 81 bd 20 d8 fa 3c
       0.08494843 -0.024696888 -0.06302834 0.030620635
000290 b3 6a e9 3d 00 e4 fd 3d 10 2f 2c 3d f2 8d 92 3d
       0.113973044 0.12397003 0.04203707 0.0715598
0002a0 e6 ee 24 bd 5c 04 36 3d 92 3a 32 bd bc 90 9b 3d
       -0.040266894 0.04443775 -0.04351289 0.07595965
0002b0 ec 49 5d bd 64 90 f8 bd 7f b8 8a bd a1 12 b1 bd
       -0.054025576 -0.12136915 -0.06773471 -0.08646131
0002c0 90 96 81 3d 08 0f bb bd c0 d2 f5 bd 5d bc ad bc
       0.06327546 -0.09133726 -0.12003088 -0.021207983
0002d0 f9 fb c3 bd fd 58 8e 3d eb 27 96 bd 56 4b eb bd
       -0.09569544 0.06950567 -0.073318325 -0.114889786
0002e0 77 6f ea 3c be eb b7 bd d1 cf c1 bd 19 64 1d bb
       0.028617604 -0.08980511 -0.09463466 -0.0024015962
0002f0 11 19 25 bd 69 bd 8b 3d 4a 05 bd 3d 22 cd cc bc
       -0.04030711 0.068232365 0.092295244 -0.025000159
000300 c5 72 de bd 75 69 71 3d 6c 5b 7e 3d e4 e7 ad bd
       -0.10861734 0.058938462 0.062098905 -0.08491495
000310 9f 04 35 3d 29 b9 cb bd 6a c2 9a bb 39 47 92 3d
       0.04419386 -0.09947426 -0.004722883 0.07142491
000320 77 61 f6 bb c0 11 cb 3d 17 e2 e2 3d f3 79 a6 bd
       -0.007518943 0.09915495 0.110782795 -0.08128729
000330 b1 29 18 3d 5f a1 9a bd 2a ba 8b bc 24 90 f0 bc
       0.037149135 -0.0755031 -0.017056543 -0.029365607
000340 5c 71 36 3b c3 da b2 bd b9 ca 9d 3d e6 a5 3f 3b
       0.0027838564 -0.08733132 0.07704682 0.002924317
000350 fc 96 ba 3d cd d3 cd bc e7 ac 4b 3d 87 3c 8f bd
       0.09110829 -0.025125409 0.04972544 -0.069939665
000360 d5 58 8e 3d 2c e7 fb bd 39 2c 18 b9 78 e3 94 3d
       0.06950537 -0.12299952 -0.00014512324 0.07269949
000370 eb ed 40 3d b0 b1 41 bc 2b 54 c6 3d 36 79 c6 3d
       0.047101896 -0.011822149 0.096840225 0.09691088
000380 91 8b 71 bd aa a9 a3 bd cf 76 05 bd 42 44 ac bd
       -0.05897099 -0.07991345 -0.032584008 -0.08411457
000390 77 09 af bc d0 8d f4 3c 25 29 e9 bd eb e4 ec 3d
       -0.021366818 0.029852778 -0.11384801 0.115671
0003a0 de 40 28 bd ff ee 5b bd ec c3 7f 3c f2 2f 0b bc
       -0.041077487 -0.05369472 0.015610676 -0.008495318
0003b0 44 c1 f3 3c 36 13 a4 3d 2a b9 61 3c 7d ec f7 bd
       0.029755242 0.08011477 0.013777057 -0.121056534
0003c0 95 41 a0 bd e0 23 f9 3d b5 bb aa 3c be 33 91 3d
       -0.07825009 0.12165046 0.020841459 0.07089947
0003d0 88 9e 9a bd 1a 0f ac bd 14 a6 33 bd 69 f2 4c 3b
       -0.07549769 -0.08401318 -0.043859556 0.0031272417
0003e0 06 37 9b 3d 89 11 50 bb ca ce e1 bd 4c d4 f1 bd
       0.07578854 -0.0031748733 -0.1102577 -0.118080705
0003f0 3a ca eb bc f2 64 c2 bd 0f 08 c5 3c b2 ff d8 bd
       -0.028782953 -0.0949191 0.024051694 -0.10595645

bias_ih_l0 f4 [256]
000000 72 f5 a5 3d 03 92 8c bc dc eb 02 3c bf c9 2a 3c
       0.081034556 -0.017159468 0.007990804 0.010424077
000010 e7 2b 75 bd a4 09 86 bd ee 53 46 3d 6b b3 8b 3d
       -0.05985632 -0.065448076 0.048419885 0.06821331
000020 e4 e0 e9 3d c0 0e ea bd 74 b6 cc bd 66 9c 32 bd
       0.114198476 -0.114285946 -0.09995738 -0.043606184
000030 a0 90 50 bd 00 bc fa bc 7f 4f a5 3d 8d 73 c5 3d
       -0.050919175 -0.030607224 0.08071803 0.0964118
000040 b6 fe 6f 3d bf fb c5 bd 4a e3 26 3c 31 e8 c2 3c
       0.05859252 -0.096671574 0.010186026 0.023792358
000050 77 dd da 3d 69 ce c3 3d 36 b4 56 bd 84 ae 76 bd
       0.10686772 0.09560854 -0.052417956 -0.060225025
000060 2f ac ee 3d ce 56 5a 3b 67 d6 8c bd 0f 0f fa 3d
       0.11653935 0.00333159 -0.068768315 0.122099034
000070 ae 5b 99 3d db 8a e7 3d 5b 64 3d bd cf 23 a7 3d
       0.0748819 0.113057815 -0.046238285 0.08161127
000080 35 a8 2c 3c a6 68 93 3c 3f 87 d9 bd ea cd 7c 3d
       0.010538151 0.017994236 -0.10621499 0.061719812
000090 76 d5 f0 3d 30 da 25 3c 76 13 9d 3d 34 e1 89 bd
       0.117594644 0.010122821 0.076697275 -0.06732407
0000a0 ec bb ae 3c db 4b 2a bd a5 f9 d4 bd 24 1a 00 3e
       0.021329843 -0.041576248 -0.103991784 0.12509972
0000b0 a7 d1 0b 3d d3 11 c7 bd f3 86 4a bd 81 69 a9 bc
       0.034135487 -0.097201966 -0.049445104 -0.020680191
0000c0 c9 3e 01 3e f7 ba aa 3d 7d ec 99 bd 8a 92 b0 3d
       0.12621607 0.08336442 -0.0751581 0.086217
0000d0 22 42 8a 3b cf f9 f9 3d 25 36 3e 3d 41 b0 d8 3d
       0.0042193094 0.1220585 0.046438355 0.10580493
0000e0 be 35 03 3e 54 61 5c bd 02 ea a6 bc 73 e0 71 3d
       0.1281347 -0.053803757 -0.020375255 0.059051942
0000f0 9f 83 0b bc a4 31 03 3e 15 a9 63 bd 95 d0 82 3d
       -0.008515268 0.12811905 -0.05558117 0.0638744
000100 64 b6 7f 3d c8 11 96 3d a8 5d 3c bd a0 6d 1c bd
       0.0624298 0.0732761 -0.045987755 -0.038190484
000110 a5 59 b2 bc cf 74 6c bd ce 55 ea bd 30 d2 c7 3d
       -0.021771261 -0.057728585 -0.11442147 0.09756887
000120 bb 65 7c 3d 2b 02 41 3c c1 60 12 bd d4 49 f9 bd
       0.061620455 0.011780302 -0.035736803 -0.12172285
000130 c6 80 45 3d 6f 42 2b 3d 76 df b2 3d 84 da cc bd
       0.04821851 0.041811403 0.08734028 -0.10002616
000140 ec cb e9 3c b1 83 be bd 47 e2 4d 3d 42 0c 5e bc
       0.02853962 -0.09302462 0.050264623 -0.013552727
000150 c6 8c a8 bd c6 fe 10 bd 4e 8a 4c 3d ab d2 8f bc
       -0.082299754 -0.03539922 0.049936585 -0.017556509
000160 ef a7 5e 3c 05 54 11 3d c5 1b 87 3d fe 42 fb bd
       0.013589843 0.035480518 0.065970935 -0.12268637
000170 b5 ad c0 3a 36 7b fa bd 35 ac 78 bd 55 0a 2e bc
       0.0014700206 -0.12230532 -0.060711104 -0.010622581
000180 5d cf fa bd 1f 96 2f bc b3 99 a6 b9 c3 f4 05 3e
       -0.12246583 -0.010716944 -0.00031776502 0.1308165
000190 06 c8 a5 3d b7 a2 96 bd 3b 9b 91 bd 67 9d bd bd
       0.08094792 -0.07355254 -0.07109686 -0.09258538
0001a0 ab e6 04 bc e4 c1 8c 3d ed 7b ae bd 75 9e b4 3c
       -0.008111636 0.06872919 -0.08519731 0.022048214
0001b0 aa a6 a3 3d 04 5a 95 3c f4 3c a0 bd 47 66 70 3d
       0.07990773 0.0182314 -0.07824126 0.05869129
0001c0 e5 df e9 3d 96 c9 99 bd 06 47 ba 3d 8a b0 19 bd
       0.114196576 -0.075091526 0.09095578 -0.037521876
0001d0 19 85 12 bd fc 62 45 3c a8 7a 44 bd d9 5b 19 bd
       -0.035771463 0.0120475255 -0.047968537 -0.03744111
0001e0 bc 3b 83 bc c7 ff c2 bd 7e b4 ed 3d 25 50 09 bd
       -0.016019695 -0.09521442 0.11606692 -0.033523697
0001f0 da f8 7a 3d be 97 e4 3d 6d 28 ee bd 42 42 66 bc
       0.06127248 0.11161755 -0.11628804 -0.014053883
000200 5b a5 bf bd ee 0f c5 3d c1 91 06 be fc de 7c 3b
       -0.09357711 0.09622179 -0.13141538 0.0038585057
000210 ab a1 0b be 21 ac e9 bd 92 81 f4 bd 80 f5 09 3d
       -0.1363589 -0.11409784 -0.11938776 0.033681393
000220 92 f8 65 3d 79 10 7a 3c 30 d8 5c bd 3e ba a1 3d
       0.05614526 0.015262716 -0.05391711 0.07896851
000230 f4 e5 8a 3d e8 ba 01 3e 7a 21 b7 3d ec 4a d6 3d
       0.06782141 0.12668955 0.08941932 0.10463509
000240 c2 19 9f 3d 45 a6 e0 bd 9d 05 1f 3d d4 5b 6c bd
       0.07768585 -0.109692134 0.038823713 -0.05770476
000250 f9 95 a2 3d 0a 99 da 3d 29 ee b3 bd 07 06 8c 3d
       0.07938761 0.10673721 -0.0878566 0.06837087
000260 0f 86 22 3c 58 5e be 3c f4 85 8d 3d 73 04 a7 3c
       0.009919657 0.023238346 0.06910315 0.020387864
000270 f9 53 45 bd 1c 98 bd 3d 25 b0 99 3d 23 00 ab 3d
       -0.048175786 0.09257528 0.075043 0.083496355
000280 f5 3a f1 3d 7e fc e6 bd b1 f5 6f bd c1 fc 75 3d
       0.11778823 -0.11278628 -0.05858392 0.060055498
000290 16 df 16 3d b9 7a 06 3d 2b 36 49 3d 4f 87 f0 bc
       0.036833845 0.03283188 0.049123924 -0.029361395
0002a0 11 e8 3d bd 0a a4 ba bd 3e 9c 2a bc ce 74 87 3d
       -0.046363894 -0.09113319 -0.010413228 0.066140756
0002b0 c9 e3 c9 3d bc 33 68 3d 16 98 2e bd 21 4c b0 bd
       0.098579 0.056689963 -0.04262551 -0.086082704
0002c0 80 8c 2b 3d 44 d6 77 bd d1 20 b4 bc 16 ac ef 3c
       0.041882038 -0.060507074 -0.021988304 0.029256862
0002d0 c1 36 8f 3d be d7 ad 3d 45 f2 e2 bd e0 77 fb 3d
       0.06992865 0.08488415 -0.110813655 0.12278724
0002e0 75 31 b5 bd 74 46 ba bc 9e f1 84 3d 85 d8 35 bd
       -0.08847324 -0.022738673 0.06491397 -0.044395942
0002f0 3e d1 8f 3d ac dc 91 3d 3a be b9 bc 1a 95 56 3d
       0.07022332 0.07122168 -0.022673715 0.052388288
000300 38 48 92 bc 38 cf 1b 3d 7d d1 5c bd a7 51 18 bd
       -0.017856702 0.038039416 -0.05391072 -0.037187245
000310 ef 3d e7 3d b1 53 cf bd 09 1b a4 3d 0e 81 48 3d
       0.1129111 -0.10123385 0.08012969 0.0489512
000320 2e 82 73 bd f7 d5 f7 3c ce f3 f5 3d 9f ec dd 3c
       -0.05945032 0.030253394 0.12009393 0.027090369
000330 bc fc 39 bd a1 3e a9 bd dc a1 ed bd 6a 29 7d 3d
       -0.045407042 -0.08263899 -0.11603138 0.061807074
000340 5f e9 82 bd d9 1a d5 3d a1 17 6d 3d 7a 44 b3 3d
       -0.06392168 0.104055114 0.057883862 0.08753295
000350 cb 04 28 bc 5a fd cf 3d 77 5a da 3b c1 77 d0 3c
       -0.010255049 0.10155745 0.0066636163 0.025447728
000360 a2 06 10 bd aa af 65 3d 99 b8 cc 3d 06 c6 cb 3d
       -0.035162576 0.05607573 0.09996147 0.09949879
000370 a8 da 5d 3d 05 c3 ae 3d 96 e4 f3 3d 3e eb ac bc
       0.054163605 0.08533291 0.11908834 -0.021108266
000380 d3 d1 ea 3c 93 a0 9f 3c 16 7a c3 bd 1d 1f 27 bd
       0.028664505 0.019485747 -0.095447704 -0.040801156
000390 ec 25 8a 3d f1 1a 41 bd c5 66 fe 3d b1 41 8d 3d
       0.06745514 -0.047144834 0.124219455 0.06897295
0003a0 bf c7 2a 3d a4 cd 90 bd 60 51 04 3d 12 e0 df bd
       0.0416944 -0.07070473 0.032304168 -0.1093141
0003b0 0c 64 cd 3d 78 3a b6 bc a5 39 ab 3d 3e 84 a1 3d
       0.10028848 -0.022244677 0.08360604 0.07886551
0003c0 7d c7 08 bd 4a 6d 34 bd 56 34 a9 3c 67 cc b3 bc
       -0.03339337 -0.04404954 0.020654839 -0.021948053
0003d0 b3 27 db bd 17 b5 00 bc 18 67 5f bd 19 ac b4 3d
       -0.107009314 -0.007855675 -0.054541677 0.088218875
0003e0 06 66 e9 bd a9 a5 de bc f0 7f e3 3d 88 cb 61 3d
       -0.113964126 -0.027178602 0.111083865 0.055125743
0003f0 6d 76 e4 3d b0 f9 ab 3d 2d 1e c6 3d 01 8a cb bd
       0.111554004 0.083972335 0.09673724 -0.099384315

bias_hh_l0 f4 [256]
000000 e6 65 a8 3d a3 3e b9 bc 1c cf 94 bc fa 44 bf bd
       0.082225606 -0.022612875 -0.018165164 -0.09339328
000010 74 81 e8 bd 57 32 ee 3b 31 fb e9 3d 93 fb f7 bc
       -0.11352816 0.0072691846 0.11424864 -0.030271327
000020 9e dc 8e 3d 1a 0b 13 3d 48 54 b4 3b 8d 1f ab 3d
       0.06975673 0.03589926 0.005503211 0.08355627
000030 18 09 61 bc 9f fb 21 3d 3e 36 5e bc dd 52 df 3d
       -0.013735078 0.039546605 -0.013562737 0.10904477
000040 61 88 c7 3d 7b 67 7d 3d d1 1f 4e 3d 01 9f d6 bc
       0.09742809 0.061866265 0.05032331 -0.026198866
000050 b3 dc cb 3d b1 bb f3 bd c6 5a 28 bd b0 2c 68 3d
       0.099542044 -0.11901034 -0.041102193 0.056683242
000060 d5 23 f7 bd 1d d5 4b 3d ad 09 cd bd c9 10 b8 3d
       -0.12067381 0.049763788 -0.10011611 0.089875765
000070 fc f9 fa 3c d9 90 9d 3d 16 5b cb bd 3b 83 02 3e
       0.03063678 0.07693643 -0.09929483 0.12745373
000080 8b 8f e0 3d ee 43 d6 bd 5d 03 2c bd a4 d4 d2 bd
       0.10964879 -0.10462175 -0.041995395 -0.10294464
000090 6c e4 1a 3d c3 19 e5 3c bc cf 85 bd be 85 38 3d
       0.037815496 0.027966386 -0.06533763 0.04504942
0000a0 57 a4 e7 bd 70 80 f9 3d 91 bd a8 bd af 30 7a bd
       -0.11310642 0.12182701 -0.08239282 -0.061081585
0000b0 52 3d c3 bd 59 df e2 3d b7 90 82 bd 7b 3d f6 3d
       -0.0953318 0.110777564 -0.063752584 0.12023445
0000c0 0e b2 8a bd 3b 2b a0 3d cf 15 f3 bd 1c 12 aa 3d
       -0.067722425 0.078207456 -0.11869394 0.08304235
0000d0 3b e6 f4 bd 3f 78 62 3d 64 ef e1 3c 34 fc bd bc
       -0.119579755 0.055290457 0.02757997 -0.023191549
0000e0 99 57 24 bd 68 d3 45 3d ea 4f fe 3d f7 35 54 3d
       -0.040122602 0.048297316 0.12417586 0.051809277
0000f0 40 00 e6 3d 22 10 98 3c 42 c4 95 3d 4d 3a 94 3d
       0.112305164 0.01856238 0.07312824 0.072376825
000100 cc 95 c0 3d e8 fa d2 3d 64 64 4b bd bc ce 0f bd
       0.094035715 0.10301763 -0.049656287 -0.035109267
000110 bb b4 cd bd 89 54 ec bd 6c 37 00 3e 80 89 db bb
       -0.10044237 -0.11539561 0.12521142 -0.006699741
000120 72 04 f0 bc f4 04 04 bc 7f fc b1 3c 5c 4f 3d bc
       -0.029298995 -0.008057822 0.021726845 -0.011554565
000130 50 f6 5b bc 5c 2f c8 bc b5 ef 00 3e 17 54 f5 3c
       -0.013425425 -0.024436645 0.12591441 0.029947324
000140 c7 40 46 bc bb 12 b0 bd ab bf ba bd 5b 5d 3e 3d
       -0.012100405 -0.085973226 -0.09118589 0.04647575
000150 03 68 5a bd 37 02 88 3a d8 ca 94 bd ed f4 28 3d
       -0.05332185 0.0010376637 -0.07265252 0.041249204
000160 3a 0e db 3d 95 7f 58 3d 72 95 2c bd 84 df 91 bd
       0.10696073 0.052856047 -0.04213471 -0.0712271
000170 12 55 4f 3d a2 81 ee bd 3e 1b 11 bd 69 32 76 3c
       0.05061824 -0.11645819 -0.03542637 0.015026667
000180 e3 74 a7 3d 69 86 ac bd 24 d9 c7 bd da a8 55 3d
       0.08176591 -0.08424074 -0.09758213 0.052162983
000190 bf 1f 4c 3c 39 a5 d7 3b d5 82 f9 3b bd 9e b9 bd
       0.012458741 0.0065809754 0.0076144733 -0.0906348
0001a0 b6 d5 d6 3c db 43 a1 3c cd e8 f5 3d 96 fe df 3c
       0.026224952 0.019685676 0.12007294 0.027343076
0001b0 56 d0 87 3d be 3d 93 bd 87 53 b2 bb bf 31 94 3d
       0.06631534 -0.07189511 -0.005442086 0.07236051
0001c0 4d ca f5 bd f0 6c 73 bd 86 b9 d0 bd 1e fd fa bd
       -0.120014764 -0.059430063 -0.10191636 -0.122553095
0001d0 dd 2f 8e 3b c4 bb f0 bd 6b 60 e8 3d a1 90 dc bc
       0.004339202 -0.117545635 0.11346515 -0.026924433
0001e0 41 cf bd bd 85 b8 95 bd 8a fc 14 3d 34 59 8a 3c
       -0.09268046 -0.07310585 0.036373653 0.016888238
0001f0 27 28 c7 bd 20 30 fe bd a9 a4 dd 3d c9 ff 1a bd
       -0.09724455 -0.12411523 0.10822422 -0.037841592
000200 0b d6 01 3d 2e 71 a9 3d 2b 31 b1 3d 6b 1e d7 3d
       0.031698268 0.082735404 0.08651956 0.10503849
000210 d9 29 55 3d 45 fb 34 bd 82 4e e4 bc 64 de 54 3d
       0.052041862 -0.04418494 -0.027869467 0.0519699
000220 3d 76 38 3c 76 9b 05 3c ad e5 d7 3a 46 2a 00 be
       0.011258659 0.008154741 0.0016471647 -0.12516126
000230 86 d7 fd bd 4e 0f dd bd 9e 3b 86 3b 1d d3 76 bd
       -0.123946235 -0.10793935 0.0040964624 -0.060259927
000240 ae 8b 83 3d 6f ad c3 3d d3 c3 9a 3c f2 42 16 bd
       0.06423126 0.09554564 0.018892204 -0.036684938
000250 09 bd b2 3d 25 94 7b bc 49 9c 6d bd 7d 8d 9e 3d
       0.08727462 -0.015355145 -0.058010373 0.077418305
000260 eb f0 d0 bd df 39 e4 3c 75 d4 d4 bd dc 5d c7 bd
       -0.102022015 0.027859626 -0.103920855 -0.09734699
000270 69 e8 09 bd c0 b4 b7 3c 81 d5 ba bc 5b 6c 41 bd
       -0.03366891 0.022425056 -0.022806885 -0.047222476
000280 00 c2 71 3a 7e a9 b9 bd a2 82 ca 3d 1f bd 66 bd
       0.00092223287 -0.09065531 0.098881975 -0.056332704
000290 90 47 1d 3d d9 a6 51 bc e8 6b 8f 3d 7a 11 a3 bd
       0.038398325 -0.012796127 0.07003003 -0.07962318
0002a0 0f 5b 96 3d 28 38 4c 3c f3 79 d1 bd 02 ce f1 3b
       0.07341587 0.012464561 -0.10228338 0.0073792944
0002b0 d5 97 b9 3d f3 79 5e bd 4e da b3 bd 47 bb 93 3d
       0.09062163 -0.05431552 -0.08781873 0.07213455
0002c0 23 13 81 bc b4 c0 1c 3d f5 b3 d0 bd b0 1e e4 bc
       -0.015756195 0.038269714 -0.10190574 -0.027846664
0002d0 0b a9 00 3d 72 51 f6 bd bc b9 6e bd 99 66 64 3d
       0.031411212 -0.12027253 -0.0582826 0.055761907
0002e0 24 6f e9 3c 8c 85 84 bb be f4 3f 3c fc 03 96 3d
       0.028495379 -0.0040442403 0.011716066 0.07324979
0002f0 34 6f 8f bd b8 b3 89 3d c9 de e8 3d 2c 94 ad 3d
       -0.07003632 0.06723732 0.11370618 0.08475527
000300 75 e9 a5 bd c0 a9 2f 3d 8b d4 8e 3d 01 eb fd 3d
       -0.08101169 0.042886496 0.06974133 0.12398339
000310 b1 2b 92 bd 66 e8 66 bd 51 25 46 bd 3e bd 5e bd
       -0.0713724 -0.056373976 -0.04837543 -0.054379694
000320 13 3b ce 3d 4c 76 e2 3d 72 5d f1 3d 98 7c ec bd
       0.10069861 0.110577196 0.117854014 -0.11547202
000330 7c 2b 02 3d 88 c1 5a bd cc a9 86 bd 6e 61 28 3d
       0.03177975 -0.053407222 -0.06575355 0.04110854
000340 3f 42 e2 bd 24 78 51 bd 3e 3b ca 3d 16 1d a1 3d
       -0.11047792 -0.051139966 0.09874581 0.07866876
000350 52 fa 30 3c 5b d6 a8 3c 80 99 dd 3d 86 66 fa 3c
       0.0108018685 0.020610025 0.108202934 0.030566465
000360 a4 46 98 bd ce 7f 15 bd ef 7d ad bc 16 0e 51 bd
       -0.07435349 -0.036498837 -0.021178214 -0.051038824
000370 9c c8 64 bd cb d9 ff 3d 6e af 85 bd 7e 02 df 3d
       -0.05585538 0.124927126 -0.06527601 0.10889147
000380 cf da f1 bd dd 1a 30 bd e6 15 be 3d 06 0b fd 3c
       -0.118093126 -0.04299437 0.092815205 0.030889045
000390 c7 a2 9d 3d 95 56 ed bd af 0d b3 bd 3b 1f e8 bd
       0.07697063 -0.1158878 -0.08742844 -0.11334082
0003a0 6b 28 d0 bd 32 c7 33 3d 4a 28 1c bd 51 d8 9e bc
       -0.10163959 0.04389114 -0.03812436 -0.019390257
0003b0 be 67 f8 bd 47 41 bc bc 33 07 90 bd 8e 6f 95 bd
       -0.12129162 -0.022980345 -0.07032623 -0.07296668
0003c0 26 03 cd 3d ac 62 f3 3d 47 1b 24 3d f5 ed 6f bd
       0.10010366 0.118840545 0.040065076 -0.058576543
0003d0 c3 98 6b 3c 23 3d c1 3d 86 b1 82 3c b5 44 09 3d
       0.014379683 0.09435489 0.01595379 0.03351279
0003e0 6e ac 0b 3d d9 b6 af bd 14 92 df 3d 29 3d da 3d
       0.03409999 -0.08579797 0.10916534 0.106561966
0003f0 8f de b2 bd 8e 47 b7 3d bb 3f 97 3d 5d b4 f8 bd
       -0.08733856 0.08949195 0.073852025 -0.121437766

weight_ih_l1 f4 [256, 64]
000000 f7 4f 57 3b f9 44 ea 3c ab 0c bd 3d 3a 7f 85 3d
       0.003285406 0.028597342 0.09230932 0.06518407
000010 4c 13 29 bd 60 2e d8 3d d0 6d 73 3d 46 91 85 bd
       -0.04127817 0.1055572 0.059430897 -0.06521849
000020 65 4b be 3d 20 d4 f3 3d 61 9b c4 bd 59 cc 83 bd
       0.09291724 0.11905694 -0.09599949 -0.064354606
000030 f6 37 88 bd 95 fd cd 3d ad 83 78 3d 2d 95 90 3d
       -0.06651299 0.100581326 0.06067245 0.07059703
000040 73 e4 96 bd 14 a8 94 bd 8f f3 b1 3d e3 96 90 3d
       -0.07367792 -0.07258621 0.08689033 0.07060029
000050 55 af e1 bc b6 54 8e 3d 79 38 2c 3d 25 8f ba 3d
       -0.027549425 0.06949751 0.042046044 0.09109334
000060 c5 1a e7 3d 46 2a 9e 3d 4c 9d 88 bd e7 83 dc 3d
       0.11284403 0.07722907 -0.06670627 0.10767346
000070 43 95 ab bd 4c c7 9d bd f3 cd 80 3d 34 eb e3 3d
       -0.08378079 -0.077040285 0.06289282 0.11128846
000080 aa a9 de bc 21 4a 75 3d 74 bc 03 3d af c5 7a 3d
       -0.027180512 0.059885148 0.032162145 0.061223682
000090 bb cc 16 3d 48 a1 16 3d 3f 7b 0d bd 8e d8 b0 bd
       0.03681634 0.036774904 -0.034541365 -0.086350545
0000a0 74 57 c7 3d 0d ab 9e 3c a9 f9 84 bd b0 8d a5 3d
       0.09733477 0.019368673 -0.064929314 0.08083665
0000b0 7d 6c 08 bd 9f dc e1 bd 14 38 1b 3b 10 bf d5 3d
       -0.033306587 -0.11028408 0.0023684548 0.10436833
0000c0 ea 7c 07 bc 7c 5f 01 bd ac 8d fb bc c0 62 3f bd
       -0.008269528 -0.0315852 -0.030707203 -0.046725035
0000d0 da d4 e7 3d 6b d9 ab 3d e6 b7 8a bd c2 72 e3 bd
       0.11319895 0.083910786 -0.06773357 -0.11105873
0000e0 e8 74 24 bc c8 c0 27 bd 85 e4 cd 3c 17 e5 65 bc
       -0.010037638 -0.040955335 0.02513338 -0.01403167
0000f0 4e 90 78 bd 20 52 e1 bd aa 14 00 3e 70 5a 81 bd
       -0.060684495 -0.11001992 0.12507883 -0.06316078
000100 28 e2 c3 bd 50 2b 89 3d e4 90 eb bd 75 2e 4d 3d
       -0.0956462 0.06697714 -0.11502245 0.050093133
000110 0e d4 d2 3d 25 72 21 3d 7d 5d 70 bd c8 18 aa 3d
       0.102943525 0.039415497 -0.058682907 0.08305508
000120 d6 1a be bd d0 a5 6b bc 49 dc 42 bd c1 bf 8a bd
       -0.09282462 -0.0143827945 -0.04757336 -0.067748554
000130 80 90 ee 3d 4f aa 52 3c eb a3 07 3d b9 3d de bd
       0.11648655 0.012857988 0.03311531 -0.108516164
000140 cc f6 9e 3d 4b f9 d7 3d 1e db 8a 3d 3e d3 f6 3c
       0.077619165 0.10545596 0.067800745 0.030130025
000150 0e 60 a3 3d 79 01 3a 3d bf bf 82 3d 36 a7 f7 bd
       0.07977305 0.04541156 0.06384229 -0.1209244
000160 ed f2 c3 3d ce 37 de 3d 5f 04 5f bc 8a 66 5d bc
       0.09567819 0.10850488 -0.013611882 -0.013513217
000170 0d 12 91 3d ce 3e c2 3a 2f 69 06 bd 79 dd 94 3d
       0.07083521 0.0014819743 -0.032815155 0.07268805
000180 dd 3d df 3d c8 22 1d bd 74 d0 ae 3d 06 42 20 bd
       0.10900471 -0.038363248 0.08535853 -0.039125465
000190 24 5d af 3d ba c2 73 3d 9b 17 2f bd 96 63 ab 3d
       0.08562687 0.059511878 -0.04274712 0.08368604
0001a0 fd 13 c9 bd e3 4c c0 3d ee 04 ee 3b e7 47 4c bd
       -0.098182656 0.09389665 0.0072637713 -0.04987326
0001b0 2f 44 4a 3d 1f 0a e5 3d dd 2c d3 3d 54 37 8e 3d
       0.04938143 0.11183571 0.10311291 0.06944147
0001c0 a2 08 d3 bc 95 e5 30 3d 64 f5 aa 3d 4c e7 e8 bc
       -0.025760952 0.043187696 0.08347586 -0.028430603
0001d0 81 86 e6 bd 31 ad a3 bd 50 b8 d1 bd 58 b2 bf 3b
       -0.11256123 -0.07992018 -0.10240233 0.0058501177
0001e0 9c 5b 8b 3d b8 3d a3 3c 35 7a 13 3d 15 a6 ed 3d
       0.068045825 0.01992689 0.036005218 0.11603943
0001f0 50 90 d3 bb 23 12 95 bd 93 fe 80 bc bf 71 de 3c
       -0.0064564124 -0.0727885 -0.01574639 0.027153848
000200 b3 96 f0 bc d6 19 1a bd 84 f4 f9 3c e6 91 ce 3d
       -0.029368734 -0.037622295 0.030512102 0.10086422
000210 64 ef ad 3d cd 60 ed 3c 14 f9 ab 3d 3a bf 43 bd
       0.08492926 0.028976822 0.08397117 -0.04778979
000220 43 02 83 bd 6f 7f d2 3d 34 6c a0 3c f0 be 9e 3c
       -0.06396916 0.10278212 0.019582845 0.019378155
000230 9c 6c e0 3c e5 15 99 bd 50 ac eb bd 2c 5a f7 bd
       0.027395539 -0.07474879 -0.115074754 -0.12077746
000240 0c a3 ca 3b 4e 79 2a 3d 01 1e 8e bd 4c a0 51 3c
       0.0061839875 0.04161959 -0.069393165 0.012794565
000250 29 4b 9c bd 21 53 eb bd e4 a5 f5 bd c9 39 95 3d
       -0.07631523 -0.11490465 -0.11994532 0.07286412
000260 43 cc 1c bc f7 a4 e2 bd 50 b2 8d 3b a3 b2 df 3d
       -0.009570184 -0.11066621 0.004324235 0.10922744
000270 f0 d6 c8 bd 1a 94 b4 bd b4 3d c8 3d 3a c2 aa 3d
       -0.09806621 -0.08817311 0.09777394 0.08337827
000280 99 db b8 3b 24 9a ed 3d fd d5 d9 bd 44 7a 8d bd
       0.0056414125 0.116016656 -0.10636518 -0.06908086
000290 ea 23 75 3d d3 20 84 3d 69 9a a1 bc ee 71 f9 3d
       0.059848703 0.06451573 -0.019726949 0.121799335
0002a0 57 52 c4 3d 5a 16 ab 3d 05 1d d7 3d c0 5f c9 3d
       0.095860176 0.083538726 0.10503582 0.09832716
0002b0 b0 77 83 3d 22 3c d9 3d ba f0 ba bd bf 12 e0 bd
       0.06419313 0.106071725 -0.09127946 -0.109410755
0002c0 fd 82 a8 bd 29 0c 6c 3d 37 3d 3a 3d 27 05 b1 bd
       -0.08228109 0.057628784 0.045468535 -0.08643561
0002d0 1e 51 87 3d 17 1b 81 3d 76 91 87 3d 89 bc 8c 3d
       0.06607269 0.06303995 0.06619541 0.06871898
0002e0 62 03 f3 3d 70 87 09 bc 60 5d 35 3d 9f d4 a1 bc
       0.118658796 -0.008394107 0.044278502 -0.019754706
0002f0 02 2d d7 bd 09 78 98 3d ab 71 6f 3b 6a d9 ae bd
       -0.105066314 0.0744477 0.0036536257 -0.08537562
000300 ce 0c 2a bd e2 1b 40 3d 56 a2 cd 3d 3e 58 b5 3a
       -0.041516118 0.04690159 0.10040729 0.0013835502
000310 28 c8 b9 bd d6 51 82 3a 21 a5 2f 3d 4a b7 8e bd
       -0.0907138 0.0009942602 0.04288209 -0.06968553
000320 7e e3 ff bc d7 ee 93 3d a2 5a f7 3d 0d 55 82 bd
       -0.031236406 0.072232895 0.12077834 -0.063638784
000330 44 e4 94 3d 4d 37 5e bd 38 d4 1c 3d bc 12 a1 38
       0.07270101 -0.054251958 0.038288325 7.680568e-05
000340 2b 00 13 bd 32 29 32 3d 39 f7 e5 3d 08 ca 39 bd
       -0.035888832 0.04349632 0.112287946 -0.045358688
000350 cd 02 20 3d c6 0b 20 bc fa 2e c8 bc d7 7e 0f 3d
       0.03906517 -0.009768432 -0.024436463 0.035033073
000360 db 93 b9 bd c7 96 50 bd a2 65 a4 3d 90 67 0f bb
       -0.09061404 -0.050925042 0.080271974 -0.0021881796
000370 28 35 87 bd 77 01 ff bd 0a e2 e4 3d 1c 8e d1 bd
       -0.066019356 -0.12451451 0.11175926 -0.10232183
000380 6e ef f7 3c 2c ed be bd a2 63 8d bd 01 4b 88 bd
       0.030265536 -0.09322581 -0.06903769 -0.06654931
000390 be be f6 3d eb 17 1e 3d 2e 9f e9 3b 94 1a 47 3d
       0.120481 0.03859703 0.0071295714 0.04860933
0003a0 48 8f 3c 3c f7 18 b6 bd 37 33 73 3d af 84 d1 3d
       0.01150877 -0.088914804 0.059375014 0.102303855
0003b0 01 1f 82 3d a6 ee 8c bd 8d 08 64 3d 7a cb a0 bc
       0.0635357 -0.06881456 0.055672217 -0.019628275
0003c0 40 48 23 3d 5c 27 4f 3d bd 97 c5 bd c3 b9 e3 bd
       0.039863825 0.050574645 -0.096480824 -0.111194156
0003d0 97 63 95 bc bf 45 e2 3d a7 d6 aa bc 84 b1 a7 3b
       -0.018235965 0.11048459 -0.020854307 0.005117597
0003e0 f0 4d 38 3d f1 b5 98 3d b1 e5 87 bd 27 e0 c1 3d
       0.044996202 0.074565776 -0.06635607 0.09466582
0003f0 bf 1d bf 3b 96 0f c3 3c 84 f1 6b bd 5d 9b dd bd
       0.0058324034 0.023811143 -0.057603374 -0.10820649

weight_hh_l1 f4 [256, 64]
000000 0a bc ff 3d af 58 e9 bb 8b 76 bc bd 1e 48 84 3d
       0.124870375 -0.0071211676 -0.09202298 0.06459068
000010 53 01 31 bb 59 46 59 bd 18 13 a3 3d f5 9f d6 bd
       -0.0027008846 -0.053045604 0.07962626 -0.10479728
000020 a7 b4 b8 bd 98 9e d6 bd 5d 57 fc bd eb ba aa 3d
       -0.09018832 -0.10479468 -0.12321351 0.08336433
000030 ce 67 a8 bd be 10 d3 bd 3b ae 70 bc 43 94 de bd
       -0.08222924 -0.10305928 -0.014689977 -0.108681224
000040 99 79 1b 3d ed 1a da 3b 0e a6 92 3d bf 98 3e 3d
       0.03795776 0.006656042 0.07160579 0.04653239
000050 b0 4b 4e 3c 0d 70 31 bc 95 7c bb bd c4 99 3b bd
       0.0125912875 -0.010829938 -0.091546215 -0.04580094
000060 6c 8b 1a bd ff c7 ab 3d 62 68 be 3d 9d 64 f6 3d
       -0.03773062 0.083877556 0.09297253 0.12030909
000070 bb f0 1f 3d 97 11 58 bb 38 8b d5 3d 74 cd da bc
       0.039047938 -0.0032969469 0.104269445 -0.026709296
000080 d2 a9 27 bd 06 46 13 3d 5c c4 ed bd 9c 46 62 3c
       -0.040933438 0.03595545 -0.11609718 0.01381078
000090 92 ae d1 3d 09 c3 d1 3d 6e c7 e7 bd ba 0e 6f 3c
       0.10238375 0.10242278 -0.11317335 0.014590913
0000a0 b8 6b 8e 3c 55 2b 4a 3d f1 ec af bd c5 e1 e1 3d
       0.017385349 0.04935773 -0.08590115 0.1102939
0000b0 e0 db a3 bd a8 c3 f7 bc 09 d5 c4 bd 9b 06 2c 3c
       -0.08000922 -0.030244663 -0.09610946 0.010499622
0000c0 c0 8a 89 3d d3 57 c8 bd 2d 34 ef 3c 94 a7 8c bd
       0.067159176 -0.09782376 0.029199684 -0.068679005
0000d0 d8 be 98 bd a6 55 23 bd ed f1 81 3b f6 e6 9f 3d
       -0.074582756 -0.039876603 0.0039656074 0.07807724
0000e0 f3 17 8b bd 2a 16 64 3c 77 0f 17 bd 2e 92 71 3c
       -0.06791677 0.0139213 -0.036879983 0.014744325
0000f0 0b b7 92 bd e5 6c e0 3d 8a 6f d4 3d 56 cf bd bd
       -0.07163819 0.1095827 0.10372837 -0.09268062
000100 63 47 ab 3d 36 b1 51 3c 3e f6 3a 3d 56 71 ba 3d
       0.08363225 0.012798598 0.04564499 0.09103648
000110 01 91 5b 3b 48 3a a6 bc 33 55 ed bb cb 47 6d 3d
       0.0033503177 -0.020291463 -0.0072428226 0.057929795
000120 5e 93 8f 3d dd 33 bc bd 1f 9d 6a bd 08 04 63 3d
       0.0701053 -0.0918958 -0.05727875 0.055423766
000130 be 50 72 bd c5 a8 d9 3d 7f e9 0d 3d 8a 7f a3 3c
       -0.059159033 0.10627893 0.034646507 0.019958276
000140 f8 9a a2 3d 8d 0b 77 3d d5 3b 74 bc a4 5f c0 bb
       0.07939714 0.06031375 -0.014906843 -0.0058707763
000150 12 ed 90 3c 21 3d c1 bd 16 72 8d bd e2 64 e7 bd
       0.017691169 -0.094354875 -0.06906526 -0.11298539
000160 6a 29 2d bd 22 f6 7d bd f7 13 11 bc e8 20 ce 3c
       -0.042275824 -0.06200231 -0.008854858 0.025162175
000170 22 a9 51 bd 39 7d e5 3b 66 1c 92 3d 3d 23 97 3d
       -0.05118669 0.007003453 0.07134323 0.07379768
000180 c7 69 7b 3d b2 d0 6a bd f7 dd 12 3d 0c ad 88 3d
       0.061380174 -0.057327934 0.035856213 0.06673631
000190 f4 d3 54 bd 3e 06 8a bd 1a 45 9e bd ae c4 cc 3b
       -0.051959947 -0.06739472 -0.07728024 0.006249032
0001a0 4c 35 42 bd a1 36 ac 3d 19 95 c0 3d 91 00 b7 3d
       -0.04741411 0.08408857 0.09403438 0.08935655
0001b0 9b 4e b1 bd ec ad 9d bd 11 a6 94 3d 6f 95 b6 3d
       -0.08657571 -0.076991886 0.07258237 0.08915221
0001c0 9f d1 98 3d 31 50 09 3d 30 c1 de 3d 54 5d 7c 3d
       0.07461857 0.033523742 0.10876691 0.061612442
0001d0 fb 8c f4 bd 45 ab 13 bd 24 4c 2a 3d a2 1d d7 3d
       -0.119409524 -0.036052007 0.04157652 0.10503699
0001e0 bb ca 48 3b b1 01 88 3d 6c 5a 8e bd ba 42 af 3a
       0.0030638415 0.066409476 -0.0695084 0.0013371326
0001f0 03 37 0c 3d 6d be 59 3d f3 bc f4 bd 5b e7 8d 3b
       0.03423215 0.05316012 -0.11950102 0.0043305582
000200 f4 61 1c bd 1c f4 b8 3d 2d f4 04 bd 32 8e 73 bd
       -0.038179353 0.09030935 -0.032459427 -0.05946178
000210 c6 a9 b8 3d 84 48 80 3d ce 08 b8 bd 66 7b ab 3c
       0.09016757 0.06263831 -0.08986054 0.020932864
000220 77 f0 99 bd 70 3e c2 3d 84 d8 95 bc 32 46 b6 3d
       -0.07516568 0.09484565 -0.01829172 0.089001074
000230 60 0e b0 bd f2 e0 89 bd d4 e7 a0 3d 47 84 d3 bc
       -0.08596492 -0.06732358 0.07856718 -0.02581991
000240 0f 65 e4 3c cb 7f 0f bd db 75 d6 3d 7a ba b1 bd
       0.02788022 -0.035033982 0.10471698 -0.08678146
000250 b3 67 c1 bd e5 1d a6 3c dc 92 a7 3c c2 72 9b bc
       -0.09443607 0.020277927 0.02045577 -0.01897562
000260 13 7b e5 3d 39 71 b3 bd e7 f9 ac bd 4d 9c b6 bd
       0.11205115 -0.0876183 -0.084461026 -0.08916531
000270 3c f4 1c bd 3a 00 3a 3d aa 1a cb bd 95 9f 20 3d
       -0.038318858 0.045410372 -0.09917195 0.03921469
000280 5d 59 a2 bd 66 c0 b0 3d c6 ac 09 3d 24 18 97 bc
       -0.07927201 0.08630447 0.033612035 -0.018444128
000290 5a 08 db bd 51 cf ed bc d3 78 be 3d 76 f1 86 3d
       -0.10694952 -0.02902952 0.09300389 0.06589024
0002a0 60 8e 49 3d fe 85 da 3d cd 73 58 3d 78 92 96 3d
       0.049208045 0.10670088 0.05284481 0.073521554
0002b0 00 3c de bd b4 f5 22 bd 13 c8 f6 bd 8b b1 c2 bd
       -0.10851288 -0.039785102 -0.1204988 -0.0950652
0002c0 60 7a 1a bc 2d 17 3f bd ad 73 95 3d d1 a0 08 3c
       -0.009428591 -0.04665296 0.07297454 0.008339123
0002d0 60 ab 8f bc 0e 18 64 3d 89 66 00 bd 06 76 92 3d
       -0.017537773 0.055687003 -0.031347785 0.071514174
0002e0 3e f7 c5 bc 99 90 35 3b c2 64 9b bd 03 4b ad 3d
       -0.024165746 0.0027704595 -0.075875774 0.08461573
0002f0 76 a5 69 bd 26 a7 15 bd f4 1a 8c 3c e5 63 da bd
       -0.05704256 -0.03653636 0.017102696 -0.106635846
000300 42 0d 9f bd c2 a0 bd 3d 13 63 d0 3d 34 31 72 3d
       -0.077662006 0.09259178 0.10175147 0.059128955
000310 6f 32 ab 3d 8a 7d 2f bd e4 75 52 3c 97 bb 52 bc
       0.08359229 -0.042844333 0.01284549 -0.012862108
000320 d2 20 97 3d 62 5a 69 3c 87 db b9 3d 42 b9 4c bb
       0.07379307 0.01424274 0.09075075 -0.0031238352
000330 d2 a0 a4 3c 57 eb 73 3c 97 dd 76 3d db a2 cb bd
       0.020096216 0.014887652 0.06026992 -0.099431716
000340 89 a8 57 bd 88 10 c9 3d bc 82 a1 bd 2f 61 64 bc
       -0.052650962 0.09817606 -0.07886264 -0.013939186
000350 69 8b a2 3d 36 d5 f9 3d 56 6d d4 3d e9 a1 80 3d
       0.079367466 0.1219887 0.10372417 0.06280882
000360 92 4f fc bb bb b6 81 bd 83 8f 97 bd 04 b6 cc bb
       -0.007699915 -0.06333681 -0.074004196 -0.006247284
000370 4e 6f 9b 3d 51 38 b2 bd 75 54 ad 3d be 27 ed bd
       0.07589589 -0.08702148 0.084633745 -0.11579846
000380 18 63 12 bd 86 80 f6 3d 64 0e 84 bd 69 21 e1 bc
       -0.035739034 0.12036233 -0.06448057 -0.027481752
000390 15 01 9f 3d 77 78 dc 3d b8 74 b0 bd 22 cf 3e bd
       0.07763878 0.10765164 -0.08616012 -0.046584256
0003a0 b5 14 ec 3d 5f 2d 48 3d 20 10 9c 3d 2e 18 e4 3d
       0.11527387 0.048871394 0.07620263 0.111374244
0003b0 31 c9 3e bd 73 b3 f4 bd 64 5b 38 bd cb a1 88 3d
       -0.04657859 -0.1194829 -0.045009032 0.066714846
0003c0 e9 d7 c9 3d 5d 83 e4 3d ee a3 6d 3d c3 53 58 3b
       0.09855635 0.11157868 0.058017664 0.003300891
0003d0 04 45 6f 3d 8d ad eb 3d 25 10 5b 3d be 68 80 bd
       0.058415428 0.115077116 0.053482193 -0.06269978
0003e0 7c fd 6e bd cd 41 6e 3d a3 ad 59 3c a6 5b d7 bd
       -0.05834721 0.05816822 0.013286027 -0.105155274
0003f0 0d 9e 85 bd b5 60 fc bd fb 78 92 3d a6 71 94 bd
       -0.065242864 -0.12323133 0.071519814 -0.07248239

bias_ih_l1 f4 [256]
000000 eb 48 dc 3c 44 78 8a 3d b6 15 87 bd 9b 33 02 3d
       0.026890239 0.0676122 -0.06595938 0.031787496
000010 2a 8c 04 3e 23 dd a0 bb d8 1b 84 3d d6 9b 60 3d
       0.12944093 -0.004909174 0.06450623 0.054836117
000020 3c d7 1f 3d 1a 35 df 3d ad c1 d0 3d 09 6f c7 3d
       0.039023623 0.108988 0.10193191 0.09737975
000030 61 60 e0 3d 21 76 cc bd a1 6b 98 bd c0 41 60 3d
       0.10955883 -0.09983469 -0.074424036 0.054750204
000040 5a d1 ea 3c 14 09 52 3d 3c 9a ea bc b0 a1 92 bd
       0.02866428 0.05127819 -0.028637998 -0.07159746
000050 1c 1b dc 3d 33 d9 67 bd 64 2b e7 3d 67 ce e2 3d
       0.10747358 -0.05660362 0.11287573 0.110745244
000060 d0 1d c0 bd 80 53 df bc 8d 44 c6 3d 26 80 f0 bd
       -0.09380686 -0.027261496 0.09681044 -0.117431924
000070 01 79 1c 3d 77 3a e3 bd b6 94 ac 3d 8d 57 ef bd
       0.038201336 -0.11095136 0.08426802 -0.11686621
000080 51 3b 19 3d e9 3c a5 bd cb 6f 46 3d d8 4e 71 3d
       0.037410084 -0.08068258 0.048446458 0.058913082
000090 01 45 8e 3c 8c 3f c2 bd 2a fa 54 3c 11 80 49 bd
       0.017366888 -0.09484777 0.012999097 -0.0491944
0000a0 ba 0f bf 3d d2 ef 09 3e 99 6f 11 bd 64 ba ce 3d
       0.093291715 0.1347039 -0.03550682 0.10094145
0000b0 13 7b a6 3d 0a 21 cb bd e4 d6 d1 3d b0 b7 12 3d
       0.08128943 -0.09918411 0.10246065 0.03581971
0000c0 b0 86 0c 3c db bf 85 3d 0e 92 5c 3c 1f 75 9b bd
       0.008577034 0.06530734 0.0134625565 -0.075906985
0000d0 64 3e 6f bc f3 80 5c bd 99 e4 e9 3d 8b 66 d0 bd
       -0.014602277 -0.053833913 0.11420555 -0.101758085
0000e0 f8 5c c8 3b a9 63 8f 3c 83 5a c0 3d 15 64 91 3c
       0.0061145984 0.017503576 0.09392264 0.017747918
0000f0 93 16 80 bd 29 f8 8e bd de e4 cd 3c 81 ba 01 3e
       -0.06254306 -0.069809265 0.025133546 0.12668802
000100 fb c5 c6 bd 5a 49 86 3d 85 32 ce bd 09 4e c9 3d
       -0.097057305 0.065569595 -0.100682296 0.09829337
000110 e3 f0 f0 bc 9b 21 17 bd 52 6b 4d 3d 9f c3 b6 bc
       -0.029411739 -0.036897283 0.050151177 -0.022310076
000120 bd c5 11 3d 56 32 f1 3d da 6f 44 3d 69 2c eb bc
       0.03558897 0.11777179 0.047958232 -0.0287077
000130 09 cd 79 3d b4 c3 31 3d e0 2c 97 bc 71 b0 16 bd
       0.060986552 0.043399528 -0.018454015 -0.03678936
000140 be f1 dd 3d d2 cf 67 3c 07 8a 13 3d 3a 7e bc 3c
       0.10837124 0.014148669 0.036020305 0.023009408
000150 35 a1 2f bd a4 1d 04 3d 73 b2 f8 3d 3e b7 ea 3d
       -0.04287835 0.03225483 0.121434115 0.11460732
000160 3d 96 12 3d 26 10 ac bc 19 cc f3 3d 79 4c fa bc
       0.03578781 -0.021003794 0.11904163 -0.030554043
000170 1d fa 6f bc b1 d4 c2 3d 0c 55 80 3d 4e ce 92 bc
       -0.014647034 0.09513224 0.062662214 -0.01792064
000180 64 fd c7 bd 85 93 aa bd 77 9e f4 bd 9d c2 9e 3d
       -0.09765127 -0.08328918 -0.11944287 0.07751963
000190 09 b5 c9 3c 38 dd 2c 3d f1 81 f5 bd 57 da bd 3d
       0.024622457 0.04220316 -0.11987675 0.09270161
0001a0 09 be 96 bc 31 13 c0 3c be d6 cc bd 6e 3a a1 3d
       -0.018401163 0.023446651 -0.10001896 0.07872473
0001b0 b2 4c b0 3b 9e 3a 65 3d 26 67 4f bd cf 2e e4 bd
       0.0053802365 0.055964105 -0.05063548 -0.111417405
0001c0 97 15 93 3d dd 6b 8c bd 28 32 d8 3d 7e 13 f8 3d
       0.07181852 -0.06856511 0.105564415 0.12113093
0001d0 5e 75 fd bd 7c 8a c8 bd f7 8b 6a bd d0 f9 85 ba
       -0.12375902 -0.09792039 -0.057262387 -0.0010221545
0001e0 49 2e 81 bd 16 56 c9 3c 16 db 2e 3d d3 3f 24 3d
       -0.06307656 0.024577182 0.042689405 0.04009993
0001f0 2f 52 b0 3d 1e 08 5e bd a8 e3 9b 3d 21 d3 78 3d
       0.08609425 -0.05420696 0.07611781 0.060748223
000200 4b b1 ff bc d4 ca 89 3d 25 83 e8 3d df 48 ae 3d
       -0.03121247 0.067281395 0.11353139 0.08509993
000210 61 aa d9 ba 90 7a 1f 3d 4e 17 d5 bd 60 11 25 3d
       -0.0016606563 0.038935244 -0.10404836 0.040299773
000220 87 1b 1b bd b6 0e 25 bd 73 99 2a 3d e4 49 8e bd
       -0.03786805 -0.040297233 0.041650247 -0.06947687
000230 78 78 93 bd 57 13 ff bc a7 f8 12 bd 9f 29 bc bc
       -0.07200712 -0.031137152 -0.035881665 -0.022969065
000240 d0 e6 f0 3d a4 16 d4 bc d8 30 6c bd 1d 64 e4 bc
       0.11762774 -0.025889702 -0.05766377 -0.027879769
000250 ee 01 e4 bc 65 fd 6b 3d 24 50 db 3d 7f 4f 26 3c
       -0.027832951 0.057614703 0.10708645 0.010150789
000260 0c eb 34 3d 52 0c b7 bd 06 af 52 bc b5 cd ce 3c
       0.04416947 -0.08937897 -0.012859112 0.025244573
000270 a7 cf ad 3d ea 83 bb 3d 9d a5 e2 bc 0b 78 43 3b
       0.08486872 0.0915602 -0.027666861 0.002982619
000280 01 51 f9 bc 2d 43 69 3c 31 1e a2 3d bf 02 7d 3d
       -0.030434133 0.014237207 0.07915915 0.061770197
000290 ca 29 90 bc a9 df 52 3d dc 75 8b 3d e8 c8 d3 3c
       -0.017598052 0.05148283 0.06809589 0.025852636
0002a0 ec b2 84 bd 23 fc 62 bd be 38 b5 3c 64 07 d8 3d
       -0.06479439 -0.055416238 0.022121783 0.10548285
0002b0 e7 ee a9 bd 87 87 a4 3d 04 3a dc 3d b0 d9 29 bd
       -0.0829752 0.08033662 0.10753253 -0.04146737
0002c0 00 d4 3d 3c 45 42 2d bd d1 b0 8c 3d 82 25 bf 3b
       0.011586189 -0.042299528 0.068696626 0.0058333287
0002d0 98 e3 d0 3c 5b 09 c8 3d 13 62 87 3d f0 64 71 3d
       0.02549915 0.097674094 0.06610503 0.058934152
0002e0 c7 bb da 3b 7e ad 1e bd 88 f0 93 bc 21 17 5e 3d
       0.006675217 -0.038739674 -0.01805903 0.054221276
0002f0 41 e1 c0 bd 6e 39 16 3d 2b 06 cf bd 0c 35 21 bc
       -0.09417964 0.036675863 -0.10108598 -0.0098393075
000300 59 65 c6 3d 97 f0 24 bd 93 5c 3f ba 3a 5a 6d 3c
       0.09687299 -0.040268507 -0.00072998664 0.014486844
000310 41 93 ec 3d 29 b8 81 bd c1 d0 b3 bd 60 59 8a 3d
       0.11551524 -0.06333954 -0.08780051 0.06755328
000320 ee aa e6 3c ba 82 07 3c 8c 8d c4 3c cd b1 0c 3c
       0.028157678 0.008270914 0.023993276 0.008587313
000330 22 e8 3d bc 20 f7 bb 3d 4f fc b1 bd 5a 6e 09 3d
       -0.011590989 0.09177995 -0.08690702 0.033552505
000340 91 cd 7f bd 5e b3 9c bc 8f 7a b6 bd 1f 55 da bd
       -0.062451903 -0.019128498 -0.08910095 -0.10660767
000350 6a 03 e4 3d 33 bd aa bc a1 5e e8 3c bd d1 13 bd
       0.11133464 -0.02084217 0.028365435 -0.036088694
000360 a7 8d b7 bd 2d 0a 40 3d 12 25 43 3d 12 c6 6d bc
       -0.08962565 0.046884704 0.047642775 -0.014512556
000370 5e 11 f1 3c 61 a1 43 3c f8 1c ff bd 2f 10 bc bd
       0.029427227 0.011940331 -0.12456697 -0.09182774
000380 fe 49 ab 38 b7 18 c1 bd 69 a8 e4 bc ce 3b 52 3d
       8.1676975e-05 -0.09428542 -0.027912335 0.051326565
000390 05 b2 d3 bb ab 5b df 3d 99 8e 32 bb 34 28 9b bd
       -0.0064604306 0.10906156 -0.002724564 -0.075760275
0003a0 0b 9f 70 bd 0f 06 76 bd ab 91 97 bd bf d6 05 ba
       -0.058745425 -0.06006437 -0.07400831 -0.0005105547
0003b0 9e 46 37 bd 43 06 ae bd a5 e8 2a bd 09 fc bb bd
       -0.04474508 -0.08497288 -0.041725773 -0.09178931
0003c0 23 fd fb 3d b8 02 a9 bd 2e b2 d9 3d 90 3a e2 bd
       0.12304141 -0.08252472 0.10629688 -0.11046326
0003d0 6d fe 30 bd d3 f2 b3 3d b9 71 17 bd 93 af ae 3d
       -0.04321139 0.087865494 -0.03697369 0.08529582
0003e0 20 a4 48 3d 44 b5 d7 bd 4c 68 6a bc cd 27 15 3d
       0.048984647 -0.105326205 -0.014307093 0.03641491
0003f0 e6 c6 c7 bd 32 65 ea 3c 60 0f 16 3e 14 01 c1 3d
       -0.09754734 0.028612707 0.14654303 0.09424034
