models saved/SGDM_DJIA.pth (torch, 351515 bytes, 15 tensors)

weight_ih_l0 f4 [256, 5]
-0.0977634 -0.012640082 -0.06881352 -0.04882904 0.06515116 0.00016258463 -0.015498956 0.12476607
0.0815302 0.04818445 -0.008917395 0.021628752 -0.110557765 -0.05853481 0.022391517 -0.012900106
0.01289719 0.07712636 0.106342845 0.09448552 0.07657058 -0.097432524 0.023428997 0.049455047
0.009250076 0.0153479455 -0.029787133 0.086248286 0.10230301 0.07978453 0.124035545 -0.1223003
-0.039722502 0.02436814 -0.07302808 -0.06461044 -0.12621409 0.017586252 -0.04670403 0.040666964
0.032625757 -0.07365604 -0.0058313934 -0.0023197625 0.08456363 -0.11987662 0.032108005 -0.013864703
-0.08224578 -0.022933293 0.032811675 0.0064701466 -0.014281648 -0.06688154 0.030265432 0.07468496
-0.08117549 0.010959493 0.00284299 0.07741788 -0.091010325 0.028186172 -0.07891649 -0.0926778
-0.052888773 -0.016873162 -0.07139748 -0.09929968 -0.07254406 0.076117925 -0.11825476 -0.0434572
-0.085424885 0.10436013 -0.058682043 -0.073057406 0.049976468 -0.018013088 0.08461281 -0.11644197
-0.02476216 0.11159117 -0.1198478 0.07879043 -0.00770535 0.030060573 0.046786934 0.042853817
-0.06610335 0.017055672 0.08385751 -0.09020032 -0.055697426 -0.08704519 0.02186132 0.0018966127
-0.06283316 0.06467553 0.0571976 -0.051338315 -0.021805774 0.07357733 0.08395777 0.08604862
0.040147237 -0.035329044 -0.03588769 -0.09795991 -0.021485899 -0.060726598 0.037323147 -0.032483414
-0.09553558 0.09106685 -0.026244296 0.117358826 0.10278343 0.029385366 0.122958824 0.056411367
-0.0532687 -0.10991645 -0.019195743 -0.12405589 0.11170718 -0.04064391 -0.09615355 -0.11923938
0.046781573 -0.06253654 0.07959196 0.11645756 -0.0010010356 -0.12373798 -0.027592096 -0.11621366
-0.058431845 0.039379872 0.074564725 0.088767074 0.030385459 -0.0508526 -0.08310754 0.11267353
-0.015828352 0.012346064 0.10779848 0.020164797 0.054435834 -0.07776109 -0.08895945 0.10455641
0.03990568 0.013551403 -0.054249536 0.069129765 -0.081179895 -0.008891679 0.0006966076 -0.0012953018
0.053544115 -0.048564605 0.088116944 -0.014828244 0.10836336 0.038950928 -0.064969234 -0.102672204
0.04352279 -0.06474038 0.06663315 -0.11119615 -0.08681482 0.124963135 0.013841763 -0.072759084
-0.10487773 -0.028123213 0.017080206 0.1231295 0.042319547 0.07051861 0.008693356 -0.074765116
-0.09409474 0.08667987 -0.07159529 -0.031560235 0.117341176 0.006335732 0.038214423 0.054939993
0.014276712 0.071291156 0.097753964 0.100910895 -0.083606444 -0.013869397 0.08749167 0.05350658
-0.114754245 0.02507823 -0.06581055 0.09848419 -0.07933486 -0.0698079 0.014679603 -0.061413143
-0.10162887 -0.091396295 0.12016564 -0.090760015 0.005390839 -0.11278586 0.021465482 -0.08798098
-0.014892849 -0.003707018 0.025498655 -0.065144025 -0.09747886 0.045193456 0.114264436 0.029971715
-0.05966312 0.009544432 -0.11311101 -0.1029727 0.03833859 0.10430532 -0.047029816 -0.031977914
-0.048945263 0.10468185 -0.0715541 -0.08874082 -0.04768469 0.08794353 0.05017848 -0.072227135
0.089790784 -0.005275935 -0.018409899 -0.009733343 0.07327601 0.086918764 -0.015746826 -0.09070908
0.022686439 -0.06614269 0.113198265 0.073163226 -0.037718028 0.048096225 -0.03846937 0.06575635
00000000: 2d38 c8bd 5918 4fbc 1aee 8cbd f600 48bd
00000010: f96d 853d 7b7b 2a39 55ef 7dbc 5a85 ff3d
00000020: 4ef9 a63d 0f5d 453d 441a 12bc c82e b13c
00000030: 1c6c e2bd 32c2 6fbd 6a6e b73c f75a 53bc
00000040: bc4e 533c 6df4 9d3d 47ca d93d a081 c13d
00000050: 09d1 9c3d b48a c7bd 2bee bf3c 6091 4a3d
00000060: a18d 173c f375 7b3c 2504 f4bc f1a2 b03d
00000070: 3e84 d13d 1266 a33d 5906 fe3d 9478 fabd
00000080: 10b4 22bd b29f c73c bf8f 95bd 7a52 84bd
00000090: 443e 01be 0b11 903c ba4c 3fbd 6792 263d
000000a0: 96a2 053d fad8 96bd 4615 bfbb 2807 18bb
000000b0: b22f ad3d e081 f5bd af83 033d c728 63bc
000000c0: 7a70 a8bd 9ade bbbc 8965 063d 8603 d43b
000000d0: 93fd 69bc 30f9 88bd 36ef f73c 6ef4 983d
000000e0: 563f a6bd 728f 333c 7551 3a3b 448d 9e3d
000000f0: 9f63 babd b0e6 e63c f89e a1bd dccd bdbd
00000100: e6a1 58bd 9639 8abc d838 92bd a15d cbbd
00000110: fb91 94bd b7e3 9b3d 8d2f f2bd 2d00 32bd
00000120: 3ef3 aebd c4ba d53d 955c 70bd 1f9f 95bd
00000130: 20b4 4c3d 2f90 93bc 7b49 ad3d 2179 eebd
00000140: 03da cabc e989 e43d c372 f5bd e15c a13d
00000150: 297d fcbb 9741 f63c a8a3 3f3d 7c87 2f3d
00000160: 3161 87bd 56b8 8b3c 7cbd ab3d f2ba b8bd
00000170: fc22 64bd c044 b2bd 8316 b33c c397 f83a
00000180: acae 80bd 9b74 843d 0848 6a3d 2048 52bd
00000190: 06a2 b2bc b6af 963d 0df2 ab3d 423a b03d
000001a0: 6e71 243d 30b5 10bd f8fe 12bd 359f c8bd
000001b0: 3203 b0bc 74bc 78bd 28e0 183d 540d 05bd
000001c0: 28a8 c3bd 4281 ba3d 47fe d6bc d359 f03d
000001d0: 1e80 d23d 94b9 f03c d6d1 fb3d 9b0f 673d
000001e0: 4830 5abd e01b e1bd 6440 9dbc 0411 febd
000001f0: bcc6 e43d 3b7a 26bd 27ec c4bd c733 f4bd
00000200: 099e 3f3d 2813 80bd 1c01 a33d 4d81 ee3d
00000210: 2e35 83ba 576a fdbd d208 e2bc 6d01 eebd
00000220: 3b56 6fbd ca4c 213d 64b5 983d 83cb b53d
00000230: edea f83c d14a 50bd 4934 aabd 61c1 e63d
00000240: 76aa 81bc 2547 4a3c 73c5 dc3d a530 a53c
00000250: 1cf8 5e3d 3541 9fbd 5f30 b6bd ac21 d63d
00000260: 2374 233d b406 5e3c c334 5ebd e893 8d3d
00000270: a541 a6bd 68ae 11bc 8b9c 363a 1ec7 a9ba
00000280: 1351 5b3d aeeb 46bd a876 b43d 2af2 72bc
00000290: 9ced dd3d 028b 1f3d 970e 85bd ce45 d2bd
000002a0: f444 323d 9b96 84bd f676 883d cfba e3bd
000002b0: f8cb b1bd acec ff3d 90c8 623c b702 95bd
000002c0: 23ca d6bd a762 e6bc caeb 8b3c 522b fc3d
000002d0: 4357 2d3d 106c 903d 946e 0e3c 741e 99bd
000002e0: beb4 c0bd 3785 b13d 8da0 92bd 4e45 01bd
000002f0: 9250 f03d f99b cf3b ba86 1c3d c208 613d
00000300: dfe8 693c 1901 923d 3b33 c83d 5faa ce3d
00000310: db39 abbd 783c 63bc d52e b33d b729 5b3d
00000320: 4604 ebbd dc70 cd3c aec7 86bd 14b2 c93d
00000330: 517a a2bd 72f7 8ebd b882 703c 598c 7bbd
00000340: cc22 d0bd fb2d bbbd 6719 f63d 63e0 b9bd
00000350: a3a5 b03b 46fc e6bd 61d8 af3c 5f2f b4bd
00000360: 2301 74bc 71f1 72bb 8ee2 d03c 3b6a 85bd
00000370: ffa2 c7bd c61c 393d 7903 ea3d 3e87 f53c
00000380: 5161 74bd 4060 1c3c bfa6 e7bd 5ae3 d2bd
00000390: ed08 1d3d 079e d53d 56a2 40bd 46fb 02bd
000003a0: d47a 48bd 7063 d63d f58a 92bd bfbd b5bd
000003b0: 0651 43bd bd1b b43d f387 4d3d d2eb 93bd
000003c0: 3be4 b73d c0e1 acbb 5bd0 96bc 9978 1fbc
000003d0: bc11 963d 7702 b23d 7dff 80bc afc5 b9bd
000003e0: e9d8 b93c d275 87bd 7ed4 e73d 9ad6 953d
000003f0: 387e 1abd 8c00 453d 0f92 1dbd 44ab 863d

weight_hh_l0 f4 [256, 64]
-0.05730539 -0.06629404 -0.06304484 -0.121064045 -0.03555376 0.009248147 0.067278504 0.086853854
0.0409491 -0.013254404 0.048285823 0.066779286 0.061224174 0.019069118 0.049790815 -0.04395443
-0.11448165 0.03582692 0.0644858 -0.090650484 0.059312895 0.08321896 -0.057182863 -0.04131787
-0.12081886 -0.054788593 -0.08409218 -0.069886476 -0.10447429 0.06885171 0.048999436 0.09589721
-0.069607474 -0.013675949 -0.06001866 0.0035582115 0.05066286 -0.12459164 -0.091025844 -0.00735233
0.096749105 -0.027639393 0.09271002 -0.10460722 -0.025696611 0.021634543 -0.03133728 -0.110975176
0.01874714 0.043902315 0.025713699 0.08223146 0.014266242 0.095910266 -0.11499172 -0.09823063
0.040187255 -0.040713873 -0.05529396 0.11284893 0.0027841085 0.11882339 0.08588789 -0.0142882615
-0.0058667334 -0.09812215 0.08646351 -0.027756877 -0.10717862 -0.064508215 0.07554033 0.06876703
0.017896878 -0.1084701 -0.046459578 0.06259513 -0.042167675 -0.0574123 -0.0011197204 0.053911436
0.09427587 0.038618352 0.020740442 0.01882794 0.056600176 0.04598475 0.060041178 -0.11010398
0.099010825 0.06831656 -0.08491827 -0.02326504 -0.014342501 -0.07845887 -0.006573342 -0.05807037
-0.015450051 0.03174437 -0.009129818 0.019581798 -0.07215069 -0.0015191446 0.11297182 -0.018416533
0.02139077 -0.04892898 -0.044394307 -0.05534723 -0.0050015943 0.10632029 -0.10948103 0.033778917
-0.123042695 0.08597705 0.026787417 0.07383656 -0.11046368 0.06468434 -0.051383737 -0.012835582
0.033288233 0.006211288 -0.08821549 0.07415931 -0.015116238 -0.0928177 0.09344959 -0.03175911
-0.08312483 0.034550954 -0.09038712 -0.08867979 0.030988602 0.06048691 0.044211082 0.05681126
0.065686464 0.038478855 0.12432823 -0.048482697 -0.12323873 -0.08267348 0.11690736 0.03111186
-0.03314579 0.0045272955 -0.060085144 -0.10941767 -0.029995594 0.020843487 0.10989704 -0.08639209
0.10511521 0.02929391 0.012760465 -0.0126798 -0.06909319 -0.070249505 -0.0442425 -0.062065102
-0.07268173 0.01108111 0.072142676 -0.055994228 0.02794919 -0.05387371 0.04261319 -0.031856768
0.06858312 -0.013015343 -0.009054526 0.084296845 -0.11585535 0.051134743 -0.042452168 -0.014049705
0.050950818 0.069073476 -0.12165217 -0.09006188 -0.038892284 0.06578018 0.015045791 0.018319737
-0.010519894 -0.00619781 0.056074295 0.11964974 -0.11864805 -0.037501328 0.115160115 -0.06620775
0.116794296 -0.10996149 -0.010214618 -0.09523494 0.028592516 0.00252389 -0.0769215 -0.066264674
0.07508752 0.095210955 -0.08039293 -0.039518442 -0.0003437799 -0.030871203 -0.086334266 -0.05010694
-0.11123379 0.05752588 0.11205822 -0.003921495 0.11346399 -0.0032418778 -0.08012503 -0.02205572
0.11729013 0.03321652 -0.12105284 -0.03355723 0.06945291 -0.0981625 -0.08456393 0.070287555
-0.09498066 0.032140348 0.07061142 0.010497139 0.053857595 -0.011640389 -0.047687303 0.023467917
-0.03292464 -0.06450693 0.09173165 -0.049065772 0.08897158 0.06782909 -0.08387122 -0.104034
-0.0567125 -0.064560086 -0.034684993 -0.10221514 0.07161474 -0.0073875585 -0.03797004 -0.006341735
0.0642632 0.108459495 -0.020608773 -0.03603547 -0.0523809 0.050197996 0.08879074 0.044092637
00000000: 0eb9 6abd 2bc5 87bd a71d 81bd 6df0 f7bd
00000010: d2a0 11bd 8a85 173c 50c9 893d 6fe0 b13d
00000020: 3eba 273d 0029 59bc 5bc7 453d 94c3 883d
00000030: 33c6 7a3d d736 9c3c 74f1 4b3d 8f09 34bd
00000040: 5b75 eabd 40bf 123d 2211 843d f6a6 b9bd
00000050: 14f2 723d b46e aa3d 9438 6abd ed3c 29bd
00000060: e16f f7bd 016a 60bd 8538 acbd a420 8fbd
00000070: 9ef6 d5bd 2002 8d3d a2b3 483d c265 c43d
00000080: 5d8e 8ebd 1611 60bc 20d6 75bd e230 693b
00000090: dc83 4f3d e729 ffbd c26b babd d0eb f0bb
000000a0: 6524 c63d 026c e2bc c0de bd3d 4f3c d6bd
000000b0: b381 d2bc ed3a b13c 855b 00bd f446 e3bd
000000c0: 9a93 993c ead2 333d 89a5 d23c f868 a83d
000000d0: f5bc 693c 9a6c c43d c780 ebbd 242d c9bd
000000e0: 649b 243d 97c3 26bd eb7b 62bd 571d e73d
000000f0: 9775 363b ad59 f33d fde5 af3d 5019 6abc
00000100: ba3d c0bb 44f4 c8bd c813 b13d 6462 e3bc
00000110: 7780 dbbd e21c 84bd e3b4 9a3d bbd5 8c3d
00000120: 799c 923c 9225 debd 664c 3ebd e031 803d
00000130: 03b8 2cbd 2929 6bbd 95c3 92ba 3dd2 5c3d
00000140: b513 c13d 472e 1e3d dce7 a93c 0d3d 9a3c
00000150: 96d5 673d 815a 3c3d bded 753d 327e e1bd
00000160: 30c6 ca3d 8de9 8b3d a1e9 adbd 5396 bebc
00000170: cffc 6abc 0baf a0bd 3065 d7bb 32db 6dbd
00000180: 3622 7dbc 6206 023d 3b95 15bc 026a a03c
00000190: bec3 93bd 091e c7ba c55d e73d 45de 96bc
000001a0: b23b af3c c169 48bd ced6 35bd c7b3 62bd
000001b0: 6ae4 a3bb 74be d93d 9737 e0bd c35b 0a3d
000001c0: cffd fbbd bc14 b03d 4971 db3c 9f37 973d
000001d0: c83a e2bd 3979 843d c177 52bd 554c 52bc
000001e0: 3e59 083d 0f88 cb3b 53aa b4bd d6e0 973d
000001f0: 19aa 77bc 3517 bebd 8062 bf3d d715 02bd
00000200: 5a3d aabd 4d85 0d3d e21c b9bd c09d b5bd
00000210: cfdb fd3c 1fc1 773d ae16 353d ecb2 683d
00000220: a086 863d 019c 1d3d cd9f fe3d cb95 46bd
00000230: 9664 fcbd b750 a9bd 206d ef3d 4dde fe3c
00000240: e1c3 07bd b559 943b d71b 76bd 5f16 e0bd
00000250: 52b9 f5bc f6bf aa3c b311 e13d 56ee b0bd
00000260: a546 d73d c8f9 ef3c 4511 513c f0be 4fbc
00000270: bb80 8dbd f9de 8fbd a037 35bd fa37 7ebd
00000280: 29da 94bd 8b8d 353c 8abf 933d 345a 65bd
00000290: b3f5 e43c aeaa 5cbd 2b8b 2e3d 3e7c 02bd
000002a0: 4f75 8c3d 4e3e 55bc 6f59 14bc d3a3 ac3d
000002b0: 9245 edbd aa72 513d 53e2 2dbd bc30 66bc
000002c0: ceb1 503d 6576 8d3d c624 f9bd 5d72 b8bd
000002d0: 844d 1fbd c2b7 863d 9f82 763c 4613 963c
000002e0: a25b 2cbc 0017 cbbb 29ae 653d ec0a f53d
000002f0: c0fd f2bd fe9a 19bd 11d9 eb3d ee97 87bd
00000300: d931 ef3d 7d33 e1bd 375b 27bc 890a c3bd
00000310: da3a ea3c d967 253b 0589 9dbd c6b5 87bd
00000320: 7cc7 993d f6fd c23d 0ca5 a4bd 17de 21bd
00000330: 5b3d b4b9 9be5 fcbc 05d0 b0bd ef3c 4dbd
00000340: 8bce e3bd 42a0 6b3d c87e e53d e27f 80bb
00000350: cf5f e83d af75 54bb 9718 a4bd 33ae b4bc
00000360: cf35 f03d 0c0e 083d 8dea f7bd 4e73 09bd
00000370: 543d 8e3d 6c09 c9bd db2f adbd ecf2 8f3d
00000380: 3885 c2bd 99a5 033d b89c 903d 31fc 2b3c
00000390: c899 5c3d 55b7 3ebc c353 43bd ca3f c03c
000003a0: fddb 06bd 361c 84bd cedd bb3d 31f9 48bd
000003b0: bb36 b63d fae9 8a3d adc4 abbd c70f d5bd
000003c0: 5e4b 68bd 1438 84bd da11 0ebd 2c56 d1bd
000003d0: c0aa 923d 5513 f2bb 7986 1bbd 54ce cfbb
000003e0: 6d9c 833d 0320 de3d bbd3 a8bc ee99 13bd
000003f0: 5b8d 56bd 6a9c 4d3d ebd7 b53d 7b9a 343d

bias_ih_l0 f4 [256]
-0.0625488 -0.07070883 -0.1077927 -0.092846066 -0.04356377 -0.07098608 -0.06465716 0.00106924
-0.03314722 0.117439605 -0.06473995 0.040442064 -0.054715883 -0.030055309 -0.040609557 -0.037238006
0.03002825 -0.06012208 0.11673984 0.009849427 0.016006496 -0.117024116 0.10240439 0.111061506
-0.048109077 0.001394315 -0.05226161 0.12646283 0.1270749 0.017676776 -0.08113041 0.050465666
-0.115476705 0.021974353 0.08237709 0.033911616 -0.097020276 0.039142754 0.026675515 0.108550414
0.035527572 -0.08815815 -0.04631464 0.11785732 0.030818963 -0.04250478 0.071020834 -0.09793039
0.09072143 -0.05461373 -0.10214023 0.05283381 0.0987689 -0.001346676 0.018283002 0.093184814
0.05330275 0.033603504 0.10808071 -0.00905274 0.006848746 -0.039170742 -0.043660775 0.09234472
-0.01706505 0.0065238047 0.07510555 -0.0747038 -0.1115621 0.09214617 0.013818347 0.07386768
0.006705341 -0.093922876 0.109236665 0.07801169 0.12318566 0.119398266 0.11554646 -0.12536545
0.00899722 0.092692874 -0.09059549 0.00023480941 -0.1229859 0.11476171 -0.0298424 0.025210263
-0.08834695 -0.050529532 0.11445255 0.0072129117 0.012027037 0.05080153 0.12243804 -0.12579145
0.0036432089 0.015371484 0.13033032 -0.055810433 -0.044240773 0.10335047 -0.014722053 -0.10409417
0.0572114 -0.008417094 -0.058080677 0.05374951 -0.08407929 -0.08706811 0.09707181 0.00011445099
0.08075891 -0.041287612 0.08845177 -0.051255304 0.13424562 -0.11744474 -0.07783279 -0.0892169
-0.01589882 0.06902256 -0.073535495 -0.04231729 0.04766235 0.037422914 -0.118964784 0.051946726
0.09831086 -0.06350233 -0.08168984 -0.09415507 -0.12562074 0.10187202 0.061639246 0.021034034
-0.03404159 0.11725576 0.07760203 0.09850675 -0.07044491 -0.027680598 0.09581455 -0.084919624
-0.024198368 0.14998266 -0.035814714 0.12755622 -0.023523448 0.034265622 -0.008330878 -0.022100054
-0.0071624457 -0.063479066 -0.011359158 0.03179889 -0.013680288 0.10515806 -0.1075971 -0.095556006
0.07966768 0.08944707 0.08629124 -0.10742513 -0.08063594 -0.07362384 0.10769481 -0.09229259
-0.09243421 0.06728209 0.01682447 0.08986482 -0.04681655 -0.090529434 0.031978834 -0.025346655
0.0023693694 -0.061961763 0.079190515 -0.09435394 -0.03996893 -0.08585316 -0.035522405 -0.0132764075
-0.09813649 0.12074077 -0.048406675 -0.093786925 -0.035507474 0.07393118 0.05457687 -0.021882474
0.092030354 -0.011965879 0.068338595 0.030802803 0.081982285 0.080413565 -0.020558538 -0.027096787
-0.00027262548 -0.059661474 0.04608928 0.009911231 -0.08286832 -0.07306385 0.05132981 -0.10563909
-0.092458874 -0.11095728 0.11853597 -0.117326744 0.05943195 -0.06627033 -0.1074503 -0.010454551
-0.007581522 -0.09491389 0.0768421 0.038069706 0.073866 0.038209528 0.0034743675 -0.06966984
0.08006997 -0.10470983 -0.10993997 0.044578362 -0.04204823 0.08866712 0.11693259 -0.08008502
-0.023877872 -0.051046606 0.11187743 -0.039955065 0.013527621 0.0513924 0.017795667 0.0127915265
-0.071303315 0.018172601 0.1055461 0.12068106 -0.008781567 -0.060061302 -0.057284053 0.110122055
-0.06784021 0.024145741 0.08766622 -0.041845817 0.10406205 -0.1018163 -0.0097517185 -0.0013173422
00000000: 9619 80bd cbcf 90bd 6bc2 dcbd 1426 bebd
00000010: ec6f 32bd 2661 91bd f96a 84bd be25 8c3a
00000020: 61c5 07bd 2d84 f03d 6196 84bd 94a6 253d
00000030: c31d 60bd 8d36 f6bc 3556 26bd e186 18bd
00000040: cefd f53c 9242 76bd 4c15 ef3d 7e5f 213c
00000050: 0e20 833c 57aa efbd 65b9 d13d 3774 e33d
00000060: 060e 45bd 73c1 b63a 4510 56bd 797f 013e
00000070: ec1f 023e e3ce 903c b327 a6bd 16b5 4e3d
00000080: 0d7f ecbd 8f03 b43c 52b5 a83d e8e6 0a3d
00000090: 91b2 c6bd 2754 203d 9c86 da3c ae4f de3d
000000a0: 5c85 113d 438c b4bd 6cb4 3dbd 2e5f f13d
000000b0: 0d78 fc3c 7e19 2ebd 5f73 913d ba8f c8bd
000000c0: 28cc b93d a6b2 5fbd e62e d1bd 4468 583d
000000d0: 5947 ca3d f382 b0ba 3cc6 953c aed7 be3d
000000e0: fc53 5a3d d4a3 093d 6b59 dd3d f251 14bc
000000f0: 726b e03b 8071 20bd a4d5 32bd 3b1f bd3d
00000100: 01cc 8bbc a4c5 d53b f0d0 993d 4efe 98bd
00000110: ac7a e4bd 22b7 bc3d 5966 623c f047 973d
00000120: 7ab8 db3b a35a c0bd 79b7 df3d 98c4 9f3d
00000130: c348 fc3d 1487 f43d 9fa3 ec3d cd5f 00be
00000140: 1369 133c c3d5 bd3d 218a b9bd 2c37 7639
00000150: 08e0 fbbd 3008 eb3d 0d78 f4bc c185 ce3c
00000160: 3fef b4bd 0ef8 4ebd 1966 ea3d 4a5a ec3b
00000170: 0d0d 453c 4415 503d ccc0 fa3d 79cf 00be
00000180: e7c2 6e3b add8 7b3c 5075 053e 7b99 64bd
00000190: d035 35bd 69a9 d33d c434 71bc 532f d5bd
000001a0: 8056 6a3d dae7 09bc 01e6 6dbd 7228 5c3d
000001b0: c331 acbd c450 b2bd 96cd c63d 6805 f038
000001c0: ed64 a53d 331d 29bd 3426 b53d 15f1 51bd
000001d0: af77 093e de86 f0bd cc66 9fbd 5ab7 b6bd
000001e0: 3e3e 82bc b35b 8d3d c799 96bd e554 2dbd
000001f0: 9939 433d c548 193d cfa3 f3bd 17c6 543d
00000200: 3457 c93d 820d 82bd 014d a7bd 60d4 c0bd
00000210: b9a2 00be 47a2 d03d 6f79 7c3d 914f ac3c
00000220: 326f 0bbd ca23 f03d d0ed 9e3d e8bd c93d
00000230: 6c45 90bd 6cc2 e2bc 6b3a c43d 57ea adbd
00000240: a83b c6bc 0e95 193e 73b2 12bd 199e 023e
00000250: 3fb4 c0bc 1c5a 0c3d 3c7e 08bc 2c0b b5bc
00000260: f3b2 eabb 5001 82bd c31b 3abc 8e3f 023d
00000270: 4923 60bc 1c5d d73d de5b dcbd deb2 c3bd
00000280: cf28 a33d 0730 b73d 76b9 b03d b501 dcbd
00000290: 7524 a5bd 19c8 96bd 198f dc3d e603 bdbd
000002a0: 264e bdbd 31cb 893d 79d3 893c 0c0b b83d
000002b0: b6c2 3fbd 7f67 b9bd 3dfc 023d caa3 cfbc
000002c0: 6c47 1b3b 9ecb 7dbd a32e a23d a33c c1bd
000002d0: 76b6 23bd c8d3 afbd f17f 11bd 4a85 59bc
000002e0: c9fb c8bd f046 f73d 1446 46bd 5c13 c0bd
000002f0: 4970 11bd 3b69 973d ff8b 5f3d e042 b3bc
00000300: 697a bc3d 890c 44bc 1bf5 8b3d 2956 fc3c
00000310: 54e6 a73d deaf a43d 616a a8bc 15fa ddbc
00000320: 2cef 8eb9 975f 74bd 1dc8 3c3d b762 223c
00000330: deb6 a9bd 80a2 95bd 353f 523d 4f59 d8bd
00000340: 145b bdbd 923d e3bd fdc2 f23d 0149 f0bd
00000350: eb6e 733d bdb8 87bd e70e dcbd 9149 2bbc
00000360: 6b6e f8bb 3762 c2bd 645f 9d3d fbee 1b3d
00000370: 0f47 973d 9881 1c3d 37b2 633b 10af 8ebd
00000380: b9fb a33d 1b72 d6bd 3528 e1bd cd97 363d
00000390: c43a 2cbd 1b97 b53d 5b7a ef3d 9d03 a4bd
000003a0: 879b c3bc 3f16 51bd fe1f e53d eca7 23bd
000003b0: f4a2 5d3c d680 523d 38c8 913c 8d93 513c
000003c0: 7907 92bd b5de 943c 8e28 d83d a227 f73d
000003d0: 90e0 0fbc d702 76bd afa2 6abd ac87 e13d
000003e0: cfef 8abd 4acd c53c 598a b33d 8566 2bbd
000003f0: 7c1e d53d 1085 d0bd acc5 1fbc abaa acba

bias_hh_l0 f4 [256]
-0.033179667 0.10149642 0.009791537 -0.093886375 0.12740284 0.0759106 -0.06318279 0.07525015
-0.05309842 0.0085933795 -0.07847882 -0.10109485 -0.08547296 -0.04243464 -0.06471884 0.075462565
-0.08712619 0.024436664 0.10261442 0.118286125 -0.021273538 0.096401714 0.017656336 -0.07022772
0.07148927 0.07853941 -0.03812394 -0.049335722 0.05048103 0.06410615 -0.041842002 0.0783175
0.06333073 0.0909597 0.019999718 -0.071699575 0.1211037 -0.013457907 0.10212113 -0.037661463
6.843353e-05 -0.09841441 -0.06399646 -0.078067005 -0.11982484 -0.0011987948 0.023632998 -0.016316647
0.09692429 0.08032834 0.04381191 -0.098767884 0.09091102 0.053451397 0.07943966 0.08683643
0.09820159 0.120628126 -0.06894369 -0.066918984 0.06366521 -0.032103315 -0.0496424 -0.0057511567
-0.062421646 0.04050069 0.01132545 -0.055215854 0.12168798 -0.061728142 0.047309797 -0.06183464
0.10307966 -0.062276807 0.100326024 0.032603227 -0.045752082 -0.026806429 -0.057355985 0.022692112
-0.0313424 0.08670909 -0.054730155 0.005704408 -0.058014836 0.088312656 -0.10790392 0.058392853
0.018790986 0.097790256 -0.06303903 0.12124231 0.0924128 0.011387258 -0.099041656 0.08639898
-0.100520656 0.091031395 0.11351556 -0.0336758 0.066241086 0.08100987 0.05098165 -0.030856056
-0.04121989 -0.024047265 0.032917663 0.0077580726 0.08408251 0.005211396 -0.055042747 -0.10994618
-0.027470546 -0.11241228 0.0009842124 0.056534257 0.11198715 -0.062366977 0.065561764 0.039361943
-0.05501715 -0.09818842 0.06777426 0.023511022 -0.08302203 -0.00037708288 -0.0046370286 -0.09382866
0.08840656 -0.0027238568 -0.12329572 -0.036225453 0.0016828373 -0.06538323 -0.072903566 -0.014438509
-0.0026153843 0.038214017 -0.036019765 0.0841206 0.0020762745 -0.053472195 -0.117198475 0.0030657565
-0.029793175 -0.012948372 0.081915714 0.05330196 0.098904714 -0.0040964787 0.08703308 0.10932777
0.13244313 0.10347203 0.0755644 0.0623323 0.12104306 0.05929185 0.07619585 -0.09623574
-0.0032803675 -0.040451184 -0.084588274 0.07207108 -0.0154230865 -0.0022598605 -0.05130425 -0.11540413
-0.094307855 0.07894478 -0.048992287 -0.023249798 -0.12286948 -0.032508828 -0.10045834 0.10697146
0.099423915 -0.09016494 0.080566876 -0.09806297 -0.07259558 0.0254722 0.110606916 0.08100717
0.00068908604 -0.051643744 -0.09388844 0.031732965 -0.0352636 0.034029577 0.019897757 0.044904806
-0.0018814789 0.015055723 0.091221385 -0.09913334 -0.05925219 0.018181141 -0.0085614035 0.09563776
0.044724442 0.04490066 -0.016917413 0.06228407 0.088197365 0.066594675 0.02898582 0.054387234
0.113283366 0.0520278 0.07849989 -0.10192882 0.0026443878 -0.0058669206 0.07995584 0.032813393
-0.029307298 -0.04176721 0.053874645 -0.030555489 0.11469105 -0.12313435 0.04288955 -0.11477141
0.060419615 -0.043719064 -0.06484311 -0.0072104787 0.058478042 -0.0013251918 0.04495539 -0.11191421
0.09930441 0.11616233 -0.009957125 -0.044180304 -0.106192596 0.102257535 -0.11589751 0.06788389
-0.098997034 -0.12653318 -0.03333824 -0.10968131 -0.09291186 -0.02251619 -0.05601377 -0.059554603
0.06665624 -0.029122438 0.03603326 0.007316466 0.12250069 -0.083609805 -0.10070327 -0.026067121
00000000: 67e7 07bd 5bdd cf3d af6c 203c 8047 c0bd
00000010: e475 023e 0477 9b3d fb65 81bd c01c 9a3d
00000020: bb7d 59bd 3fcb 0c3c 81b9 a0bd d10a cfbd
00000030: 720c afbd f2cf 2dbd 508b 84bd 1e8c 9a3d
00000040: 376f b2bd 662f c83c 8227 d23d ff3f f23d
00000050: d845 aebc 436e c53d 05a4 903c 8dd3 8fbd
00000060: f768 923d 45d9 a03d d927 1cbd 4114 4abd
00000070: 32c5 4e3d 164a 833d 8562 2bbd ed64 a03d
00000080: 8bb3 813d 1449 ba3d 73d6 a33c 3ad7 92bd
00000090: 3705 f83d 8e7e 5cbc e224 d13d e842 1abd
000000a0: f983 8f38 7f8d c9bd 9310 83bd 98e1 9fbd
000000b0: ba66 f5bd e120 9dba fd99 c13c 7daa 85bc
000000c0: 3e80 c63d 2f83 a43d 1e74 333d d146 cabd
000000d0: 8f2f ba3d daef 5a3d 43b1 a23d 4cd7 b13d
000000e0: ea1d c93d e10b f73d 5932 8dbd d20c 89bd
000000f0: e862 823d c47e 03bd d455 4bbd 3374 bcbb
00000100: d7ad 7fbd 0de4 253d 618e 393c 052a 62bd
00000110: 8c37 f93d a6d6 7cbd ebc7 413d 5246 7dbd
00000120: 6e1b d33d f715 7fbd bb77 cd3d f68a 053d
00000130: 8966 3bbd 2899 dbbc 1cee 6abd cfe4 b93c
00000140: e360 00bd 8994 b13d ba2c 60bd 0bec ba3b
00000150: f7a0 6dbd 44dd b43d bbfc dcbd 582d 6f3d
00000160: 8eef 993c 4246 c83d 9b1a 81bd e34d f83d
00000170: ec42 bd3d 9f91 3a3c 5ad6 cabd f3f1 b03d
00000180: c6dd cdbd ab6e ba3d d97a e83d a3ef 09bd
00000190: 68a9 873d 81e8 a53d 22d2 503d d7c5 fcbc
000001a0: 30d6 28bd c5fe c4bc acd4 063d 6e37 fe3b
000001b0: 7333 ac3d 5cc4 aa3b 8174 61bd 762b e1bd
000001c0: e909 e1bc 6938 e6bd b000 813a 7790 673d
000001d0: 8559 e53d 8474 7fbd 3f45 863d fd39 213d
000001e0: aa59 61bd 0317 c9bd 3bcd 8a3d 309a c03c
000001f0: 7407 aabd 35b3 c5b9 37f2 97bb 3e29 c0bd
00000200: 800e b53d bc82 32bb 7782 fcbd 2461 14bd
00000210: a692 dc3a a5e7 85bd 774e 95bd 7f8f 6cbc
00000220: de66 2bbb 4d86 1c3d 7689 13bd 6c47 ac3d
00000230: 1b12 083b a905 5bbd c105 f0bd dcea 483b
00000240: d110 f4bc 6925 54bc 6dc3 a73d 2853 5a3d
00000250: 8e8e ca3d c13b 86bb 663e b23d 3de7 df3d
00000260: 2c9f 073e 25e9 d33d 82c1 9a3d 2750 7f3d
00000270: 6de5 f73d 03dc 723d 920c 9c3d 3e17 c5bd
00000280: 6ffb 56bb 24b0 25bd 9e3c adbd 019a 933d
00000290: 1db1 7cbc 2b1a 14bb 6824 52bd 0059 ecbd
000002a0: 7a24 c1bd cdad a13d 23ac 48bd 5c76 bebc
000002b0: fea2 fbbd fa27 05bd 1abd cdbd da13 db3d
000002c0: c49e cb3d 65a8 b8bd 3f00 a53d 3dd5 c8bd
000002d0: feac 94bd 13ab d03c e185 e23d 16e7 a53d
000002e0: c8a3 343a 6488 53bd 9548 c0bd 6dfa 013d
000002f0: 9170 10bd 9962 0b3d 9f00 a33c 1aee 373d
00000300: f59b f6ba 47ac 763c 47d2 ba3d 6c06 cbbd
00000310: 6db2 72bd 9ef0 943c 2145 0cbc bbdd c33d
00000320: fa30 373d c1e9 373d 6396 8abc 951d 7f3d
00000330: d2a0 b43d ca62 883d ac73 ed3c 26c5 5e3d
00000340: 1c01 e83d 1a1b 553d 8dc4 a03d 0fc0 d0bd
00000350: 774d 2d3b 4c3f c0bb e3bf a33d 5667 063d
00000360: dc15 f0bc 1814 2bbd a9ab 5c3d 814f fabc
00000370: 24e3 ea3d dd2d fcbd f4ac 2f3d 460d ebbd
00000380: 8f7a 773d c312 33bd 77cc 84bd e145 ecbb
00000390: ac86 6f3d 0fb2 adba 2523 383d 4733 e5bd
000003a0: 1c60 cb3d 84e6 ed3d 3623 23bc 68f6 34bd
000003b0: 817b d9bd 666c d13d ac5b edbd b506 8b3d
000003c0: f5be cabd ea91 01be ae8d 08bd 98a0 e0bd
000003d0: 9348 bebd df73 b8bc b26e 65bd 87ef 73bd
000003e0: 1183 883d 2e92 eebc 9d97 133d f7be ef3b
000003f0: a4e1 fa3d 9e3b abbd 843d cebd b78a d5bc

weight_ih_l1 f4 [256, 64]
-0.10883667 -0.07851762 0.12035202 0.12041767 0.12430781 0.019066388 -0.04160486 0.11825253
0.011883312 0.072280124 -0.0020784906 -0.031076789 0.05627154 0.04323806 -0.10978509 0.07747094
0.0011420685 -0.024350649 0.08050622 0.11067328 0.00421533 -0.123546846 0.05902207 -0.0046290993
0.052630145 -0.055350307 -0.012905102 0.012542687 -0.049521077 -0.107123844 0.08416294 -0.008016862
0.05783979 0.03010543 -0.07417051 -0.08991146 0.09529958 0.11159511 0.044308003 0.028596854
0.081520565 -0.09054717 0.048195228 0.07052563 -0.028193668 -0.039593708 -0.077486545 -0.11507031
0.04534741 -0.052488696 0.016128 0.10568437 -0.07564897 0.020197054 0.027515946 -0.10045464
0.009849772 0.030772746 -0.064109914 0.10739212 0.118037015 -0.039431725 -0.044210296 -0.022437798
-0.09257575 0.03429774 0.105416596 0.059274834 0.106743835 -0.059594523 0.101227626 0.107346624
-0.017871087 -0.058790464 -0.101089746 0.033546317 0.06985717 -0.12401112 0.10101176 -0.037816692
0.047838677 0.019630322 -0.07897251 -0.10999513 0.007301344 0.10288578 -0.07324716 -0.10644997
-0.053498458 0.11431615 0.057327427 0.03554289 0.0442595 0.10142764 -0.0026493596 0.09438749
0.03681358 -0.121444665 0.07939863 -0.066987604 0.07457435 0.06992387 -0.05558746 0.05853673
-0.04676258 -0.08511515 0.08088136 0.08808158 0.12418949 0.06255207 -0.030758217 0.0055502458
0.07027414 0.01854707 0.016654527 0.08517803 0.015764039 0.08473722 0.09476321 0.10170604
-0.107572466 -0.10282388 0.04678477 0.055067495 0.0764791 -0.09050255 0.045013044 0.10650363
0.11435487 0.0065391865 -0.06378455 -0.0060288003 -0.06159397 0.030426426 0.11173169 -0.11627699
0.099557795 -0.015932182 -0.027540132 0.07693883 0.010772072 -0.02328755 0.06745985 0.021581557
-0.120008565 -0.11007866 0.052638136 0.090805866 -0.12000195 -0.09696482 0.12281963 -0.11198866
0.10393465 0.055150785 -0.034416027 0.023721632 0.01718846 -0.038509168 0.016778216 -0.042736884
-0.0784326 -0.12278027 -0.012932019 0.11579295 -0.087748915 -0.029542211 0.016387234 0.10248012
0.06700407 0.109830566 -0.009467808 0.10619724 0.12323951 -0.106871985 0.066303425 -0.028658736
-0.042047057 -0.081730925 0.1106195 0.10489056 0.114937745 0.10382923 -0.052883822 -0.041143086
0.045301985 -0.024591602 -0.12101217 -0.07694522 0.096229844 -0.05201942 0.1222836 0.012514105
0.024057299 -0.09050535 0.018227166 -0.030833984 0.03441043 -0.061883945 0.034860075 -0.00032449877
-0.07029738 -0.07278622 0.111634135 0.021735199 0.030631248 0.120502904 -0.124384016 0.0026352224
0.011827251 -0.027230926 -0.086645745 -0.02115528 0.06431343 0.09987029 0.043461546 0.07673429
-0.10598012 0.03784858 0.10804298 -0.029849892 -0.011611188 0.080343716 -0.067812875 0.059510082
-0.035196085 0.014090564 0.12188815 0.116815805 0.070528105 0.10195059 -0.10587361 0.003127393
0.0050669475 -0.104481444 0.011814213 -0.06981559 -0.023677388 0.036202297 0.124518186 -0.10930941
0.10146197 -0.022607092 0.04646748 -0.007827195 -0.016336812 -0.088223614 -0.095455855 -0.035076596
0.08623386 -0.029554602 -0.022788849 -0.11426048 -0.053928263 -0.027841497 0.111332886 0.029024256
00000000: c3e5 debd d9cd a0bd 1f7b f63d 8a9d f63d
00000010: 1895 fe3d 1d31 9c3c dc69 2abd 622e f23d
00000020: 39b2 423c 9a07 943d 4937 08bb c094 febc
00000030: fc7c 663d 641a 313d 01d7 e0bd 16a9 9e3d
00000040: 76b1 953a 037b c7bc 72e0 a43d aca8 e23d
00000050: c020 8a3b 2106 fdbd 20c1 713d b3af 97bb
00000060: b592 573d 01b7 62bd ec6f 53bc d87f 4d3c
00000070: 9dd6 4abd bf63 dbbd 9f5d ac3d 2859 03bc
00000080: 6ae9 6c3d aa9f f63c b5e6 97bd 8023 b8bd
00000090: 6d2c c33d fa8b e43d 4f7c 353d f343 ea3c
000000a0: 41f4 a63d cb70 b9bd 5c68 453d be6f 903d
000000b0: 68f6 e6bc 032d 22bd 44b1 9ebd fca9 ebbd
000000c0: 35be 393d 63fe 56bd de1e 843c 0c71 d83d
000000d0: d9ed 9abd 4b74 a53c 1f69 e13c 2abb cdbd
000000e0: f060 213c 2017 fc3c 0f4c 83bd 66f0 db3d
000000f0: 64bd f13d 2983 21bd db15 35bd 79cf b7bc
00000100: 5b98 bdbd c97b 0c3d a8e4 d73d 2bca 723d
00000110: 839c da3d 6319 74bd 6e50 cf3d 8cd8 db3d
00000120: 6366 92bc 45ce 70bd 2408 cfbd dd67 093d
00000130: 4711 8f3d 8bf9 fdbd 41df ce3d ade5 1abd
00000140: 7df2 433d c5cf a03c 57bc a1bd 2045 e1bd
00000150: 1d40 ef3b c8b5 d23d 9b02 96bd 7102 dabd
00000160: 3321 5bbd 961e ea3d 2ad0 6a3d 6c95 113d
00000170: 7349 353d 4bb9 cf3d e1a0 2dbb 3a4e c13d
00000180: d6c9 163d fbb7 f8bd c09b a23d cc30 89bd
00000190: 70ba 983d 3f34 8f3d adaf 63bd 36c4 6f3d
000001a0: 1e8a 3fbd da50 aebd 20a5 a53d 1e64 b43d
000001b0: 0f57 fe3d 4d1b 803d a8f8 fbbc d6de b53b
000001c0: e3eb 8f3d 06f0 973c 136f 883c d271 ae3d
000001d0: 9623 813c b58a ad3d 3713 c23d 424b d03d
000001e0: f44e dcbd 5495 d2bd 63a1 3f3d 748e 613d
000001f0: 13a1 9c3d 6759 b9bd 995f 383d 931e da3d
00000200: e332 ea3d ac46 d63b 79a1 82bd 3e8d c5bb
00000210: f549 7cbd d740 f93c 96d3 e43d a122 eebd
00000220: f5e4 cb3d 3584 82bc d89b e1bc 1b92 9d3d
00000230: 587d 303c 88c5 bebc 6428 8a3d cecb b03c
00000240: 0dc7 f5bd ec70 e1bd 169b 573d 6df8 b93d
00000250: 95c3 f5bd 7e95 c6bd dc88 fb3d 505a e5bd
00000260: b1db d43d cae5 613d d2f7 0cbd de53 c23c
00000270: d0ce 8c3c cabb 1dbd 7872 893c df0c 2fbd
00000280: 45a1 a0bd 3974 fbbd d2e0 53bc db24 ed3d
00000290: b4b5 b3bd 8202 f2bc 853e 863c 19e1 d13d
000002a0: 6e39 893d d9ee e03d dd1e 1bbc f07d d93d
000002b0: ff64 fc3d b3df dabd 17ca 873d bac5 eabc
000002c0: 8939 2cbd 8b62 a7bd 7a8c e23d ddd0 d63d
000002d0: 7b64 eb3d 6ba4 d43d b59c 58bd a785 28bd
000002e0: 938e 393d 5474 c9bc 3bd5 f7bd 7595 9dbd
000002f0: 2714 c53d 5112 55bd d36f fa3d f607 4d3c
00000300: d013 c53c de5a b9bd 2351 953c 8d97 fcbc
00000310: f3f1 0c3d 057a 7dbd 70c9 0e3d 7d21 aab9
00000320: 13f8 8fbd f110 95bd 70a0 e43d 040e b23c
00000330: 62ee fa3c 3aca f63d 0cbd febd b2b3 2c3b
00000340: 16c7 413c 6413 dfbc 5373 b1bd d64d adbc
00000350: c2b6 833d cb88 cc3d bc04 323d de26 9d3d
00000360: 1b0c d9bd 1d07 1b3d a345 dd3d c387 f4bc
00000370: da3c 3ebc 3f8b a43d 7ae1 8abd d8c0 733d
00000380: c529 10bd 1cdc 663c 7fa0 f93d 203d ef3d
00000390: 0a71 903d 79cb d03d 43d4 d8bd f3f4 4c3b
000003a0: a308 a63b 5efa d5bd 6790 413c 7afb 8ebd
000003b0: 15f7 c1bc dc48 143d 6403 ff3d 9ddd dfbd
000003c0: 4bcb cf3d 8232 b9bc af54 3e3d a33d 00bc
000003d0: c7d4 85bc 95ae b4bd 5c7e c3bd 7aac 0fbd
000003e0: 619b b03d 7e1c f2bc aeaf babc 6601 eabd
000003f0: e2e3 5cbd da13 e4bc 7f02 e43d 47c4 ed3c

weight_hh_l1 f4 [256, 64]
0.0057860813 -0.00638195 -0.11584678 -0.1243228 -0.0934374 -0.073629014 0.058077715 0.08885283
0.036044184 -0.08930206 0.06914018 0.100936465 -0.04004491 -0.008251379 0.007966763 0.008999336
0.0681378 -0.0844003 0.022778891 -0.06792836 0.010345898 -0.024311617 -0.07305442 0.0068254615
-0.036921114 -0.10624704 0.065543175 0.09082495 -0.0047690207 0.079218656 -0.122362316 0.052388776
-0.055793837 0.05894589 -0.11756259 -0.040457502 0.037762858 0.034529213 0.098989464 -0.029038578
-0.12140456 0.12017339 -0.05034524 0.0073775356 0.097069204 0.00037966968 -0.06133528 -0.07080983
0.10454989 0.111431904 -0.10208124 0.048278008 0.11456847 0.10146566 -0.04684847 0.06228032
0.04555744 0.10147441 -0.063056335 0.0052844253 0.0075751673 0.06592947 0.019817103 0.07140844
-0.123327754 -0.09464205 -0.10951876 0.11510306 -0.06306774 -0.099061124 -0.040281177 0.00010662347
-0.03753982 -0.104651205 0.1056157 -0.114722796 -0.007103668 -0.036102913 0.11472245 0.0815639
-0.10361214 0.027761165 -0.08531971 0.08575337 -0.05205023 0.11485222 -0.021815093 0.07689041
0.008242262 -0.10501663 -0.03939557 -0.07134047 -0.018495591 -0.10049493 0.100834645 0.09341151
-0.09763901 -0.050061706 0.113279544 0.08961788 -0.079089984 0.071187265 -0.09046215 -0.12216247
0.11739572 -0.06811429 0.1170598 -0.017821763 -0.096360005 0.058766026 -0.0076735956 -0.053701367
0.04060386 0.11658056 -0.08551502 0.09984216 -0.08321366 -0.058614984 -0.004817352 0.07821528
0.08576211 0.046617165 -0.021063365 -0.122911476 0.118396476 -0.111846626 0.034568373 -0.0070920885
0.099651136 -0.029250382 -0.0593334 0.10786186 -0.099870525 -0.023182515 0.079704314 -0.056477804
0.119689584 0.11391708 -0.0053242384 -0.08224875 -0.113257594 0.041561462 -0.019933583 -0.086491436
0.098118894 -0.013245558 0.12285205 0.118464224 -0.01597236 -0.019871455 -0.011271354 -0.032781992
0.037850756 -0.07320506 -0.026040852 -0.09790432 0.051232126 -0.0753478 0.06271991 -0.07126473
0.065765925 -0.01350244 0.012412853 0.10820191 0.040164288 0.10488746 0.05892458 -0.1119605
-0.10487445 -0.10395967 -0.08056525 -0.11936584 -0.007349537 0.098756604 -0.022583352 0.055363674
0.056179196 -0.0065479456 0.12098187 -0.08612828 0.12074067 0.023471173 -0.10845535 -0.119491726
-0.06693742 -0.056775462 0.083320625 0.083637126 0.018684397 -0.029778522 0.050976917 0.08913498
-0.11244372 0.06085491 0.106094174 -0.124668755 0.07495074 -0.09170752 -0.045903657 -0.07395848
0.01529292 -0.017009761 -0.088112414 -0.043494724 -0.032121148 -0.065271504 0.048068542 -0.015771134
-0.07944346 -0.08724214 0.007899764 -0.033212893 0.07458626 0.04508918 0.004968765 0.026723567
-0.036001652 -0.032795303 0.058243964 0.05696455 0.07271198 0.048187856 0.025370987 -0.107438765
-0.037709784 0.086332366 -0.07298908 -0.11061711 -0.024213085 0.111245476 -0.049666874 0.058098547
0.0062373765 -0.12224574 0.07742482 0.10115512 -0.012857099 0.08647252 0.121020034 -0.0829948
-0.05280916 0.0287652 0.10075116 -0.08164868 -0.08515632 0.11187628 -0.07876592 0.008927216
0.030152425 0.08766603 0.08236284 0.010502226 0.060881227 -0.057957526 0.065251075 0.047391515
00000000: 2b99 bd3b ad1f d1bb 1441 edbd f49c febd
00000010: 1c5c bfbd cfca 96bd e6e2 6d3d 79f8 b53d
00000020: 11a3 133d 00e4 b6bd 5e99 8d3d c7b7 ce3d
00000030: 2206 24bd cb30 07bc 0787 023c f371 133c
00000040: d58b 8b3d 11da acbd cc9a ba3c 061e 8bbd
00000050: d781 293c 2829 c7bc 8e9d 95bd 1fa8 df3b
00000060: 983a 17bd 0c98 d9bd 803b 863d 6e02 ba3d
00000070: 7245 9cbb 643d a23d 1899 fabd 9d95 563d
00000080: 1488 64bd 3f71 713d a8c4 f0bd c4b6 25bd
00000090: 3aad 1a3d 816e 0d3d fdba ca3d 50e2 edbc
000000a0: f4a2 f8bd 771d f63d cf36 4ebd 41bf f13b
000000b0: 38cc c63d 670e c739 b43a 7bbd bf04 91bd
000000c0: 411e d63d 6936 e43d f80f d1bd 29bf 453d
000000d0: e0a2 ea3d 3acd cf3d 2ee4 3fbd a619 7f3d
000000e0: 709a 3a3d d1d1 cf3d ae23 81bd f928 ad3b
000000f0: 1c39 f83b 0806 873d 7a57 a23c 973e 923d
00000100: 4393 fcbd b1d3 c1bd 5f4b e0bd 27bb eb3d
00000110: a929 81bd 8fe0 cabd e0fd 24bd 0a9b df38
00000120: 5bc3 19bd 5f53 d6bd 0b4d d83d c9f3 eabd
00000130: e3c5 e8bb a6e0 13bd 9bf3 ea3d f90a a73d
00000140: 9a32 d4bd 626b e33c 1abc aebd 769f af3d
00000150: 9f32 55bd a437 eb3d 91b5 b2bc b878 9d3d
00000160: 8d0a 073c f512 d7bd 405d 21bd f41a 92bd
00000170: 1184 97bc 49d0 cdbd 6582 ce3d 894e bf3d
00000180: f6f6 c7bd 810d 4dbd 1bff e73d 9489 b73d
00000190: eef9 a1bd a1ca 913d 3844 b9bd 5130 fabd
000001a0: 2b6d f03d 817f 8bbd 0cbd ef3d f2fe 91bc
000001b0: 6558 c5bd a5b4 703d c972 fbbb f7f5 5bbd
000001c0: 3c50 263d cac1 ee3d 8022 afbd 0c7a cc3d
000001d0: ec6b aabd 4416 70bd e1da 9dbb 552f a03d
000001e0: 0ca4 af3d a4f1 3e3d 148d acbc 03b9 fbbd
000001f0: da79 f23d d80f e5bd 9197 0d3d c064 e8bb
00000200: e515 cc3d 7f9e efbc 9407 73bd aee6 dc3d
00000210: eb88 ccbd 42e9 bdbc 043c a33d 4555 67bd
00000220: d01f f53d 5c4d e93d f376 aebb 0872 a8bd
00000230: 99f3 e7bd 5a3c 2a3d c14b a3bc 6c22 b1bd
00000240: 8ff2 c83d e603 59bc db99 fb3d 5f9d f23d
00000250: 77d8 82bc 76c9 a2bc 7cab 38bc 6946 06bd
00000260: 6509 1b3d 89ec 95bd a053 d5bc 0f82 c8bd
00000270: c7d8 513d f34f 9abd 4c73 803d 3ef3 91bd
00000280: 49b0 863d 5739 5dbc 475f 4b3c f798 dd3d
00000290: 4f83 243d 3dcf d63d e75a 713d 8c4b e5bd
000002a0: 6ac8 d6bd cfe8 d4bd 65ff a4bd 1476 f4bd
000002b0: 63d4 f0bb e740 ca3d b900 b9bc 05c5 623d
000002c0: 281c 663d 2690 d6bb 58c5 f73d 0664 b0bd
000002d0: e246 f73d 9e46 c03c d71d debd 14b8 f4bd
000002e0: 7c16 89bd 638d 68bd 01a4 aa3d f149 ab3d
000002f0: 0510 993c 16f2 f3bc 2ccd 503d 678c b63d
00000300: e548 e6bd 0043 793d e747 d93d 5552 ffbd
00000310: c67f 993d 27d1 bbbd 7905 3cbd 8b77 97bd
00000320: 288f 7a3c 0e58 8bbc 4874 b4bd 8627 32bd
00000330: 7791 03bd 11ad 85bd 85e3 443d 7732 81bc
00000340: 41b3 a2bd 02ac b2bd 036e 013c 3e0a 08bd
00000350: aec0 983d 6faf 383d 06d1 a23b 62eb da3c
00000360: 7876 13bd 5e54 06bd 3991 6e3d a953 693d
00000370: 05ea 943d a160 453d d1d6 cf3c db08 dcbd
00000380: 9375 1abd 06cf b03d 4c7b 95bd 398b e2bd
00000390: 855a c6bc abd4 e33d 7e6f 4bbd bef8 6d3d
000003a0: e862 cc3b f95b fabd e790 9e3d 6a2a cf3d
000003b0: 95a6 52bc 8118 b13d 5ad9 f73d 2df9 a9bd
000003c0: 6b4e 58bd ffa4 eb3c a056 ce3d 6c37 a7bd
000003d0: 7066 aebd 641f e53d 0750 a1bd 7543 123c
000003e0: 3802 f73c 3f8a b33d d9ad a83d 8711 2c3c
000003f0: 985e 793d df64 6dbd 5ba2 853d 9b1d 423d

bias_ih_l1 f4 [256]
0.080657385 -0.08714054 0.10666908 0.09582514 0.10124974 0.061099548 -0.079500176 -0.08328343
-0.08537684 0.111404836 -0.022476513 -0.08508725 0.050793897 -0.03668129 0.024128133 -0.098094024
-0.021452969 0.060018815 -0.048048995 0.02757963 -0.085806854 -0.099456504 0.092344284 -0.017206812
-0.011135622 0.019969815 -0.124373786 0.0005180277 0.078041986 0.05334905 0.030234111 -0.10299963
-0.07807099 0.1185957 -0.11579679 0.08574431 0.04192259 -0.109703824 -0.056322724 -0.11062225
-0.08896516 0.018300261 -0.0037200325 0.05256919 -0.074775964 -0.08134438 -0.015554594 0.01068041
-0.06099153 0.07125653 0.04993079 0.062400743 0.086625084 -0.09634962 0.09965916 0.0060698898
-0.005566578 0.06615779 0.1051987 -0.099431075 0.12002166 0.00080951065 -0.070176564 0.06806388
0.02956273 -0.05999126 0.03705294 -0.021599615 -0.09261304 0.091285594 0.0053191013 0.054404706
-0.07128714 0.016736574 -0.09068384 0.093226135 0.00752642 -0.12379495 -0.09840795 -0.10562857
-0.0953338 0.091935664 0.039677806 -0.10819621 -0.07010096 0.120568536 0.04819117 0.13011895
0.032632995 -0.06732698 -0.080091074 0.06811146 0.051683646 0.05335614 -0.0028637869 0.007535461
-0.066182576 0.027077898 0.026580017 0.049429916 0.02995398 0.09841867 0.034430176 0.11777107
-0.10930484 -0.022255406 -0.05244444 0.10506186 -0.08409529 -0.122383706 0.0011259157 -0.008603014
-0.010891548 0.030594964 -0.05667648 0.04085432 0.0791393 0.113623634 -0.0031705247 0.0477124
0.09278705 -0.09714897 0.0958341 -0.049504876 -0.06985695 -0.033476457 -0.07372233 -0.034104932
-0.0795082 -0.039598018 0.109730855 -0.023213554 -0.027258622 -0.07356371 -0.011679424 0.12217432
-0.09725681 -0.076381944 0.04699818 -0.01797294 0.07960571 -0.09460263 0.002492309 0.06425751
-0.059847195 -0.097769216 0.026616592 -0.08788714 -0.045074746 -0.08948656 -0.023933832 -0.09461682
0.02910407 0.094496645 -0.060700424 -0.021313742 0.054071564 -0.0417582 -0.023493482 -0.04310473
0.10763303 -0.059532154 0.03358013 0.094402246 -0.041857276 -0.0043370137 -0.0043578045 -0.029652733
-0.035620827 -0.06259928 0.09615005 -0.067163385 0.08939162 -0.02432862 0.008101311 -0.043168884
0.04036865 0.030895367 -0.021574993 0.058366645 -0.028785873 0.029697753 -0.023170063 -0.11105855
-0.03299328 -0.07264815 -0.037863128 -0.061265975 0.07761921 -0.117856234 0.018485853 -0.0007587655
0.02392086 -0.08551321 -0.04416013 0.040108144 -0.027871296 -0.03421798 0.023660336 -0.0035092607
0.015323458 0.016521849 0.030557841 0.012920717 0.051230967 0.101514794 0.09937752 -0.08201841
0.03298576 0.12147811 0.07387067 -0.011948344 0.05425491 0.09372814 0.11496237 -0.056267552
-0.04796369 0.10920254 -0.03527521 0.0614761 0.018716184 0.08762391 -0.03825062 -0.0035440791
-0.078472026 -0.101556554 -0.09625425 -0.09807029 0.08861524 -0.10657224 0.041078556 0.11546146
-0.01582996 0.020934105 0.0011266704 0.08614964 0.03021715 0.044422727 0.124144465 0.08549338
-0.034301918 0.09314229 0.0764211 -0.0025955478 0.01613031 0.07604128 0.052997686 0.006123395
-0.031123532 -0.121136956 0.10230512 0.0793543 0.03678995 0.12549254 0.120050035 0.0137151
00000000: b32f a53d bd76 b2bd 5275 da3d f93f c43d
00000010: 065c cf3d 8543 7a3d fdd0 a2bd 8190 aabd
00000020: 0dda aebd 3828 e43d aa20 b8bc 3942 aebd
00000030: 430d 503d 1f3f 16bd 5da8 c53c 85e5 c8bd
00000040: 23be afbc 4ad6 753d 06cf 44bd adee e13c
00000050: 81bb afbd daaf cbbd 001f bd3d 4df5 8cbc
00000060: 2f72 36bc bd97 a33c afb7 febd 40cc 073a
00000070: 7ad4 9f3d 8984 5a3d 87ad f73c 78f1 d2bd
00000080: afe3 9fbd 4de2 f23d de26 edbd b69a af3d
00000090: 06b7 2b3d 66ac e0bd a8b2 66bd eb8d e2bd
000000a0: 5e33 b6bd 6eea 953c cacb 73bb ca52 573d
000000b0: 2424 99bd e297 a6bd b2d8 7ebc e3fc 2e3c
000000c0: 41d2 79bd f2ee 913d 3a84 4c3d ec97 7f3d
000000d0: 7e68 b13d f352 c5bd 1a1a cc3d ede5 c63b
000000e0: d767 b6bb bc7d 873d 6b72 d73d 85a2 cbbd
000000f0: ebcd f53d 5735 543a bbb8 8fbd 1365 8b3d
00000100: 8a2d f23c 65b9 75bd d3c4 173d adf1 b0bc
00000110: e8ab bdbd f1f3 ba3d db4b ae3b 78d7 5e3d
00000120: fefe 91bd 241b 893c 73b8 b9bd 58ed be3d
00000130: 30a0 f63b 3588 fdbd 1b8a c9bd cb53 d8bd
00000140: 5e3e c3bd c448 bc3d 3285 223d f995 ddbd
00000150: 1891 8fbd a3ec f63d 1b64 453d e73d 053e
00000160: 2daa 053d bae2 89bd ca06 a4bd 057e 8b3d
00000170: 3bb2 533d f88b 5a3d 5fae 3bbb 07ec f63b
00000180: bb8a 87bd 78d2 dd3c 56be d93c 0677 4a3d
00000190: 0d62 f53c ba8f c93d a806 0d3d f531 f13d
000001a0: 37db dfbd f850 b6bc fbcf 56bd ac2a d73d
000001b0: 273a acbd 4fa4 fabd 7693 933a a8f3 0cbc
000001c0: 7772 32bc 4aa2 fa3c 9925 68bd dc56 273d
000001d0: c913 a23d 82b3 e83d 94c8 4fbb 146e 433d
000001e0: 2307 be3d 0af6 c6bd ab44 c43d a0c5 4abd
000001f0: 2911 8fbd 9c1e 09bd bcfb 96bd 9db1 0bbd
00000200: 32d5 a2bd 8831 22bd 92ba e03d 5a2a bebc
00000210: 794d dfbc 92a8 96bd 0e5b 3fbc 8836 fa3d
00000220: 942e c7bd 236e 9cbd 2a81 403d fd3b 93bc
00000230: 5208 a33d 06bf c1bd 0256 233b 7199 833d
00000240: 5522 75bd 3a3b c8bd 0a0b da3c 2cfe b3bd
00000250: 4ca0 38bd bb44 b7bd e210 c4bc 77c6 c1bd
00000260: a96b ee3c 7587 c13d 02a1 78bd 289a aebc
00000270: 257a 5d3d a50a 2bbd 6775 c0bc 968e 30bd
00000280: b56e dc3d fdd7 73bd 528b 093d f755 c13d
00000290: 8972 2bbd 821d 8ebb eacb 8ebb 4aea f2bc
000002a0: 25e7 11bd 0d34 80bd 51ea c43d f58c 89bd
000002b0: f412 b73d d04c c7bc 5cbb 043c dbd1 30bd
000002c0: 9959 253d 4818 fd3c 0abe b0bc dd11 6f3d
000002d0: 5ad0 ebbc b448 f33c 25cf bdbc aa72 e3bd
000002e0: f623 07bd 8ec8 94bd 5e16 1bbd 08f2 7abd
000002f0: d2f6 9e3d 9c5e f1bd a56f 973c e4e7 46ba
00000300: aef5 c33c 8d21 afbd 41e1 34bd 7048 243d
00000310: 5852 e4bc 2728 0cbd 52d3 c13c a0fb 65bb
00000320: 3e0f 7b3c d458 873c 7054 fa3c 6ab1 533c
00000330: 90d7 513d fde6 cf3d 7186 cb3d 45f9 a7bd
00000340: 141c 073d 84c9 f83d 8149 973d fdc2 43bc
00000350: 663a 5e3d 8af4 bf3d 6471 eb3d ce78 66bd
00000360: 9375 44bd 95a5 df3d bd7c 10bd 5dce 7b3d
00000370: af52 993c 2a74 b33d afac 1cbd c843 68bb
00000380: f1b5 a0bd e2fc cfbd f320 c5bd 14d9 c8bd
00000390: e87b b53d 8c42 dabd fd41 283d 0f77 ec3d
000003a0: d5ad 81bc 007e ab3c c9ac 933a 396f b03d
000003b0: f589 f73c 9bf4 353d 743f fe3d 2717 af3d
000003c0: 2b80 0cbd 63c1 be3d aa82 9c3d 111a 2abb
000003d0: b623 843c 88bb 9b3d 1a14 593d c3a6 c83b
000003e0: c7f6 febc a716 f8bd 5985 d13d 8284 a23d
000003f0: 0fb1 163d 1e81 003e cbdc f53d 4cb5 603c
