models saved/SGDM_ETTh1.pth (torch, 353563 bytes, 15 tensors)

weight_ih_l0 f4 [256, 7]
00000000: bb19 f1bd 8a77 b53c 8fd0 8f3d 9eda 2abd
00000010: 772c d3bc a3d3 f83c 0624 df3c e6f2 f33c
00000020: 93f9 95bd d69d 30bd 6ecb 9dbd 4204 853d
00000030: c8a7 773d 6db8 f63d 4097 cabd 278d 2b3d
00000040: 04a8 183d 4277 e23d a0cc 28bc cddf 98bd
00000050: 8df0 fc3d d7bb 803c 1200 973c e707 e03d
00000060: 20cd 6abd 004e 58bd 2eea 843d 9494 ccbb
00000070: 095d 2bbd 93a3 b4bc 8013 bcbd b7ac b53d
00000080: ccd8 60bd 0b91 01be 9180 023c 1091 ea3d
00000090: 7058 e9bc 371b 00bd 444d 66bc 5e51 183b
000000a0: 8767 873c c99d db3d 4f19 a13d 3278 cdbd
000000b0: 6903 a93c 4e77 bcbd 241c f7bb 7352 b4bd
000000c0: 4e3a ef3d 9224 9cbd 9834 383d 1372 8a3d
000000d0: e644 40bd cbe4 913d be7d a5bd 7d73 afbc
000000e0: dd5d 74bd edab a03d 17f1 09bd c423 42bd
000000f0: da40 383c e35e 853d 6a51 81bd 269d 413d
00000100: e715 1bbc e3a1 093d 82c9 1abd d999 8c3c
00000110: 27fa 413d 6c3d 4ebd 91a6 a93d 6d47 bbbd
00000120: f694 24bc ca90 8fbd 8b96 593d 6157 843c
00000130: 4672 52bd e0e5 a93c 4696 493d 6167 cd3d
00000140: 757f b7bd 46fd a43d 5c14 32bd 74ec 74bc
00000150: 8cff 9f3d 7b76 cfbd 4da0 3ebd 1737 a13d
00000160: a925 c93c 0d45 11bd ad4c 833d 55a8 b9bd
00000170: b1f1 80bd 9fd9 bc3d b3ce 57bd 74ea fe3d
00000180: b03b 29bd 8103 0f3c 7212 2f3d 7864 7f3a
00000190: 772e 46bd 9626 143d 639f 513d 5684 3cbd
000001a0: f491 4c3d b75d 51bc 0721 43bd 2125 0dbd
000001b0: 11f3 ddbc 7504 763d 5b4b 013e a074 653d
000001c0: 9461 07bc 2baf 2b3b 1e09 14bd 95e6 c63c
000001d0: 3c60 e03d 4cca 39bd f61a ddbd d39a d9bd
000001e0: f110 9d3d 9350 0dbd 9135 bebd 2523 9e3d
000001f0: 0de7 903d 7a96 06bc ba10 953d 66da d83d
00000200: fbc9 d53d b112 b7bd 75c7 6b3d 39d0 c4bd
00000210: c021 5bbd 4dcc 74bc 592a 7abc 4a5d 9abd
00000220: 6980 c93d 8adc 3abd 71d1 d33d 1109 4abd
00000230: ab12 993d 91a4 593b 7601 e6bd 4a2c 4e3d
00000240: 9bcf 7d3d 2f84 853d e01c 193d b9ce eb3d
00000250: b5ae c93b 1cd2 18bd 87c0 8e3c 3317 a63c
00000260: 5fb3 c83d 4ce0 b5bd 928b ab3b 7b9c 41bd
00000270: b001 a6bd 06ea 8a3c bc8b 87bc 3d0b 0e3e
00000280: baa7 cbbd 8a40 e43c 2e9f 943d aeab c1bc
00000290: bfaf 813b 0079 adbd 2e36 073c ce14 ae3c
000002a0: ecef b3bd 2d8e c9bd 1cfa 863d 7e72 023d
000002b0: f30c 37bd e6b1 f33d 9cbe fe3d eb9d ad3c
000002c0: 6487 cbbd bbc1 ea3d b332 853d 02db a83d
000002d0: b22b bfbd bb46 bbbc 409f d53c fc44 36bd
000002e0: 318f a83d 2d63 39bd dd16 dcbd 8630 ba3d
000002f0: 99b0 f93c 0e9c bc3d 643f 94bc 1b2c f6bd
00000300: 9514 6e3d b64a 83bc 4756 3f3d db93 9dbc
00000310: defc 9dbd d1b1 bebd f6f5 f33d 72a1 dabd
00000320: d600 3fbd b737 d93d e23d 4cbd d37b 793c
00000330: 6c6d c8bb 8edf 69bd f57a ae3d 9e18 c03d
00000340: 4a9d bc3d 0fa3 51ba a9e9 97bd 2b1f 8dbd
00000350: ec32 a7bd c688 80bd 8849 733d 08ab 0f3d
00000360: a03a 00be b8bf 6e3d 8dd5 3cbd 6d82 abbd
00000370: 11fe 3c3d fc20 dc3d 80d2 27bd cc2d b53d
00000380: 9c14 a13c 968a 983d cef7 d83c 392e f23d
00000390: 04df 59bc 2f8e 903b aa7e f1bd 3971 f43d
000003a0: b2cf be3d 87c3 a0bd 6a38 a3bd cd83 68bd
000003b0: ef66 b23d d952 cf3d 092f 8dbd 5352 e83d
000003c0: ab69 60bd 9374 7c3d c0c2 37bc 09c5 f33d
000003d0: 3491 853b 5833 123c e4e8 cbbc 852a f33d
000003e0: 67cf c63d 3e7a d4bd d4e0 3bbd adff adbd
000003f0: ccf7 90bd c584 8fbc 1b49 b83c f67a 023d
-0.11772486 0.022151727 0.07022201 -0.041712396 -0.025778038 0.030374354 0.027238857 0.029778909
-0.07322993 -0.043119274 -0.07704817 0.06494953 0.060462743 0.12046895 -0.0989213 0.04188266
0.037269607 0.11057903 -0.010302693 -0.074645616 0.12350569 0.015714569 0.01843265 0.10939007
-0.05732453 -0.05280876 0.06489979 -0.006243298 -0.041836772 -0.022050655 -0.09183407 0.08870833
-0.054894254 -0.12652986 0.007965223 0.1145345 -0.028484553 -0.031275954 -0.0140565075 0.0023241858
0.016528858 0.107234545 0.07866155 -0.10032691 0.020631509 -0.09202443 -0.0075411964 -0.088047884
0.116810426 -0.07624163 0.044972032 0.06760039 -0.046940707 0.07123717 -0.08080624 -0.021417374
-0.059659828 0.07845292 -0.033677187 -0.04739739 0.011245931 0.06512239 -0.063143566 0.04726901
-0.009465671 0.033601653 -0.03778983 0.017163204 0.047357704 -0.050351545 0.08283723 -0.09144483
-0.010045281 -0.07010038 0.053122085 0.016154947 -0.05137851 0.020739496 0.049215578 0.100294836
-0.089598574 0.080561206 -0.043476447 -0.014948953 0.078124136 -0.1013002 -0.046539593 0.07871836
0.02455409 -0.035466243 0.06411109 -0.0906531 -0.06296099 0.092211954 -0.052687358 0.12447062
-0.041316688 0.008728863 0.0427422 0.0009742449 -0.048384156 0.03616961 0.051177394 -0.046024643
0.04994388 -0.012778691 -0.04763892 -0.034459237 -0.027093442 0.060062844 0.12626402 0.056019425
-0.0082630105 0.0026196938 -0.036141507 0.024279872 0.10955855 -0.04535894 -0.10796158 -0.106252335
0.07669247 -0.03450067 -0.09287561 0.07721547 0.070753194 -0.008214587 0.07278581 0.10588531
0.10438915 -0.08939112 0.057563264 -0.09610028 -0.053498983 -0.014941287 -0.0152688855 -0.07537325
0.098389454 -0.04562048 0.10342682 -0.049325053 0.07474264 0.0033209661 -0.112307474 0.050335206
0.061965566 0.06519353 0.037381053 0.115140386 0.00615486 -0.03730975 0.017425789 0.020274734
0.09799837 -0.08880672 0.005235144 -0.047268372 -0.081057906 0.016957294 -0.016546123 0.13871475
-0.09944101 0.027862806 0.072569236 -0.023641434 0.003957718 -0.084703445 0.008252664 0.021250155
-0.08785996 -0.09841571 0.06590673 0.03184747 -0.044690084 0.11899166 0.124386996 0.021193465
-0.09937933 0.114627324 0.06503811 0.082448974 -0.09334506 -0.022860875 0.026076913 -0.044499382
0.082304366 -0.045260597 -0.10746548 0.09091286 0.030479716 0.092094526 -0.018096633 -0.12020131
0.058125097 -0.016026836 0.04671314 -0.019235542 -0.07714246 -0.093112595 0.11912148 -0.106753245
-0.046631657 0.1060633 -0.049863704 0.015227276 -0.0061165597 -0.057097964 0.08519546 0.09379695
0.09209688 -0.0007997015 -0.07417614 -0.068907104 -0.081640095 -0.062760875 0.059396297 0.035075217
-0.12522364 0.058288306 -0.046102095 -0.08374486 0.046140734 0.10748479 -0.040972233 0.08846626
0.019663148 0.07448308 0.02648535 0.118252225 -0.0132978 0.004411481 -0.117917374 0.11935658
0.093169585 -0.07849794 -0.079697445 -0.05676632 0.08711039 0.10123224 -0.06893737 0.11343827
-0.054788273 0.06163461 -0.011215866 0.11902816 0.0040761475 0.008923374 -0.024891324 0.11873344
0.097075276 -0.10374878 -0.04586871 -0.08496032 -0.070785135 -0.017519364 0.022495797 0.031855546

weight_hh_l0 f4 [256, 64]
00000000: cac4 b9bd b4ae 8dbd 97ed 083d e5cc 7e3d
00000010: 1cf2 a9bd 8bff 673d adca cebd 2953 46bd
00000020: 722b af3d 12f2 d03c fcb4 2b3d 3dba cdbd
00000030: ed5e ad3d d351 583d e7fa a43d 3e77 e23d
00000040: 9bc0 bc3d b575 4f3d 112a bfbd 3aa7 00bd
00000050: 3276 8b3c ec08 ea3c 9dee dd3d cb2b 8d3d
00000060: 79a4 27bb 76b9 f5bd c50b b43d 3650 183d
00000070: b407 6c3b 52e5 e9bb b7e8 eb3d 3632 b8bd
00000080: 274c b13d 5cec 8c3d aaa4 973d 6f23 99bd
00000090: be5e a5bc aaf4 283d aae3 b33d 30bc bcbd
000000a0: 482c 9bbd a124 92bd df3d 8f3d 222c dcbd
000000b0: 5d20 ed3d 9424 d83d 4a21 d9bd b670 5bbd
000000c0: 773d 74bd 011b abbd 9e69 25bd e991 363d
000000d0: da4a 9ebd 8d10 433d 2e4c 803d 9bf8 ef3c
000000e0: 56d3 d7bd b801 6e3d 5f7f c73d da59 b63d
000000f0: a09b 6e3d 8036 f4bd 1d73 383d 634d e1bd
00000100: 51b4 13bc f6db 93bd eff4 9dbd c283 603d
00000110: a917 a4bd 09f3 97bd 65aa d53c d14d 2ebd
00000120: 1973 f2bc 97ba eb3d bf74 9ebd 5d55 bcbd
00000130: fbca 9a3d 1341 51bc dc04 d3bd 4e40 4b3d
00000140: 52e6 be3d 95c7 293d 8f9f a83d 7d1b cb3c
00000150: 7d00 983d a6af bebc f574 a63d 91f9 d3bd
00000160: 898b fb3c aba9 f33d 156b 5c3d e8c6 0fbd
00000170: 0267 d63d 2ca6 c5bb 8eda 883d 1b3d 12bc
00000180: c5e3 6cbd 22aa f3bd 9f24 923c 9552 1cbd
00000190: a632 df3d e5c6 f23c bf62 803d e80b c73d
000001a0: d7cc b6bd 79d3 85bd dc14 51bd 8fbc 17bd
000001b0: a76d a3bd 3ebe a13c 7eef 8fbd 87eb 363d
000001c0: c547 dd3d fdc1 a4bc a245 1dbd 0e52 383d
000001d0: 41ed 8a3c 4b26 08bd 1b26 38bd c64e 1fbd
000001e0: 89ce c8bd 878e 0a3d d02f af3c e266 98bd
000001f0: 495a ca3c ae00 0739 8611 babc 69d0 f5bd
00000200: 6f2b babd 8a9e 2abd 1c5a e23d 4222 73bd
00000210: af0a 5d3d 7e9a cb3d 7126 fe3d 6438 7f3d
00000220: fc02 443d 2a81 953d 4648 23bd 23f5 593b
00000230: 8980 5fbd 5546 c63d ab35 debd 7da8 febc
00000240: d324 acbd ff1d a33d ba15 ab3d 5da3 6ebd
00000250: c9b2 f83c 807b 9c3c ec53 dbbd dfa2 44bb
00000260: b5d0 b33d cbcb 87bd 1e81 a9bd 2733 cf3d
00000270: f22d 96bd 07f3 c5bc 736a 60bd 62ee 20bd
00000280: 4b74 ae3d f315 88bd 0e6a b4bc ab05 0bbd
00000290: 3a8f a3bd 35ee c53d 84d0 9dbc 96d6 a43d
000002a0: 1596 d03d 9337 a83c 80bd 6ebd 8a5a 113d
000002b0: 486f 903d 6f54 bc3b eee5 4cbd 20c3 b3bd
000002c0: 763f 913d f664 393d 841f aebc 6367 bcbd
000002d0: f467 53bd 1495 8d3d 808d f7bd 222c 5ebd
000002e0: 0bf4 d0bc 4981 c13d 56ef 133d 3f75 ee3c
000002f0: 711a 8a3d d9dc 99bd a278 0f3b 35fe 9a3d
00000300: ba5a 78bc fa2a 413d 58f0 e6bd f6ce cbbd
00000310: 0294 69bd e467 96bd 815c 68bc a857 db3d
00000320: 960b 503d 3d71 c5bd 7213 dd3d 6801 32bd
00000330: 033b 723d 1ea2 02be 2891 6bbd b384 f8bb
00000340: 79ae 4ebd 1b72 613d 5914 33bd 9314 5d3d
00000350: 3272 b7bc a7fd 03bd 7a92 22bd 75a7 89bd
00000360: d6f0 ab3b 7d31 18bd 80de fb3d 6032 c1bd
00000370: db84 a0bd 1fe9 e83d 53e0 e23d cdf2 553c
00000380: bc1c 913d c2e4 47bd b982 c63d d0f7 193b
00000390: 1199 e9bd 1518 dc3d 38f4 153d 3d5c f4bd
000003a0: 0555 cc3c a2f3 f53c 3720 5a3d dbae eb3c
000003b0: 78ea 743c 9d37 7c3d ced6 d6bd a3a4 d03d
000003c0: 95d2 c8bd 8924 ab3d 4405 2d3d 2a6e 10bd
000003d0: 145c 39bd d84b e4bd 548f 64bd 5610 e13d
000003e0: 4a60 813d 3768 a9bd d730 9c3d 1971 833d
000003f0: 2ce0 04bd a13d e8bd 9941 eabc b0c6 75bd
-0.09070738 -0.069180876 0.03342971 0.06220712 -0.08298132 0.05664019 -0.10097251 -0.04841915
0.085532084 0.025506053 0.041920647 -0.10045288 0.08465371 0.05281241 0.08055668 0.110579
0.09216424 0.050649364 -0.093341954 -0.03140948 0.017024133 0.028568707 0.108365275 0.068931185
-0.002558021 -0.119982645 0.08791307 0.03718587 0.0036015334 -0.007137933 0.11518996 -0.08993952
0.08657103 0.068810195 0.07404454 -0.074774615 -0.020186778 0.041248955 0.08783658 -0.092155814
-0.07576805 -0.07135893 0.06994223 -0.10750605 0.115784384 0.10553852 -0.106020525 -0.053574286
-0.05962893 -0.0835476 -0.040383928 0.044572745 -0.077291206 0.047623206 0.0626453 0.029293349
-0.10538356 0.058107108 0.09741091 0.089038566 0.058253884 -0.119244576 0.045031656 -0.110010885
-0.009015159 -0.072196886 -0.07712733 0.054813154 -0.08012325 -0.07419402 0.026082227 -0.04255468
-0.029595898 0.115101986 -0.07737111 -0.09195969 0.07558247 -0.012771863 -0.10303661 0.049621873
0.09321274 0.041450102 0.082335584 0.02479338 0.07421968 -0.023277115 0.081277765 -0.103503354
0.030706184 0.11897596 0.05381306 -0.0351018 0.10468866 -0.006031772 0.06682311 -0.0089257015
-0.057834405 -0.11897685 0.017839728 -0.038164694 0.10898332 0.029635856 0.06268834 0.09719068
-0.08925789 -0.06534476 -0.051045284 -0.037045058 -0.07979899 0.019744035 -0.070281014 0.04465821
0.108047046 -0.020112032 -0.038396485 0.04500013 0.016958835 -0.033239644 -0.044958215 -0.038893484
-0.098050185 0.03382733 0.021385103 -0.07441498 0.024701254 0.00012874856 -0.022713434 -0.12002642
-0.090903156 -0.0416551 0.11052343 -0.059358843 0.053965267 0.099415764 0.12409676 0.062309638
0.04785441 0.07300027 -0.039863847 0.0033257685 -0.05456594 0.096813835 -0.1085008 -0.0310862
-0.08405461 0.07964706 0.083537534 -0.058261264 0.030358689 0.019101858 -0.10709366 -0.0030004305
0.08780042 -0.06630667 -0.0827658 0.101171784 -0.07332982 -0.024163736 -0.054789018 -0.03928984
0.08518275 -0.066448115 -0.022023227 -0.033940952 -0.07986303 0.09664575 -0.019264467 0.080487415
0.10184876 0.020534312 -0.05828619 0.035486735 0.07052475 0.00574737 -0.050023966 -0.087774515
0.07092182 0.0452623 -0.021255262 -0.09199407 -0.05161281 0.069132 -0.12087536 -0.054241307
-0.025506994 0.09448487 0.03611692 0.029108642 0.067433245 -0.075128265 0.002189197 0.075680174
-0.01515835 0.047160126 -0.11276311 -0.09951584 -0.057025917 -0.07344034 -0.014182211 0.107100785
0.0507923 -0.09640739 0.107947245 -0.043458372 0.05913831 -0.12757155 -0.05751148 -0.0075841784
-0.05045936 0.05504046 -0.043720577 0.0539747 -0.02239332 -0.032224324 -0.039690472 -0.06721393
0.0052472157 -0.03715657 0.12298298 -0.094334364 -0.0783784 0.11372589 0.11077943 0.0130583765
0.07085559 -0.048802145 0.09692902 0.0023493655 -0.11406148 0.10746781 0.03660986 -0.119316556
0.024942884 0.0300234 0.05325338 0.028769901 0.01494848 0.061576474 -0.104901895 0.10187652
-0.0980579 0.08356578 0.04224135 -0.03526131 -0.04525383 -0.111472785 -0.05580075 0.10989444
0.06317194 -0.082718305 0.07626503 0.06418056 -0.03244035 -0.1133988 -0.028595733 -0.060003936

bias_ih_l0 f4 [256]
00000000: a700 4d3d 489f a73d 4f9c 24bd c1ad 983d
00000010: fef5 163d 5fcc a3bb 1877 f63d 52af a43d
00000020: dae4 66bb 23d5 953d debc 5dbb b95f 47bd
00000030: 5dcc 413d 3136 dc3d 77e8 cdbd acf2 b03d
00000040: 53b3 953d f647 aa3d d446 8dbd cb6a 923d
00000050: dc39 bfbd c2aa 393d dd5a c53b 5589 aabd
00000060: 7bff d23d dee9 993d a52c ec3d ada0 a63d
00000070: 55f3 043e 37ad efbd ed0a 903d 1d2c c33d
00000080: 3ae4 f4bb f5ab d4bd 4934 603c 9d17 d9bd
00000090: 0033 3d3d 10bb f8bb 9df2 063e 749e 6f3d
000000a0: ddbb cdbd 3325 9abc f2d5 163e 0396 693d
000000b0: 87d5 39bc 6316 403d c426 c63c 0cd4 9c3c
000000c0: 9513 f73d ae67 003e 5586 e9bc ef12 8b3d
000000d0: bdd8 1fbd 7cd5 e4bc 5a86 963d c44b d5bc
000000e0: b77e b03d ac2e 403d b1cc debb 0617 84bd
000000f0: 7481 a63d bf2a 2a3d aa60 2f3d 243d 9abd
00000100: b92d b2bd 920f c13d 355f e0bc dff5 f83d
00000110: c7aa 7dbd 3f15 adbd 1ef5 03bd 54e1 2bbd
00000120: 7e3a e33d 456c b83d eb26 d2bd 26a9 173d
00000130: c0ee c8bd 67bd b4bd b9fd 6bbd e1b6 dcbd
00000140: 1845 b03d 5b7d 273d 496a bcbd f54c dfbd
00000150: d75f e33d 09a3 893d 7a62 a7bc 9a04 73bd
00000160: b0b4 cb3d 2a7b 17bd ac8d 03be 1773 c3bd
00000170: 1ce2 d93d 253c 56bc 77bc 0ebd dc90 14bc
00000180: bce9 9e3d 2da3 cbbd ccf9 5bbc 1662 c33c
00000190: 47db f9bc afd9 013d f398 12bb 232d bc3d
000001a0: 3ba6 9fbd 1286 9f3d 258d 97bd 87c2 113d
000001b0: 3c33 fbbc 1fb7 a6bd f77a 933d 6805 d9bc
000001c0: 60c3 973d 3b36 8bbd 8afe 863d f646 173c
000001d0: b8b1 dbba 7f3f b43c ea32 bb3b 2472 aabd
000001e0: 678f 853b e15d 423d ca23 0e3d 046c 2cbd
000001f0: 573f 9abd f5e3 a13c 175d ebbb 7347 c4bd
00000200: 33cd babd 1b91 a6bd b3ef 3f3d fd8d 273c
00000210: c24b 8c3d 4f78 993d c5b1 8c3d 641c 8a3a
00000220: d2c0 07be db4c 4abd b9bc a73c cde0 36bd
00000230: f084 b23b efdb 22bc e8fb ae3d b523 92bc
00000240: 0a90 8dbd a059 10bd 735c 9fbd 98f3 c1bc
00000250: 29c5 8c3d 5249 6abd a478 04be a3c0 81bd
00000260: fb71 85ba eff5 bfbd b0b9 a0bd 9ee5 2abd
00000270: 9508 a23d ca0b dabd fcc2 32bd 80fa aebc
00000280: 664c c4bd 8b05 80bd 93a7 f8bd c525 053e
00000290: e921 e33d 7e38 ccbc 7388 2a3c c1d2 8ebc
000002a0: c139 aa3d c611 cfbd 8acc 71bd 3644 253b
000002b0: 4933 cdbc 7aef 82bd c236 4b3c 5943 77bb
000002c0: c049 563c a071 3c3d 65ca 5d3d 6048 b0bd
000002d0: 5792 49bb ecdf 123c b320 77bd 1359 823b
000002e0: 4676 0cbc bb2f 713d 4450 d63d f1c5 83bd
000002f0: 0f8b babd 1fe5 1b3d 4c0c 573d eea0 afbd
00000300: 7079 873d 6942 b0bc 7b5e d03d 29ef 893d
00000310: 2414 bdbd 9633 66bd b8c3 c4bd c950 103e
00000320: 8466 95bd dc71 54bd e9d2 f43d a205 bf3d
00000330: c48b 7fbd b2e4 5fbc bf1d 973d b646 16bc
00000340: 1a10 e33c 3578 88bd 0655 c63d 59c1 f8bc
00000350: b102 c8bd 312d 183c 16f6 10bd 565f f43d
00000360: d8dd 63bd ba88 a43c 02da 943d 853c 023e
00000370: 4e1f 8c3d e9a0 0a3d e932 5839 73d1 ccbd
00000380: c582 ebbd abe8 9cbd 1e56 f63d 6ad1 a7bd
00000390: 32ae 8e3d cde9 8e3d 4a1b 5ebb 65f4 c9bd
000003a0: 189f f63d 6ca4 3a3d ca1e 313e ad48 93bd
000003b0: 2777 e73d 5903 53bc 88f3 b6bd 1745 c9bd
000003c0: 2cdb 073e 48b9 0b3c 5669 05bd 727c a3bc
000003d0: 1abe 5fbd 11ed a6bd 492e 0cbd 5326 4a3d
000003e0: 82a2 a1bd a371 ba3d 07a9 f13d 7a8e 93bb
000003f0: 7cb7 df3d 3755 53bd 4f9d 48bd 9d90 adbd
0.05004945 0.08184677 -0.04018813 0.07455016 0.03685569 -0.004998728 0.12034434 0.08041252
-0.003523162 0.07316043 -0.0033834497 -0.048675273 0.047314037 0.10752524 -0.10054105 0.08640036
0.07309594 0.08314507 -0.06898275 0.071492754 -0.09337208 0.045328863 0.0060227946 -0.08326975
0.10302635 0.0751531 0.11531953 0.08136115 0.12983449 -0.1170296 0.07033334 0.09529898
-0.007473496 -0.10384361 0.013684341 -0.10600207 0.046191216 -0.007590659 0.13178487 0.058500722
-0.10045598 -0.018816566 0.14730051 0.057027828 -0.011342413 0.04689635 0.024188407 0.01914408
0.12064282 0.1253955 -0.028506437 0.06790721 -0.039025057 -0.027933829 0.07349844 -0.026037104
0.08617919 0.04691951 -0.0067993035 -0.06449704 0.0813016 0.041544672 0.042816795 -0.07531193
-0.08700127 0.09426798 -0.027389148 0.12156271 -0.061930444 -0.08451318 -0.032216184 -0.041962937
0.11095141 0.09005026 -0.10261329 0.037026547 -0.09811163 -0.08825188 -0.057615016 -0.10777069
0.086069286 0.040891033 -0.0919996 -0.1090335 0.111022644 0.067205496 -0.0204327 -0.05933056
0.09946573 -0.036982693 -0.12847012 -0.09543436 0.1063883 -0.013075863 -0.034847703 -0.00906774
0.07759425 -0.09943233 -0.013426255 0.023850482 -0.030500067 0.03170174 -0.0022368997 0.09188297
-0.07795378 0.07789244 -0.07399968 0.035585906 -0.030664079 -0.08140396 0.07201188 -0.026491836
0.07410312 -0.06797453 0.06591518 0.009233227 -0.0016761338 0.022002934 0.0057128565 -0.08322552
0.004075933 0.04745281 0.0347021 -0.0420952 -0.07531612 0.019762019 -0.007182728 -0.0958394
-0.0912117 -0.081331454 0.046859454 0.010226724 0.06850387 0.0749365 0.06869844 0.0010537026
-0.13257149 -0.0493897 0.020475732 -0.04464798 0.0054479763 -0.009940132 0.08544141 -0.017839292
-0.06912239 -0.035241723 -0.07781305 -0.023675725 0.06873543 -0.05719883 -0.12936646 -0.06335571
-0.0010181064 -0.0937308 -0.07847917 -0.041722886 0.07911793 -0.1064678 -0.043642983 -0.021359682
-0.09584884 -0.06251057 -0.12141337 0.13002689 0.11090452 -0.024929281 0.010408509 -0.01743448
0.08311797 -0.10110812 -0.059032954 0.002521766 -0.025048869 -0.06393333 0.012403192 -0.0037729351
0.013079107 0.0460068 0.054148097 -0.086075544 -0.0030757391 0.00896452 -0.06033392 0.0039779036
-0.00857312 0.05888341 0.10464528 -0.06434239 -0.091085546 0.038060304 0.05250196 -0.08575617
0.06614959 -0.021516042 0.10174271 0.06735069 -0.09232357 -0.05620154 -0.09607643 0.14093317
-0.07294944 -0.051866397 0.119542904 0.09327246 -0.06238915 -0.013665365 0.073787205 -0.009172132
0.027717639 -0.06663553 0.09684186 -0.030365633 -0.09766138 0.009288118 -0.035390936 0.119322464
-0.05563149 0.020084728 0.07268144 0.12718399 0.068419084 0.033844862 0.00020618331 -0.10000887
-0.11499552 -0.076615654 0.12028144 -0.081942394 0.06966819 0.06978188 -0.0033890777 -0.09861068
0.120420635 0.04556696 0.17296901 -0.07191596 0.113020234 -0.012879216 -0.08933169 -0.09827631
0.13267201 0.008528061 -0.03257116 -0.019956801 -0.054624654 -0.081506856 -0.03422383 0.049352955
-0.07892324 0.09103706 0.117998175 -0.0045030685 0.10923669 -0.05159494 -0.048978146 -0.084748484

bias_hh_l0 f4 [256]
00000000: 2e82 fbbd e424 a9bd 557b d5bd 63a4 b6bc
00000010: 8d63 ecbd 96bd 67bd b2a0 8abd 6029 8bbd
00000020: a454 d83b ff5e b03d dac9 683d 9abb d2bd
00000030: 3594 b83d 5511 d73d 2334 bcbd 2092 acbd
00000040: 4224 edbc aac1 85bd 2c41 943d 09dd 92bc
00000050: 7ad1 c43d e078 e5bd c5fa bf3d d93b 40bd
00000060: d513 75bd 4903 febc e147 f63d 8f2a 8fbd
00000070: 5182 d43d 8dab aebd d5b7 cbbc 3753 22bd
00000080: 6366 48bb 2f4d e43d fb82 b53d 0dd6 fb3d
00000090: dcd5 893b 0fbb 55bc ca86 053e 313d 983d
000000a0: cfea 7fbd 0758 af3d be56 033e a9ae adbd
000000b0: a781 41bc 6d5d 00bd 722e c03b d134 c7bd
000000c0: 4d15 f93d fd59 f1bd d148 eabb 8524 f73d
000000d0: 7411 00be 5cba 893d 8a71 c13c d879 20bc
000000e0: 4956 ce3d 4a67 6e3c 51c8 e23d acb6 b6bd
000000f0: 7ccb e9bc bf81 75bd 0eb5 f13d dc35 e4bd
00000100: 6c75 ab3c 3408 833d 741c 023e b820 99bb
00000110: 9c3e 833d 22a4 8f3d 98d6 fbbd 2139 fabd
00000120: 46a3 ba3d ec9a f53c f2ba cbbc a148 e8bd
00000130: ebe9 783d 11e2 953d 2357 213d dbe3 a5bd
00000140: 3023 d3bc 8a5f 7fbc 51f8 55bd 8476 733d
00000150: 44ea 89bd 6fa1 dc3d ee3c 95bc 4640 8dbd
00000160: 7dd9 4fbd 1122 ccbc cabd 89bc c166 de3d
00000170: a01b 893d 4cf9 3fbd 69cc 05bd 9e6c d03d
00000180: 6edb ef3d 4b90 da3d e5ca e33c 7fc9 3a3d
00000190: ecf3 d0bd 9755 f23d dbc4 d2bd 3c5a 92bc
000001a0: 10c9 8abc 07d8 693d f365 4e3d 4b09 d53d
000001b0: 9f82 c53d fffd de3c c789 7fbd 19ce 003e
000001c0: c8d2 b73d 47c6 9dbc 3d70 17bd 1893 a23d
000001d0: 8ff8 bebd dc27 c9bd f656 19bd a013 853d
000001e0: ac6f d93d 1bd2 c3bc 9afa e9bd 00a1 6bbd
000001f0: a38a e83d 52f8 fcbd fdc2 a4bd f463 59bd
00000200: 878b dcbd 2a20 383d 2e41 a4bd 2458 a1bb
00000210: a94b a8bd 310f 0abe 98df b6bd fed3 433d
00000220: 2662 de3c 5929 65bb 6772 363d abb1 4bbc
00000230: 0083 543d ea36 6e3c e85e 823d a06f 23be
00000240: bfa4 223d ef95 bc3d 6d01 d7bd 6ecb 0e3c
00000250: 259a 98bd f38f e03d 6253 df3c 5562 6fbc
00000260: f239 7b39 05e6 c0bd 6c4a 07be c599 41bd
00000270: a4fe 72bd 608b 3d3d 05d9 d9bc 0909 e13c
00000280: 3001 7a3d 122a 2a3d eb53 6e3d 41a8 493d
00000290: eb62 04bc b650 6ebd c24c d3bc d588 bf3a
000002a0: 1f57 16bd 8e04 8e3d 699d 85bc 670a 733b
000002b0: 297d 0fbc a249 1bbb 0afb c6bc 3729 73bb
000002c0: 9888 503d 4ec8 96bd c1b0 b23c 97af 01bd
000002d0: ba68 b5bd f460 3a3d 5739 a1bd 955a a6bc
000002e0: ae79 ff3d 872a 743d b73d 193d 6b2e dfbc
000002f0: f256 1a3e 62bb 163d a420 06be ec69 b13d
00000300: 7e1e cebd 71b7 d1bd abb1 bcbd 193e c2bc
00000310: 826c 88bb cd69 033e b542 073e 5ca4 bcbc
00000320: 9b4f 1dbd 3b41 4dbb 55b9 9abd deaf dabd
00000330: 1753 14bd 3e36 e43d 3c63 acbd 5cc3 13bd
00000340: 9c15 883d 83c3 f43d 5d07 90bc accd 96bd
00000350: 2724 b5bd fdf6 293d 0f20 c63d 2a16 df3c
00000360: 4c32 d63d f09e 1cbd d00f 30bc 2c9b e93d
00000370: 5b76 cf3d 865a edbc 46f7 4d3d 2710 033e
00000380: f930 d63d dae9 7e3d 0e24 96bd d655 ae3d
00000390: 8acb 91bd d266 573c 6132 bcbc 16f5 3a3d
000003a0: d8e2 ad3d a1a0 fb3c 8089 1cbd 5145 f83d
000003b0: cc14 783d 1282 873d 6e81 dd3d cb6f a0bd
000003c0: b603 c6bd dd0e 6fbd fe36 4d3d cba1 55bd
000003d0: fb6f 85bc 8b94 bcbc 9215 b23d 4dc1 0bbd
000003e0: 9290 9b3d ed52 8abc e725 62bd 2899 213d
000003f0: 0aac febb cee6 ad3d 2823 d93d 6b02 85bd
-0.12280689 -0.082589895 -0.10423914 -0.022295183 -0.11542425 -0.056577288 -0.067689314 -0.06795001
0.006601887 0.08611869 0.056833126 -0.102896884 0.09012643 0.10501353 -0.09189632 -0.08426309
-0.028947953 -0.06531079 0.07238993 -0.017927663 0.09610267 -0.11204696 0.09374002 -0.046932075
-0.059833366 -0.031007426 0.120254286 -0.06990539 0.103764184 -0.085288145 -0.024867931 -0.03963014
-0.0030578605 0.11147534 0.08862873 0.12296686 0.004206402 -0.0130450865 0.13039699 0.07433546
-0.06247979 0.08561712 0.12826058 -0.084805794 -0.011810697 -0.031339098 0.0058649117 -0.09726871
0.12162266 -0.11784742 -0.0071497937 0.120675124 -0.12506658 0.06724998 0.02361371 -0.009794675
0.10075051 0.014550993 0.110733636 -0.08921561 -0.028539412 -0.05993819 0.118021116 -0.11143085
0.020930015 0.06398049 0.12706167 -0.00467309 0.06408426 0.07013728 -0.1229679 -0.12217928
0.09113173 0.0299811 -0.024869416 -0.11341978 0.060769957 0.07318509 0.03938974 -0.081001006
-0.025773615 -0.015586743 -0.052238766 0.059439197 -0.06734136 0.107729785 -0.01821753 -0.06897025
-0.050744522 -0.024918588 -0.016814131 0.108594425 0.06694722 -0.046868607 -0.032665644 0.10176967
0.11711775 0.10672053 0.027806709 0.045602318 -0.102027744 0.11832731 -0.102914535 -0.017865293
-0.016941577 0.057090785 0.050390195 0.10402163 0.096440546 0.027220724 -0.062387254 0.1257862
0.0897575 -0.019259585 -0.036972273 0.07938212 -0.093247525 -0.09822056 -0.037436448 0.06497884
0.10617003 -0.023903897 -0.114247516 -0.05752659 0.11354568 -0.12352051 -0.080450036 -0.05307384
-0.107688 0.04495255 -0.080202445 -0.0049238373 -0.08217556 -0.13482358 -0.08929366 0.047809593
0.02714641 -0.0034967272 0.044542696 -0.012432496 0.051882744 0.01453946 0.06365758 -0.1596055
0.039707895 0.09208285 -0.10498319 0.008715494 -0.07451276 0.10964956 0.02726144 -0.0146108465
0.00023958812 -0.09418873 -0.13211983 -0.047265787 -0.059324875 0.046275496 -0.02659274 0.027470129
0.06103629 0.041544028 0.0581855 0.049232725 -0.0080802245 -0.05818244 -0.025793437 0.0014612923
-0.03670418 0.069344625 -0.01631041 0.0037085058 -0.008757868 -0.0023695012 -0.024289627 -0.0037103423
0.050911516 -0.07362424 0.021812798 -0.031661596 -0.08857866 0.045502618 -0.07872265 -0.020306865
0.124743804 0.05961087 0.03741237 -0.027243813 0.1507223 0.036799796 -0.13098389 0.08662781
-0.1006441 -0.10240067 -0.09213575 -0.023711251 -0.0041633258 0.12833329 0.1320904 -0.023027591
-0.038405996 -0.0031319398 -0.075548805 -0.10678075 -0.036212053 0.111431584 -0.08417365 -0.03607498
0.06644747 0.119513534 -0.017581636 -0.073634475 -0.08844786 0.041495312 0.096740834 0.027232248
0.10458812 -0.038237512 -0.0107459575 0.1140655 0.101299964 -0.028973829 0.050284646 0.1279913
0.104585595 0.062234737 -0.07331096 0.08512466 -0.071189 0.013147073 -0.022973241 0.04564389
0.08490533 0.030716242 -0.038217068 0.12122596 0.06056671 0.06616606 0.108157024 -0.07833823
-0.096686766 -0.058363784 0.050101273 -0.05215625 -0.016288748 -0.02302005 0.086955205 -0.034119893
0.07595934 -0.016885245 -0.055211928 0.0394527 -0.0077719735 0.08491288 0.10602409 -0.06494602

weight_ih_l1 f4 [256, 64]
00000000: 190e aebd 0ad5 07bd ed86 84bc 9f75 79bd
00000010: 7510 40bc de48 92bb 3fdf c73d 6576 e53d
00000020: e25c f7bd 7ce9 4a3c d2f1 a8bd 8673 893d
00000030: 456e ac3d a771 1fbd ae8e d03d cffd 81bd
00000040: 0617 523d f2af adbd 0902 0d3d d042 bdbc
00000050: b6d0 283d 8a44 d53b 6bb6 823d cc65 aebd
00000060: c7fa 23bb af00 223d b97c f73d f40f 82bd
00000070: e9ce 94bd 66a0 603d 60a1 883d 58f3 623d
00000080: 498e 2f3b cb44 dd3d 1f02 33bc 9add 3d3d
00000090: 9dc4 943c d91e 903b 45dd 4cbd 7fd4 bebc
000000a0: 9f8b 2b3d 0930 3d3c ff28 fc3d d743 b43d
000000b0: 43d7 3abc 381d 89bb eaf6 aebd c8e8 d63d
000000c0: 379f a33d 9055 ac3d b95d 313d ebd5 783c
000000d0: e2a9 b6bc d62f ebbd 24cc ac3b 945b fb3d
000000e0: a9a9 d5bc c43a 033d 3e57 313c 71e3 c13c
000000f0: 9846 a9bd 8e28 aa3b e876 20bd a8bb b23d
00000100: dadb ec3c eaff 8dbd f283 8a3d 1774 adbd
00000110: 3d1c f93c c994 f83d f34a fc3c 8eab 8abb
00000120: aa25 cc3c ba64 33bc fd77 ac3d 87b6 c0bd
00000130: a648 bfbd 937c c73d fbeb 8bbd acfe 28bd
00000140: 1462 13bd 4981 a93d 7c63 f83d cbb2 9cbd
00000150: 6a2e 82bd ac35 ae3d e8a6 603d ffde fabd
00000160: 16d6 31bd 7d9a be3d 7902 c3bd c40b c73c
00000170: d67b b7bc 4618 f0bd 6834 f5bd ff08 7cbd
00000180: 1656 eb3c 3f16 993a 64cc 873d 4b6c f0bd
00000190: eb9a 08bc eb81 efbd a546 cb3d d3a9 b13d
000001a0: 7d3f 97ba b3a4 86bd 2c04 e73d 5114 8c3d
000001b0: 7801 01bd 6d0b aa3d 68e9 d53d d4e8 c63b
000001c0: 737c 113d 721c 243d b9fa e4bd 08ff 7abc
000001d0: 3835 f83d 05fe 9fbc c98f 36bc bbc3 8bbc
000001e0: c2e5 79bd 40e3 ec3d 7528 6fbc d258 2cbc
000001f0: d90b d03d 4663 b83c a112 023d 3d40 dcbd
00000200: 5901 98bd ff74 bbbc b27d 56bc 1c5f cebd
00000210: 0d8d 863d a1b5 db3d 8785 aa3d 611e 403d
00000220: 3c16 413d 9d62 263d 04ac 91bd abe4 89bd
00000230: ab74 933d cd34 7ebd 260c 83bd 2809 713c
00000240: 749e 4d3d 52fc a13d c817 403d b20b 34bc
00000250: 56eb cd3d 4f9c a13b 3535 e2bd 6630 46bd
00000260: ac12 80bd 775c aa3d e585 fcbc b0dc 28bd
00000270: ea07 81bd ac18 ebbd e1ce c3bd df12 c13c
00000280: 5dc4 d3bc e45d 013d 7fdc f73d b213 ddbd
00000290: a3ae e43d 9c75 a2bc fdd3 b7bc 88e5 4e3d
000002a0: 013e b63c d2df a63d 3f65 a7bd 38cb 123d
000002b0: 8d39 383d 5b44 ed3c f69b 903c 6103 febc
000002c0: 99b9 2b3d e5d5 b83d fbfd 803b 5050 85bc
000002d0: 4909 87bd b721 a9bd c25b c43d a1b2 ea3d
000002e0: 1ef9 ed3c 1cbf f93d 25fa fcbd fe12 213d
000002f0: 9125 75bd 5a45 debd b433 c5bd dcea d2bd
00000300: 05f8 edbd 0c82 6f3c a34f 873c 05ac c13d
00000310: fac8 3bbd 72ad 833d 206e 983c fcf5 efbd
00000320: 2ac7 f53b 13cb 813d 8a61 e33d 3ae5 73bd
00000330: fd23 c8bd fb69 653d 3d04 4ebd 12b8 4c3d
00000340: 2269 efbd 932b 9e3c 092b a7bd 9304 6abd
00000350: c3a5 c23d 7a9e b43c 5e91 ec3d f2f6 d13d
00000360: 2e2c d53d f35b b53d 1ccf eabc ab4f 9a3c
00000370: e569 873d f2d3 a43d 99e8 cabd 4a0a c23d
00000380: b814 54bd 5531 2ebd 061f e7bd 7372 fabb
00000390: ebaa f53d 3176 a43d d130 fb3d 6e8c 2cbd
000003a0: 6d98 973c fe7f bebd 3ac9 623d 62cb 813c
000003b0: b792 ddbd fe76 eebd 5116 dbbd 5a51 fabd
000003c0: c2d8 963d 277d 20bd f4a6 acbc fe7d e93c
000003d0: 2353 bdbd 7117 96bd ec20 89bd b570 2e3d
000003e0: 0425 623c f6da 88bd d4b1 eb3d 1adc a03d
000003f0: bfa5 fd3c 9981 353d 0198 ecbc 4ae6 c8bd
-0.08498783 -0.033162154 -0.016177619 -0.060903188 -0.011722674 -0.004464253 0.09759378 0.112042226
-0.12078263 0.012384769 -0.082492486 0.067114875 0.0841947 -0.038926747 0.10183464 -0.06347238
0.051291488 -0.084808245 0.03442577 -0.023103148 0.041214667 0.0065084146 0.0638245 -0.0851551
-0.00250213 0.039551433 0.12084336 -0.06350699 -0.072660275 0.054840468 0.06671405 0.055407852
0.002678769 0.10804137 -0.010925799 0.046353914 0.018160159 0.0043982086 -0.050015707 -0.023294685
0.0418812 0.011547097 0.12312507 0.08802002 -0.011403861 -0.0041843913 -0.08543189 0.10493618
0.07989352 0.08414757 0.04330227 0.015187721 -0.022297803 -0.11483733 0.005273359 0.122733265
-0.026081877 0.032038465 0.010824023 0.023668023 -0.08265418 0.005192823 -0.039175898 0.08727199
0.028913427 -0.06933577 0.06763448 -0.08469408 0.030408973 0.121377535 0.030797457 -0.0042318767
0.024920303 -0.010949308 0.084213234 -0.09409814 -0.093400285 0.097405575 -0.06832119 -0.0412585
-0.035982206 0.08276612 0.1212835 -0.076512896 -0.06356509 0.08506331 0.054846674 -0.122495644
-0.04341706 0.0930681 -0.09521956 0.024297602 -0.022397917 -0.1172338 -0.11972886 -0.061532017
0.028727572 0.0011679603 0.06630781 -0.11739405 -0.008337717 -0.11694702 0.09925584 0.086749695
-0.0011539307 -0.06574383 0.112800926 0.068398125 -0.03149554 0.083029605 0.10444909 0.0060702357
0.035519075 0.04006619 -0.11180634 -0.015319593 0.12119526 -0.019530306 -0.0111426795 -0.017061105
-0.06101013 0.11566782 -0.014597048 -0.010519223 0.1015851 0.022508275 0.031756047 -0.1075444
-0.07422132 -0.022882937 -0.013091492 -0.100767344 0.06569872 0.10728002 0.083262496 0.04690397
0.047140345 0.04062139 -0.071128875 -0.06733068 0.07199987 -0.062062073 -0.063988015 0.014711656
0.05019994 0.079094544 0.04689768 -0.0109891165 0.100546524 0.0049319635 -0.11045305 -0.048386
-0.062535614 0.083184175 -0.030825565 -0.04122609 -0.063003376 -0.11479315 -0.095609434 0.023568569
-0.02585047 0.03158368 0.12102603 -0.10794772 0.11166122 -0.019831471 -0.022439951 0.050511867
0.022246363 0.08148159 -0.08173608 0.035838336 0.04497676 0.028963258 0.017652493 -0.03100747
0.041925047 0.09025172 0.003936527 -0.016273648 -0.06593568 -0.08258384 0.09587814 0.11459852
0.029049452 0.12194654 -0.12352399 0.039324753 -0.05985028 -0.108530715 -0.09629002 -0.10298702
-0.116195716 0.014618408 0.016517466 0.09456638 -0.045845963 0.064295664 0.0186072 -0.1171684
0.007500549 0.063375615 0.111025885 -0.05954478 -0.09772489 0.056009274 -0.05029701 0.04998023
-0.11689974 0.019307887 -0.08162505 -0.05713327 0.09504273 0.022048224 0.11551164 0.10252179
0.10408817 0.088554285 -0.02866321 0.018836817 0.06611995 0.08048238 -0.09907646 0.09474619
-0.05177757 -0.042527515 -0.11285214 -0.007643038 0.11995491 0.08030356 0.1226517 -0.04212611
0.0185053 -0.09301756 0.055367686 0.01584405 -0.10818999 -0.1164379 -0.10697616 -0.12222548
0.07365562 -0.039181855 -0.021075703 0.02850246 -0.09244373 -0.0732869 -0.066957325 0.042587955
0.0138027705 -0.066823885 0.115085274 0.07854481 0.030962823 0.044313047 -0.028881075 -0.09809549

weight_hh_l1 f4 [256, 64]
00000000: eab5 eb3d 6596 cf3d 6ffc bcbd cd3c c03c
00000010: 9f05 8138 7c5b e83c c97c a83d 0bb4 e53d
00000020: 1971 90bd b06b 9cbd 3fe6 c23d 158d f83d
00000030: 40e3 8e3d 4e0a 3fbc b194 70bc 6a68 2ebd
00000040: 891e fd3d 1735 0d3d d004 ddbd 3caa 8d3d
00000050: 4da6 7c3d db73 e4bc 3db0 643d a522 12bd
00000060: b8b3 74bc a458 493d 9758 7abd b7ff fc3d
00000070: f580 dbbd 4192 0c3c c20d 5ebd 114f 34bc
00000080: c7a7 093d 2a4a edbd 9e1c f83d 864b 9abd
00000090: 70f6 623d 485f b13c a996 c93d 03bd abbc
000000a0: 5c77 90bd f66f e13d 9cfa 9fbd f665 7abd
000000b0: 24f6 a53c 170e e63d 0d4f ba3d 6e87 c6bd
000000c0: 7506 2bbd 87d8 c9bd 7fe9 6d3d fcaa 933d
000000d0: 20dd e7bd e3d3 b6bd 6166 773d 4522 e73c
000000e0: e570 fcbc 0707 d7bd 163b 60bd 0732 2abd
000000f0: 90dc 113c f547 ba3d dff3 bfbd 2adf d6bd
00000100: 0175 31bd 6301 c8bc 4e9a da3b a4c6 503d
00000110: e729 1cbd 328c 3a3d 15a2 133a 4564 e0bd
00000120: dd88 963d 7de1 a7bc 8278 e73d 1318 a23d
00000130: 6b76 00bd 1d6e cabb 530c e3bd 29c3 ffbd
00000140: a5d5 9c3d fc3e 73bd 7089 dbbd c72f 7abd
00000150: 64e6 34bc 7de9 093d 8dfe fcbb a8eb 81bd
00000160: f006 6ebd 7797 5ebd f073 a6bd 1684 c9bd
00000170: 767c 41bd b702 3ebd 6d11 07bb 2c8f e6bc
00000180: 4e53 f23d 24e0 e23d b80e 213a 3bfc b73d
00000190: 2a44 0f3d 463f c63d c11d 413c 847e 123d
000001a0: 15f5 2b3a c1b6 45bd 1d84 39bc 1d32 86bc
000001b0: 6645 5cbd 7dc5 613c 8545 963b ef2c a23d
000001c0: 4106 98bd 09a9 f03d 5b1a 16bd ce07 923d
000001d0: 8523 513b cc90 ac3d f31b f43d aca7 8ebd
000001e0: 3c16 2b3d 87fc 7bbd 476d 613d d202 813d
000001f0: 3d21 b53d 832a 98bd bd18 0cbd d197 5b3c
00000200: 21aa 80bd ea32 e83d 68bc fb3d c57b ebbd
00000210: b54c 00be 999b bfbd fdf1 d43d e3ec 843c
00000220: 85d6 e93d 4b19 82bd f505 c43d d037 453d
00000230: 0410 773c 82d2 c13d f15d d33d 8b18 dc3d
00000240: 6a47 c9bd 4d85 4abd be10 833d c16b e1bd
00000250: 8406 95bd 5e6d 84bd 154a 143c d2e0 0dbd
00000260: 0ddd c33c 3762 313d 49b7 dd3d 2308 bfbc
00000270: 90df fb3c 64c6 ccbd 470c 9dbc 9efc 1d3d
00000280: 828c 633d ffae 983d 9131 be3d 0db4 18bc
00000290: 5707 fc3b 100f 99bd 1d43 1bbc d651 983d
000002a0: 6872 92bd ed60 8fbd 5ab2 583d 1a6a 64bd
000002b0: 268f 92bd f3cb 3abb 2ded f53d a66e 3cbd
000002c0: d74b a13d 372f ca3d 6910 dc3d 16ec a1bd
000002d0: ce84 89bd b2e9 683d 2fbe 1b3c f176 e8bd
000002e0: 769b a9bc 0a4a 82bc c6c3 ecbd 26ff 3e3d
000002f0: d315 d1bd a4c2 a0b9 13c5 0dbd a3aa a43c
00000300: 7e19 24bd c662 a63c da24 8a3d 40ed 18bb
00000310: 1089 9ebd e2c8 ce3d fc6b afbd 01d0 ed3d
00000320: 59fb 18bd 0a6c 70bd 4717 88bd df48 52bd
00000330: 1110 ce3d 518a f4bd 62f2 3c3d 824f 72bd
00000340: 1a70 b43b 7a42 a23c a543 f13c e12b 98bd
00000350: 078a 163d e922 1c3c dbb1 67bd f066 f33d
00000360: fe7a a7bb 3443 4ebd eaa0 7cbd 6323 f7bd
00000370: 1145 073d 30cc 83bd 1f89 953d 20fa debd
00000380: adbf 813d 0271 dbbd 394a d6bd 0d2b 57bd
00000390: 9221 433b 9e22 773d 7a11 0a3d 8e47 27bd
000003a0: 2792 7a3d a7aa 5abd 6b61 8c3d 1295 d7bd
000003b0: cbe3 f7bd 9f9d 8fbc 4649 94bd 69fa c4bc
000003c0: b65d b2bd a143 583d 9615 353b f7bb c23d
000003d0: 9070 66bd 1d59 d9bd d923 ad3d 7f4e cbbb
000003e0: f0ee e9bd c119 a4bd 459d 0cbb 4b9d bcbb
000003f0: 0ec5 823b a6a5 8e3c 3f56 86bb 0e24 eabd
0.11509307 0.10136107 -0.092278354 0.023466492 6.152246e-05 0.028363936 0.08226926 0.11215981
-0.07052822 -0.07637727 0.09516572 0.12136284 0.06976938 -0.011660172 -0.014683888 -0.042580046
0.1235934 0.03447446 -0.107919335 0.06917235 0.061682034 -0.027887275 0.055832136 -0.03567757
-0.014935426 0.0491568 -0.061119642 0.12353461 -0.10717956 0.0085797915 -0.05421234 -0.011005179
0.03360727 -0.11586411 0.12114833 -0.07533936 0.055410802 0.021651879 0.09843189 -0.020964151
-0.07054016 0.11007683 -0.07811472 -0.061132394 0.02025897 0.11233156 0.09097109 -0.096938
-0.041754205 -0.098557524 0.058084007 0.07210347 -0.11321473 -0.08927133 0.06040037 0.028214583
-0.030815551 -0.10499387 -0.05474385 -0.041551616 0.008902684 0.09095756 -0.093726866 -0.10491784
-0.043324474 -0.024414724 0.0066712266 0.05097069 -0.0381259 0.045543857 0.0005631757 -0.10956625
0.07350323 -0.020493263 0.11302282 0.07914748 -0.031362932 -0.0061776773 -0.11086335 -0.12488396
0.07657937 -0.05938624 -0.107195735 -0.06108072 -0.0110412575 0.033669937 -0.0077207745 -0.06343776
-0.058112085 -0.054343667 -0.08127582 -0.098396465 -0.047237836 -0.046389308 -0.0020609752 -0.028144442
0.11832295 0.11077908 0.0006143856 0.08983656 0.034977116 0.09680037 0.011786879 0.035765186
0.00065596524 -0.04826999 -0.011323002 -0.016381318 -0.05377712 0.013779995 0.004585924 0.07918727
-0.07423068 0.11750991 -0.03664623 0.07130395 0.003191204 0.08426055 0.119193934 -0.069655746
0.04176925 -0.061520126 0.055035856 0.06299366 0.0884423 -0.074299835 -0.03420328 0.013402895
-0.062824495 0.11337836 0.12291795 -0.114982165 -0.12529261 -0.0935585 0.10397718 0.016226238
0.114178695 -0.063524805 0.09571449 0.04814893 0.015079502 0.09463979 0.10320652 0.10746869
-0.09828074 -0.04944353 0.06399678 -0.110068806 -0.072766334 -0.06466173 0.009050866 -0.034638233
0.023909116 0.043306556 0.108259745 -0.02331931 0.030746251 -0.099987775 -0.019170893 0.038570993
0.05555392 0.07455253 0.09286798 -0.009320271 0.0076913047 -0.07473576 -0.00947645 0.07437484
-0.071507275 -0.07000909 0.052904464 -0.05576525 -0.0715621 -0.002850291 0.12008128 -0.04600396
0.078757934 0.09872287 0.107453175 -0.07906358 -0.067147836 0.056863494 0.0095057925 -0.11350811
-0.020704012 -0.015904445 -0.11560778 0.046630047 -0.10209241 -0.00030662597 -0.034611773 0.020100897
-0.040063374 0.02031077 0.0674531 -0.0023334771 -0.07740986 0.10096909 -0.08565518 0.11611939
-0.03734908 -0.058696784 -0.06645065 -0.051339027 0.10061658 -0.11940444 0.04612959 -0.059157856
0.0055065276 0.01980709 0.0294512 -0.07430244 0.036752727 0.009529808 -0.0565661 0.11884868
-0.0051110974 -0.05035706 -0.061676897 -0.12067296 0.03302485 -0.0643543 0.073015444 -0.10887551
0.063353874 -0.10714914 -0.104633756 -0.05253129 0.0029774648 0.060335748 0.033708073 -0.040839724
0.061174538 -0.053385403 0.068545185 -0.1052648 -0.12103995 -0.017531214 -0.07240538 -0.024045186
-0.0870928 0.05279887 0.0027631274 0.09508508 -0.05625969 -0.106127 0.08454103 -0.006204426
-0.11422527 -0.08012725 -0.0021456045 -0.0057560555 0.003990776 0.017412972 -0.004099637 -0.11432658

bias_ih_l1 f4 [256]
00000000: bbf6 5a3c acdc 00bd 9e3f 91bb 649a aa3d
00000010: 984a 7bbd cd93 dd3d 6e5e 90bc 15c7 233d
00000020: 34b8 76bd 3b82 663d 8c2d 583d a321 f43c
00000030: ab44 85bd e72b d9bd 7a5f c0bd 358b 903d
00000040: 6f86 c13d 42e7 8b3d 7204 663d 90b3 16bd
00000050: 35b5 b83d 7e20 b13d 96f0 013d b5cf 83bd
00000060: ce40 3cbd 0002 7e3d d181 3cbd 7cea eb3d
00000070: 1c5e e8bd 6fc6 1e3d 3532 0abd a30e b3bd
00000080: 19b0 263d aa8b c13d 492a a2bd d3bb e53d
00000090: 68fe 143d 6abe 833d 9f56 11bd 966f d1bc
000000a0: 12d4 f93c c64b 22bd 7567 fd3d 2cc0 dcbc
000000b0: b032 873c bf79 56bd 585a 5f3d b46b cfbd
000000c0: e361 75bc 54c6 6fbd b2b4 dabd c693 cabd
000000d0: 6746 f83d 1616 49bc 05cd 21bd 45e7 c0bd
000000e0: 8969 d2bd 0965 eabd d639 a63d b2e6 41bc
000000f0: 8f64 a53d d3ca f5bd 767c 723c 1498 b9bd
00000100: 8e25 ee3d 7ed8 9abd 8c32 fcbd f567 7b3d
00000110: 9520 c13c 3dba d8bc 3da5 80bd a322 84bb
00000120: 1ab6 1abd 3cbf db3d 8ac9 00be 6787 9ebd
00000130: 7126 debd 3cfe 09bc b4f9 87bb 50a1 e43d
00000140: 518b e7bc 8c0e 30bb efae 7bbd 914c 88bc
00000150: 5720 1c3d 1728 f03d ce3a 8abb 7987 27bd
00000160: 1301 e23d a22e 0a3c 18fb 8b3d 2867 bcbd
00000170: afa7 c33d c940 573d 106d 4cbd ae6c 01be
00000180: 5419 1f3d 18b2 02be 42e6 3fbd d0a6 6abd
00000190: e776 d7bc dfa9 d53b 47d3 ba3c 247b efbd
000001a0: 9a0f 5bbd dfab a53d d865 bebd 2882 9cbd
000001b0: 606c 53bd cbba 803d c67a c53d 8041 32bd
000001c0: 9dcc a0bd aa29 e5bc 21ce aabd e953 7a3d
000001d0: 5c9b e73b bb16 383c 73f1 98bc b098 c83d
000001e0: 588c b73d 1984 183b f7c8 653d 9fde 35bd
000001f0: 1b51 bb3d 4ebe 13bc 1eba bdbd ea56 a3bd
00000200: 2ebe 9ebd b440 c03c f084 23bd 2c8c cf3d
00000210: cdf9 16bc 3562 1ebd 7482 c8bb 3f0c 863d
00000220: 7248 9f3d 125a 2f3d 81c7 9cb9 ae33 7cbd
00000230: be27 2f3d fc96 163d 6a11 5c3d 37cc a2bd
00000240: 9161 90bc cdec e6bb 0366 5abd 287a 853d
00000250: 03bc 813d e22a 1f3d df8a 513d 2b53 aa3d
00000260: b5a9 a4bd ba4d 163d 49aa f3bd c204 8b3c
00000270: f7c8 a7bd ad1a 24bd 7196 6c3c 5e40 803c
00000280: 57ba 8abd c421 bdbc 95c4 023d b352 3e3c
00000290: 24a5 cc3c 8fc1 7bbd 28b6 f2bc 7225 2ebd
000002a0: f623 83bb 9182 8ebd f560 b7bd 8978 293d
000002b0: 7956 54bc a6b4 ce3c 2636 0fbc 9ffc 023c
000002c0: 4456 4e3d ce31 2b3d 9cd1 65bd 6131 93bd
000002d0: 4a1c 893d b9de 52bc 8275 91bd 4c42 bb3d
000002e0: 8dfa 6dbd f0fa f63b b929 df3d e59d 10bd
000002f0: 98fd a4bd 6ea4 4d3c 05fc 17bd 5c43 ce3c
00000300: cc50 b9bb 95d2 b83d 7e5a 053e e23b f0bc
00000310: 984d c03d 7e53 d0bc fd3a 5ebd e80b 763c
00000320: 1acc e6bd 39d3 1dbd 4b47 343d 3c4f 76bd
00000330: 080f 043e 0e40 943d 7e75 403d 35b9 9abb
00000340: 91ec 3ebd 812b 88bc bdd0 f13d de3e 8fbd
00000350: 0c83 863c a92c 383d 04d6 f43d 2f8e 5a3d
00000360: d17a c6bd 19ee ecbd 57e8 bc3d b5b6 dd3d
00000370: 29fb ccbd f3aa 2cbd ed89 b3bd 5ebd 033e
00000380: ecf1 61bd 1cf2 913b c84f 2cbd 6964 473c
00000390: 25a4 403c 4290 003e 434c 843d ec31 a9bd
000003a0: 844e adbc 9f6e 8dbb 5f52 91bd 1973 96bd
000003b0: aa50 e03d 2fad c7bd aaf9 0e3e 6918 52bc
000003c0: 3ac4 cbbd d07a 093c 1bed e43d 729c 9f3d
000003d0: 5898 003e 15a4 803d 99ed 6d3d bb61 efbc
000003e0: 420a 433d c818 133c 98cd ff3d 4807 32bc
000003f0: d0d1 443d fa9d dc3d 6840 3c3d 43e3 ea3a
0.013364489 -0.03146045 -0.0044326326 0.08330229 -0.061350435 0.108192064 -0.017623153 0.03998478
-0.060234264 0.05627654 0.052777812 0.029801195 -0.06507238 -0.10604077 -0.09393211 0.07057802
0.09449469 0.06831218 0.056156583 -0.036792338 0.090189375 0.086487755 0.03172358 -0.06436101
-0.04596024 0.062013626 -0.04602224 0.11519334 -0.11346075 0.03876346 -0.033739287 -0.08743026
0.040695284 0.09450467 -0.079182215 0.11217465 0.036375433 0.06432803 -0.035483 -0.025565904
0.03049663 -0.039623044 0.123732485 -0.026947103 0.016503662 -0.0523622 0.054529518 -0.101279646
-0.014976951 -0.05853875 -0.10678996 -0.09891467 0.12122803 -0.012273332 -0.039502162 -0.09419111
-0.102740355 -0.11445052 0.081165 -0.011834787 0.08075821 -0.12001576 0.014800182 -0.0906221
0.11628257 -0.07560824 -0.123143286 0.061378438 0.023575107 -0.026455993 -0.06281517 -0.0040324493
-0.03777132 0.107298344 -0.12576881 -0.0774067 -0.10847176 -0.008422431 -0.00414964 0.111635804
-0.028264673 -0.002686414 -0.061446127 -0.016638072 0.03811678 0.117263965 -0.004218436 -0.04090068
0.11035361 0.00843397 0.06835002 -0.09199363 0.095534675 0.05255202 -0.049908698 -0.12639114
0.038842514 -0.1276325 -0.04685045 -0.05728799 -0.026301814 0.0065204944 0.022805823 -0.11693409
-0.053481676 0.080894224 -0.09296769 -0.07642013 -0.051617026 0.06285628 0.09642558 -0.043519497
-0.07851527 -0.027973969 -0.08340097 0.06111518 0.007068081 0.011235888 -0.01866982 0.09794748
0.08962315 0.0023272096 0.056099858 -0.04440176 0.09146329 -0.00901754 -0.09264015 -0.07975562
-0.07751118 0.023468353 -0.0399217 0.101341575 -0.009214831 -0.038667876 -0.006119067 0.065453045
0.0777749 0.042810507 -0.0002990328 -0.061572723 0.04276251 0.036765084 0.053727545 -0.07949107
-0.017624648 -0.007047272 -0.053319942 0.0651744 0.063346885 0.038859256 0.05115783 0.08316644
-0.080401815 0.03669522 -0.11897714 0.016970042 -0.08192628 -0.040064503 0.014440165 0.015655693
-0.06773823 -0.02308739 0.031925756 0.011616397 0.024981089 -0.06146389 -0.029627874 -0.04251618
-0.0040020896 -0.06958497 -0.0895404 0.041374717 -0.01296007 0.025232624 -0.008740937 0.0079948
0.050375238 0.041795544 -0.056108102 -0.07187153 0.06694849 -0.012870484 -0.07102491 0.091435045
-0.058100272 0.0075372383 0.1089663 -0.03530683 -0.08056182 0.01255141 -0.03710558 0.025178604
-0.0056553837 0.0902454 0.13022801 -0.02932543 0.093898 -0.025430437 -0.054255474 0.015017487
-0.11269398 -0.038531516 0.044013303 -0.060134158 0.12896359 0.0723878 0.04698705 -0.0047217854
-0.046612326 -0.016622307 0.11807392 -0.06994413 0.01641991 0.044964466 0.11954883 0.053358253
-0.09691394 -0.11568851 0.09224003 0.10825864 -0.100088425 -0.042155217 -0.08766542 0.12865207
-0.055162355 0.0044539105 -0.042068273 0.012169936 0.011757885 0.1255503 0.06459858 -0.08261475
-0.021155603 -0.0043161656 -0.07095789 -0.07346172 0.109528854 -0.09749829 0.13962427 -0.012823203
-0.099495366 0.008391097 0.11178037 0.077935115 0.12558115 0.06281296 0.05808792 -0.029221406
0.047617204 0.008978076 0.12490386 -0.010865994 0.048051655 0.10772319 0.04595986 0.0017920512
